model_flock/flock/agent_0/10_actor_params.pkl (torch, 39031 bytes, 8 tensors)

fc1.weight f4 [64, 8]
0	0x3e07edd7	0.13274322
1	0xbe446dbb	-0.19182484
2	0xbe254875	-0.16140921
3	0xbe8ecfe0	-0.2789297
4	0xbb7be1b1	-0.0038434083
5	0x3d7d6f8b	0.061873954
6	0x3ec78c23	0.38974103
7	0x3ef6e9a4	0.4822513
8	0x3e0347cd	0.12820359
9	0xbe364d71	-0.17802979
10	0xbe3a93a1	-0.18220378
11	0xbd4f86b1	-0.05066556
12	0x3deef526	0.11667852
13	0xbd9ad267	-0.07559662
14	0x3e725115	0.23663743
15	0xbdf1b714	-0.118024975
16	0xbd0ac0eb	-0.033875387
17	0xbc659267	-0.014011956
18	0xbeb3acb0	-0.35092688
19	0xbe7a062a	-0.24416414
20	0xbe66c72c	-0.22536916
21	0x3ebb903f	0.3663349
22	0x3f11d212	0.56961167
23	0xbe249cb0	-0.16075397
24	0xbe1d2d8b	-0.15349405
25	0xbe916182	-0.28394705
26	0xbea18204	-0.31544507
27	0x3e7334c5	0.23750599
28	0x3d8882e8	0.066655934
29	0xbe9aa9b2	-0.30207592
30	0x3d81f2e3	0.06345155
31	0xbe86ee9b	-0.26353917
32	0x3c2b8b4f	0.0104702255
33	0xbe0612ea	-0.13093153
34	0xbe62190a	-0.22079864
35	0x3ead0a11	0.33796743
36	0xbc3e2f95	-0.011608024
37	0xbd3d5f48	-0.046233445
38	0x3e365214	0.17804748
39	0xbe8b845e	-0.27249426
40	0x3f133623	0.5750448
41	0x3df5f049	0.120087214
42	0x3e49f8dd	0.1972384
43	0xbdb091d9	-0.08621568
44	0xbe83f72c	-0.25774515
45	0x3eceb40b	0.40371737
46	0x3eaf4212	0.34230095
47	0x3e438cd7	0.19096695
48	0xbea6fbb5	-0.32613912
49	0xbddc124e	-0.10745679
50	0x3e89b988	0.26899362
51	0x3e235b6b	0.15952842
52	0x3cde9d21	0.027174534
53	0x3e860529	0.26175812
54	0x3d78f9d1	0.06078512
55	0x3e53a94b	0.20670049
56	0x3ea54b0b	0.32283816
57	0xbddd4a88	-0.10805231
58	0xbe3be598	-0.18349302
59	0xbe720b39	-0.23637094
60	0xbdbb571e	-0.09147476
61	0x3e79d46d	0.2439744
62	0x3e28f1f3	0.16498546
63	0x3e764fb0	0.24053836
64	0x3ebcb4cf	0.36856696
65	0xbd58d57b	-0.052937966
66	0xbce77b71	-0.028257104
67	0x3d75b15b	0.059983592
68	0xbe95e201	-0.2927399
69	0x3e9c5129	0.3053067
70	0x3ecedfda	0.4040516
71	0x3e313d76	0.17308602
72	0x3e0f59d7	0.13999115
73	0x3ef3bd00	0.47605133
74	0xbebd037a	-0.36916715
75	0x3dcef4ae	0.10105263
76	0xbd4bd588	-0.049764186
77	0xbe8bd7ff	-0.2731323
78	0xbecc706a	-0.39929515
79	0xbe9094b3	-0.28238449
80	0x3d997ed4	0.07494894
81	0xbe86db9a	-0.26339418
82	0xbe9192f6	-0.28432435
83	0xbe101058	-0.14068735
84	0x3e7caa63	0.24674372
85	0xbe3f99ec	-0.1871106
86	0xbe804fcc	-0.2506088
87	0x3e6cc382	0.23121455
88	0x3ec76e43	0.3895131
89	0xbdf49bab	-0.11943754
90	0x3e26e2ca	0.1629745
91	0xbe7d9eda	-0.24767628
92	0xbe98a562	-0.29813677
93	0xbd0a6f5b	-0.033797603
94	0x3e94836b	0.29006514
95	0xbd94226e	-0.072331294
96	0x3e988c3f	0.297945
97	0x3edc49ca	0.43025047
98	0xbd3ac7da	-0.04560075
99	0xbea455f0	-0.32096815
100	0xbeb5d94d	-0.3551735
101	0x3e8ac6ee	0.27104896
102	0xbd876d8a	-0.0661269
103	0xbeeea865	-0.4661285
104	0xbde438d5	-0.11143652
105	0xbe07ab36	-0.13248906
106	0xbe71b36b	-0.23603599
107	0x3eec01ea	0.4609521
108	0x3e5ce085	0.21570022
109	0xbee8a74a	-0.4544013
110	0x3e8a582b	0.27020392
111	0x3eb9f00d	0.36315957
112	0xbec640f4	-0.3872143
113	0x3e9cf7aa	0.30657703
114	0x3e26b2c3	0.1627913
115	0xbe7c4d61	-0.24638893
116	0x3d989060	0.07449412
117	0xbdea192a	-0.11430581
118	0xbd7916dc	-0.060812816
119	0x3f046a67	0.5172486
120	0xbe05c62f	-0.13063882
121	0x3dfb027e	0.12256335
122	0x3e78326f	0.24237989
123	0x3e4c42de	0.19947383
124	0x3e94307c	0.2894324
125	0xbe76db76	-0.24107155
126	0xbe65736e	-0.22407314
127	0x3ea4e1b2	0.32203442
128	0xbe3c183b	-0.18368618
129	0xbe595971	-0.21225525
130	0x3e974e34	0.29551852
131	0xbdcfc7f1	-0.10145558
132	0xbdf7e551	-0.121042855
133	0x3eafb6f5	0.34319273
134	0xbea32664	-0.31865227
135	0xbeb1976e	-0.34685844
136	0xbddc4c78	-0.10756773
137	0x3df3aff9	0.118987985
138	0xbe7f413d	-0.2492723
139	0x3e74b9d3	0.23899011
140	0x3e9ee89a	0.31036836
141	0x3b7d0022	0.0038604815
142	0x3e671d9e	0.22569892
143	0x3d679032	0.056534
144	0xbebba52e	-0.3664946
145	0x3e4f0662	0.20217279
146	0x3e9cef2d	0.30651227
147	0xbe54f6b0	-0.20797229
148	0x3ec09503	0.37613687
149	0x3e26d508	0.16292202
150	0xbe3548ff	-0.17703627
151	0xbe385396	-0.18000636
152	0xbe214d55	-0.15752156
153	0x3e9c5e21	0.30540565
154	0xbc36e74e	-0.011163546
155	0x3ecfbd2f	0.40574023
156	0x3daf143a	0.0854878
157	0xbe8899f9	-0.26679972
158	0xbf13439a	-0.57525027
159	0xbcb9e8f8	-0.022694096
160	0xbe164ba4	-0.14677292
161	0xbdbc6824	-0.09199551
162	0x3e9326d1	0.28740552
163	0x3e2b45b2	0.16725805
164	0xbe91425b	-0.28370938
165	0xbecb232d	-0.39675274
166	0xbeeb18a3	-0.45917234
167	0x3d83a8b1	0.0642866
168	0xbea19600	-0.31559753
169	0xbe4a4465	-0.19752653
170	0x3d83c431	0.06433905
171	0xbd6d08a4	-0.05786957
172	0x3d3de31c	0.046359167
173	0xbeb8043e	-0.35940737
174	0x3ed19390	0.40932894
175	0x3e927ec2	0.28612334
176	0xbe6b0c73	-0.22953968
177	0x3d5c70c9	0.053818498
178	0xbe0f81ed	-0.14014407
179	0xbe638756	-0.22219595
180	0xbe5758f7	-0.21030031
181	0x3e889da1	0.2668276
182	0x3e904a29	0.2818158
183	0xbebb12c1	-0.36537746
184	0xbdd2f828	-0.10301238
185	0xbd3b8def	-0.045789655
186	0x3dd17162	0.10226704
187	0xbeaa8456	-0.3330409
188	0x3eb59627	0.3546612
189	0x3dc21f96	0.09478681
190	0x3e9e14d9	0.3087528
191	0xbec63fe6	-0.38720626
192	0x3c00c33c	0.0078590475
193	0x3de7670f	0.11298954
194	0x3deca9e7	0.11555844
195	0xbeb0feb1	-0.34569314
196	0x3c64d282	0.013966205
197	0x3cc42ebe	0.02394807
198	0x3eb2bc69	0.3490937
199	0x3ee6605a	0.44995385
200	0xbea2c593	-0.31791362
201	0x3ea55c99	0.3229721
202	0xbe6eb04f	-0.23309444
203	0x3e447e3d	0.19188781
204	0x3e706e62	0.23479608
205	0x3e4886a7	0.19582616
206	0xbe1e7586	-0.15474519
207	0xbeadc4bc	-0.3393916
208	0xbee26ed6	-0.44225186
209	0x3e11dc32	0.14244154
210	0x3e988665	0.29790035
211	0xbda7913f	-0.08182
212	0x3e23eb65	0.16007765
213	0x3d16c742	0.03681112
214	0x3e87b184	0.2650262
215	0x3f026bbc	0.5094564
216	0x3e1e8008	0.15478528
217	0xbe5e8ee0	-0.2173419
218	0xbdef76ce	-0.11692582
219	0xbdd71561	-0.105021246
220	0xbec81c43	-0.39084062
221	0x3e4d735d	0.20063539
222	0xbd0f86f9	-0.03504083
223	0xbd4b4c93	-0.049633574
224	0xbd09703e	-0.033554308
225	0xbd6458d9	-0.055748794
226	0x3e8f2e05	0.27964798
227	0xbcfe0477	-0.031007988
228	0x3df07f88	0.11743075
229	0xbdded309	-0.108800955
230	0x3ed75384	0.42055905
231	0x3eb2fe94	0.34959853
232	0xbe9b6660	-0.30351543
233	0xbec039df	-0.37544152
234	0x3dea7844	0.1144872
235	0xbe41babc	-0.1891889
236	0x3ec3e91e	0.38263792
237	0x3db8de11	0.09026731
238	0xbdd092b2	-0.1018423
239	0x3dbf60f1	0.09344662
240	0xbe894929	-0.2681363
241	0x3ddb3545	0.1070352
242	0x3e3b0b9b	0.18266146
243	0x3e906a91	0.28206304
244	0x3eadd6a7	0.3395283
245	0x3ea463f5	0.3210751
246	0xbe136afc	-0.1439628
247	0x3ef15d84	0.4714166
248	0xbebd568a	-0.36980087
249	0xbebfe3d4	-0.37478507
250	0xbdb61e27	-0.0889247
251	0xbebc9525	-0.36832538
252	0x3e45d3cf	0.1931908
253	0x3eb4450c	0.3520893
254	0x3e12c65f	0.14333485
255	0xbe7a7e86	-0.24462327

fc1.bias f4 [64]
0	0x3e46e94a	0.1942493
1	0x3ef57516	0.47940892
2	0x3ebcdf4a	0.36889106
3	0x3d9053d6	0.070472404
4	0x3ea5ef2c	0.32409036
5	0x3e8bd5f9	0.27311686
6	0xbe843987	-0.2582514
7	0x3afd70a4	0.0019335938
8	0x3d8e3bfc	0.06945035
9	0xbdb47b9f	-0.08812641
10	0x3dddf3c1	0.10837508
11	0xb89ce872	-7.481956e-05
12	0xbe8ddfb5	-0.27709737
13	0x3e1eb2e5	0.1549793
14	0x3e5cbbfd	0.21556087
15	0xbd8650e7	-0.065584
16	0x3cc4bcbf	0.024015782
17	0x3e90b656	0.2826411
18	0x3d6b5cd1	0.057461563
19	0x3e03e0dd	0.12878747
20	0xbe2228d6	-0.1583589
21	0xbe9e66b4	-0.3093773
22	0x3d4584a5	0.048222203
23	0x3b9007d4	0.0043954644
24	0x3ed3d9cb	0.413771
25	0x3e93a908	0.28839898
26	0xbe859c78	-0.2609594
27	0x3e9d49ba	0.3072031
28	0x3d26eb3d	0.040751684
29	0x3d921117	0.07132166
30	0xbd0b819a	-0.034059145
31	0x3d47b1b0	0.04875344
32	0x3e89c949	0.2691138
33	0x3ca0c1f6	0.019623738
34	0x3ea0d8ef	0.31415507
35	0x3d0be7d1	0.034156624
36	0x3e4a8745	0.19778164
37	0x3de1dd31	0.11028517
38	0x3eb1ecd9	0.34751013
39	0x3e34f9e4	0.1767345
40	0x3df31e72	0.11871041
41	0xbe8ee301	-0.27907565
42	0x3eb28974	0.34870493
43	0xbe07f19f	-0.13275765
44	0x3e941ec7	0.2892973
45	0x3e3b75a7	0.183066
46	0x3e682062	0.22668603
47	0xbe046136	-0.12927708
48	0xbe9adcc4	-0.30246556
49	0xbc3cd2e9	-0.011524894
50	0x3e18fbca	0.149398
51	0x3bd590db	0.0065175123
52	0xbdf2a5aa	-0.11848004
53	0xbebae5dd	-0.36503497
54	0xbdaa6b02	-0.08321191
55	0x3eb2d704	0.3492967
56	0x3e00b903	0.12570576
57	0xbd646af8	-0.055766076
58	0xbe9470b6	-0.28992242
59	0xbbe68664	-0.0070350636
60	0xbe5e48da	-0.21707478
61	0xbde0b6d2	-0.1097237
62	0xbed3cc2f	-0.41366717
63	0x3ef8f675	0.48625532

fc2.weight f4 [64, 64]
0	0x3b59e335	0.0033246998
1	0x3df0ff5f	0.11767458
2	0xbd7bc807	-0.061470058
3	0xbcb7247e	-0.022356268
4	0x3d19a6ce	0.037512593
5	0x3d7714dd	0.06032263
6	0x3e46c771	0.19412018
7	0x3d4eef88	0.050521404
8	0x3d37e7c8	0.04489878
9	0xbdd33637	-0.10313075
10	0x3d06e24a	0.03293065
11	0xbda31823	-0.07963588
12	0xbe498b6a	-0.19682088
13	0xbd1a0eb4	-0.03761168
14	0xbc73eead	-0.014888448
15	0xbc3d428f	-0.011551513
16	0xbd6066ec	-0.054785654
17	0xbcd9aedd	-0.02657264
18	0x3ddbef8f	0.107390516
19	0xbdec6c1d	-0.115440585
20	0x3d1b6b15	0.03794392
21	0x3db83d87	0.089961104
22	0x3dc84f8a	0.09780796
23	0x3e0a3ec7	0.1350051
24	0x3c27e3e8	0.010247208
25	0x3da0fe34	0.078609854
26	0x3e0351b4	0.12824136
27	0x3dd89fd7	0.10577362
28	0xbdbab129	-0.09115822
29	0x3db2e0c7	0.08734279
30	0x3e08649b	0.13319628
31	0x3b4590a0	0.0030146018
32	0x3d95d341	0.07315684
33	0xbcc18a77	-0.023625595
34	0xbd2929cc	-0.041299626
35	0xbde92217	-0.11383455
36	0x3c13e086	0.0090256985
37	0x3d598b47	0.05311134
38	0x3c183076	0.009288898
39	0xbc96a90e	-0.018391158
40	0x3ddd307a	0.10800262
41	0xbbc03813	-0.0058660596
42	0x3daabf32	0.08337249
43	0xbcf98ed0	-0.030463606
44	0xbd8dfe32	-0.069332495
45	0xbe8135a5	-0.2523624
46	0xbdd5f1d1	-0.104465134
47	0x3bfd4b05	0.0077298903
48	0xbdb3648c	-0.08759412
49	0x3d2c41c0	0.04205489
50	0xbda4339e	-0.08017658
51	0x3e1eb8d0	0.15500188
52	0xbde34d63	-0.11098745
53	0xbda25eb7	-0.07928222
54	0x3dfc2d71	0.12313355
55	0xbe25f343	-0.16206078
56	0xbd8dacd2	-0.069177285
57	0x3dc1abcb	0.09456595
58	0x3dac816d	0.084231235
59	0xbdd36bd7	-0.10323303
60	0x3dd80932	0.10548629
61	0x3dce6d8e	0.1007949
62	0x3de994f2	0.11405362
63	0x3dfd571b	0.1237013
64	0x3d9dccae	0.07705055
65	0x3c342a27	0.010996378
66	0x3d2c42f6	0.042056046
67	0xbd5211b0	-0.0512864
68	0xbdafeb18	-0.085897624
69	0xbc8f656a	-0.017504413
70	0x3e22b338	0.15888679
71	0x3c33f4bb	0.010983641
72	0xbbd302ea	-0.0064395564
73	0xbcc4f011	-0.024040254
74	0xbcf00c2f	-0.029302685
75	0x3ce2307d	0.027611012
76	0xbdc18196	-0.09448545
77	0xbd8da485	-0.06916145
78	0x3dd6f394	0.104956776
79	0x3b94b973	0.004538709
80	0x3db42421	0.087959535
81	0xbb9e1a0e	-0.0048248833
82	0x3dde93fa	0.10868068
83	0x3d017964	0.031609908
84	0x3d984f80	0.074370384
85	0xbdb0cebe	-0.08633183
86	0xbe04bb66	-0.12962112
87	0xbd6279df	-0.055292007
88	0x3dddb6d9	0.10825891
89	0xbca4d79a	-0.020122338
90	0xbc9e183f	-0.01929867
91	0x3dd1ec27	0.102501206
92	0xbdc67805	-0.09690861
93	0xbd1a9e9d	-0.03774892
94	0xbd803adf	-0.06261229
95	0xbd46a628	-0.048498303
96	0x3e046052	0.12927368
97	0xbd666fd6	-0.056259
98	0x3d5595b6	0.05214473
99	0xbcc57ae9	-0.02410646
100	0x3df37554	0.11887613
101	0x3e598350	0.21241498
102	0x3caadedf	0.020858226
103	0xbc98111e	-0.01856285
104	0xbd599907	-0.053124454
105	0x3e302cbe	0.17204568
106	0xbe0b5a4b	-0.13608663
107	0xbd2716b1	-0.040793125
108	0x3d9b56c5	0.07584909
109	0xbca96671	-0.02067873
110	0x3d933462	0.071877256
111	0x3d776347	0.060397413
112	0x3d97603d	0.07391403
113	0x3740a91c	1.1483466e-05
114	0x3cd45f24	0.025924273
115	0x3c9cca8b	0.019139549
116	0x3d2fca46	0.042917512
117	0x3e10a6f3	0.14126186
118	0x3dce7f1f	0.1008284
119	0x3d33b6a0	0.043875337
120	0x3dd7e922	0.105425134
121	0x3c134936	0.008989623
122	0x3d7086d4	0.058722332
123	0x3de69317	0.11258524
124	0x3d031e70	0.03201145
125	0xbd872d8e	-0.06600486
126	0x3b9f5f10	0.0048636273
127	0xbc5371e9	-0.012905576
128	0xbde6fe17	-0.112789325
129	0x3d5ae642	0.053442247
130	0x3d37a1f2	0.044832177
131	0xbd0feed5	-0.035139877
132	0x3cdac008	0.026702896
133	0xbe37abf8	-0.17936695
134	0xbd832e2c	-0.06405291
135	0xbd9f7868	-0.077866375
136	0x3dcb457d	0.09925363
137	0xbdd1f335	-0.10251466
138	0x3cf185eb	0.029482802
139	0xbda08a06	-0.07838826
140	0x3d47166e	0.048605375
141	0x3d8b947e	0.06815432
142	0xbc2c0075	-0.010498156
143	0x3dcf93f8	0.10135645
144	0x3cdc97fe	0.026927944
145	0x3d0f7008	0.03501895
146	0xbe15afa3	-0.14617781
147	0xbd82f322	-0.0639403
148	0x3e49f11b	0.1972088
149	0x3e239ee9	0.15978588
150	0x3d8ebbda	0.069694236
151	0xbe3eff67	-0.18652116
152	0xbe305eeb	-0.17223708
153	0x3da52b75	0.080649294
154	0xbdcf90a0	-0.10135007
155	0x3b267a4d	0.0025402487
156	0x3d1a3ac3	0.037653696
157	0x3a813c31	0.0009859857
158	0xbdb92e00	-0.09041977
159	0xbd59f0a4	-0.05320801
160	0xbd02232c	-0.031771824
161	0xbd59da47	-0.05318668
162	0x3e167abd	0.14695258
163	0x3e4f57a0	0.2024827
164	0x3d20cfbb	0.039260607
165	0xbd8cd320	-0.068762064
166	0x3e3d1840	0.18466282
167	0x3e552cc5	0.2081786
168	0x3c6e0175	0.014526715
169	0x3d015ad1	0.03158075
170	0x3d3e24b4	0.04642172
171	0x3c5d8aef	0.013521894
172	0x3b7ba1d8	0.0038396027
173	0xbdada413	-0.0847856
174	0x3e1624a2	0.14662412
175	0x3d8c73ae	0.06858002
176	0xbe06f82e	-0.1318061
177	0x3df07944	0.117418796
178	0x3d88caa9	0.06679279
179	0xbd7111e3	-0.05885495
180	0xbdf48da1	-0.11941076
181	0xbe2e8c8f	-0.17045806
182	0xbc8a04b7	-0.016847951
183	0x3d441f66	0.047881506
184	0x3d962940	0.073320866
185	0xbd22c45d	-0.039738048
186	0xbbf7b936	-0.0075599207
187	0x3d8ca138	0.068666875
188	0xbe03227f	-0.12806128
189	0xbcd8bea5	-0.026458094
190	0x3d9f296e	0.07771574
191	0xbda21490	-0.07914078
192	0xbdab5461	-0.083657034
193	0x3a45841d	0.000753464
194	0xbd564c47	-0.052318837
195	0xbd856712	-0.065138
196	0x3de7d3a5	0.11319665
197	0x3b864318	0.0040973537
198	0xbcaa90ed	-0.02082106
199	0xbc89d125	-0.01682336
200	0x3dcab401	0.09897614
201	0x3e180221	0.14844562
202	0xbc4b1db4	-0.0123972185
203	0x3e0376a4	0.12838227
204	0x3a9a02db	0.0011750119
205	0xbbe2844c	-0.0069127437
206	0x3d91f406	0.07126622
207	0xbd37481b	-0.0447465
208	0x3ba6731d	0.0050796405
209	0xbdfa62ad	-0.12225852
210	0xbbb18ca8	-0.005418379
211	0x3d8fbb84	0.07018188
212	0x3c6bfea0	0.014403969
213	0xbe0b1851	-0.13583495
214	0x3d4a5dbe	0.049405806
215	0x3d37a687	0.044836547
216	0x3d75705d	0.05992161
217	0x3d51c951	0.05121738
218	0xbdaf6d7f	-0.085658066
219	0x3e239026	0.15972957
220	0x3d907c76	0.07054989
221	0xbda57bb6	-0.080802366
222	0x3c384abb	0.011248286
223	0xbb5536e5	-0.003253394
224	0x3d828552	0.06373085
225	0x3d92f002	0.07174684
226	0x3e0e553e	0.13899705
227	0x3e3d8524	0.1850782
228	0xbd99d519	-0.07511348
229	0x3e1baed8	0.15203416
230	0xbdad5b85	-0.084647216
231	0x3d49d355	0.049273808
232	0x3e2e13a7	0.16999684
233	0xbdbadadc	-0.09123775
234	0x3e10118a	0.1406919
235	0x3ddcb5a8	0.10776836
236	0x3d13b38e	0.03605991
237	0xbd98a154	-0.07452646
238	0x3de45d20	0.11150575
239	0x3d874eb2	0.06606807
240	0x3db0e7d7	0.0863797
241	0x3d10ecfb	0.035382252
242	0xbd11bf60	-0.0355829
243	0x3e721df0	0.23644233
244	0xbe0a0992	-0.13480213
245	0x3d5e4c26	0.05427184
246	0xbcc6bfbb	-0.024261346
247	0x3d36e10e	0.044648223
248	0xbd0f3deb	-0.03497116
249	0xbce628ee	-0.028095689
250	0x3de192c3	0.11014321
251	0xbca1387d	-0.019680256
252	0xbe158dcd	-0.14604874
253	0xbd933d0f	-0.071893804
254	0x3c457d07	0.012053735
255	0x3e27216f	0.16321348

fc2.bias f4 [64]
0	0x3d730ad6	0.059336506
1	0xbd93797f	-0.07200908
2	0x3d670487	0.056400802
3	0x3dcfeaa0	0.10152173
4	0xbcbe993d	-0.02326643
5	0xbe14a953	-0.14517717
6	0x3d63e115	0.055634577
7	0xbda13bdc	-0.078727454
8	0xbdeaa41b	-0.11457082
9	0x3e445b3e	0.19175431
10	0x3da8b5d6	0.082378075
11	0xbda76692	-0.081738606
12	0x3dd10828	0.10206634
13	0x3e3f73d3	0.18696527
14	0xbde276a2	-0.11057784
15	0x3dbf2d33	0.09334793
16	0x3d55e288	0.05221799
17	0x3e11eaed	0.14249773
18	0xbe5a61b8	-0.21326339
19	0x3e4bf8a4	0.19919068
20	0xbc93c1bb	-0.018036714
21	0xbe785455	-0.2425092
22	0x3e056c7e	0.13029668
23	0xbda5cfb4	-0.08096257
24	0xbd93cc59	-0.072167106
25	0xbe26e1bc	-0.16297048
26	0xbda3b9cc	-0.07994422
27	0x3da56a5e	0.080769286
28	0xbcba4256	-0.02273671
29	0x3dca39f1	0.09874333
30	0xbdecdb79	-0.115652986
31	0xbd821f8b	-0.063536726
32	0x3db1eed8	0.08688134
33	0x3e535f21	0.20641758
34	0xbba5937a	-0.005052981
35	0xbd8e4620	-0.06946969
36	0x3d22453f	0.03961682
37	0x3db9cce7	0.09072285
38	0xbe3adfa8	-0.1824938
39	0x3b81482a	0.00394537
40	0xbe16bfd0	-0.14721608
41	0x3da3fe8a	0.08007534
42	0x3e2f3291	0.17109133
43	0xbdbcdd2f	-0.09221875
44	0xbc586e1b	-0.013209845
45	0x3e017d33	0.12645416
46	0xbc222b3a	-0.009898001
47	0xbd7e796f	-0.062127527
48	0x3cc6f7f2	0.024288151
49	0x3d79cbda	0.060985424
50	0x3dfaeb3d	0.122518994
51	0x3e05f659	0.13082255
52	0xbdfa5869	-0.12223894
53	0x3d7e1d7d	0.06203984
54	0xbe3686d4	-0.1782487
55	0xbe0cd752	-0.13754013
56	0x3e1929fb	0.1495742
57	0x3c73bfd7	0.014877281
58	0xbdda9420	-0.10672784
59	0xbdc9db8c	-0.09856328
60	0x3c5ca22d	0.0134664
61	0xbd355b7f	-0.04427671
62	0xbd7c4619	-0.061590288
63	0xbd2a99ee	-0.041650705

fc3.weight f4 [64, 64]
0	0xbdfb811d	-0.12280486
1	0xbcc5b09b	-0.024132064
2	0xbde303e4	-0.110847265
3	0xbea9ac1a	-0.33139116
4	0x3d90f951	0.07078803
5	0x3dcb6591	0.09931482
6	0x3d8dd547	0.06925445
7	0x3ccfffb1	0.025390478
8	0x3e236488	0.15956318
9	0x3d136fa0	0.035995126
10	0xbd3cda3b	-0.04610656
11	0x385185e9	4.9954197e-05
12	0xbe885b17	-0.26631996
13	0xbdc5a564	-0.096506864
14	0x3e0cfcfb	0.1376838
15	0x3e251546	0.16121396
16	0xbc488f3d	-0.012241182
17	0xbe25db71	-0.16196992
18	0x3dcdf642	0.100567356
19	0xbdd2fd80	-0.103022575
20	0x3e9a88d3	0.30182514
21	0x3e6cd2f5	0.23127349
22	0xbae1a4e1	-0.0017215275
23	0x3dfda4bf	0.123849384
24	0xbd17ab6e	-0.037028722
25	0x3db90dd2	0.09035839
26	0x3cf9a161	0.03047246
27	0xbe083eb6	-0.13305172
28	0x3d8383a9	0.064215966
29	0x3d0fedbe	0.035138838
30	0x3df121e6	0.11774044
31	0x3df141d1	0.117801316
32	0xbdaab4c6	-0.08335261
33	0xbe045632	-0.12923506
34	0xbd04b8c1	-0.032402758
35	0x3e66a064	0.22522122
36	0xbb880a53	-0.0041516214
37	0x3e20fca3	0.15721373
38	0xbe01b52f	-0.12666772
39	0x3d56eb49	0.05247048
40	0x3d9cd9e7	0.07658749
41	0xbddf5ef2	-0.10906781
42	0x3d7ece62	0.06220854
43	0x3bc94655	0.0061424174
44	0x3e5e2e4c	0.21697348
45	0xbc055da1	-0.008139999
46	0xbd32be2b	-0.04363839
47	0x3e0f1b3a	0.1397523
48	0xbde949e4	-0.11391047
49	0xbcab83ae	-0.020936813
50	0xbd394465	-0.04523124
51	0xbd9aec74	-0.07564631
52	0x3dd582b4	0.1042532
53	0x3cda55f5	0.026652316
54	0x3cebb170	0.028771132
55	0xbda45e61	-0.08025814
56	0xbd1a3513	-0.03764827
57	0xbd34e97b	-0.044167977
58	0x3e2c0d53	0.16801958
59	0x3d83788d	0.064194776
60	0xbe49f992	-0.1972411
61	0x3dae9ef3	0.08526411
62	0x3da42d7d	0.08016489
63	0xbe5d5c34	-0.21617204
64	0x3d66fc35	0.056392867
65	0x3dcbd909	0.099535055
66	0xbe928341	-0.28615764
67	0x3e0056b6	0.12533078
68	0x3d4ee4d8	0.05051121
69	0x3d95d8ea	0.07316764
70	0xbe10ef4f	-0.14153789
71	0x3c0ff110	0.008785501
72	0xbda012ce	-0.07816087
73	0x3d7b8e34	0.061414912
74	0x3dc158cc	0.09440765
75	0xbdced0c8	-0.100984156
76	0xbd549522	-0.051900037
77	0x3d2a5603	0.041585933
78	0x3de0334a	0.109472826
79	0xbdd6f8b3	-0.10496654
80	0x3e24e058	0.16101205
81	0x3d9138b7	0.070908956
82	0xbdd65a46	-0.10466437
83	0xbdae30dc	-0.08505413
84	0xbd8d040e	-0.06885539
85	0x3cf7f5e3	0.030268615
86	0x3d12e81e	0.035865895
87	0xbdbcd4c6	-0.09220271
88	0x3dcd6d79	0.10030646
89	0xbc8ac02a	-0.016937334
90	0x3d0ab7e2	0.03386677
91	0x3df8f168	0.121554196
92	0x3e0595bc	0.130454
93	0x3dd62672	0.104565516
94	0x3d36d00d	0.044632006
95	0x3db59882	0.08866979
96	0xbe163a64	-0.14670712
97	0xbd884640	-0.06654024
98	0x3e0db024	0.13836724
99	0x3d751914	0.05983837
100	0x3c2e7b04	0.010649446
101	0xbdf424e2	-0.11921097
102	0x3dc1ae1a	0.09457035
103	0x3bd83cb9	0.0065990356
104	0x3c6b7286	0.014370566
105	0x3e483d8c	0.19554728
106	0xbe32d4c0	-0.1746397
107	0x3c4f0895	0.012636323
108	0xbcd43445	-0.02590383
109	0x3c202e8c	0.009776723
110	0xbcf958b4	-0.030437805
111	0x3e08f511	0.13374735
112	0xbde8a3a0	-0.11359334
113	0x3e01bbc3	0.12669282
114	0x3ddc443c	0.10755202
115	0xbd7fdda0	-0.062467217
116	0x3e181a45	0.14853771
117	0x3bc6418a	0.0060502933
118	0x3c8419e1	0.016125621
119	0x3cc14c4b	0.02359595
120	0x3c84d009	0.01621248
121	0xbda400ce	-0.08007966
122	0xbdc5193a	-0.09623952
123	0x3d879aff	0.0662136
124	0x3e03b362	0.12861398
125	0x3d8a7bac	0.0676187
126	0xbdf559ce	-0.119800195
127	0x3d4cd977	0.050012078
128	0xbcc25c72	-0.023725722
129	0x3b241866	0.0025038957
130	0xbd458f1e	-0.04823219
131	0xbeaf1220	-0.34193516
132	0xbcde02bc	-0.027100913
133	0x3e5295b7	0.20564924
134	0x3e218ee3	0.15777163
135	0x3e1b0c7b	0.1514148
136	0x3cf1cda9	0.029517012
137	0xbd716a5a	-0.058939315
138	0xbb0436e9	-0.002017433
139	0x3d1a3348	0.03764656
140	0xbe9ceb8d	-0.3064846
141	0x3d72223d	0.059114683
142	0x3ddab0e0	0.106782675
143	0x3b341b26	0.0027482002
144	0x3e0c856e	0.13722774
145	0xbe06b054	-0.13153201
146	0x3e3c5028	0.18389952
147	0xbde148c7	-0.11000209
148	0x3e34fd2c	0.17674702
149	0x3ea87364	0.32900536
150	0xbddc56f4	-0.107587725
151	0x3e715e0b	0.23571031
152	0xbcdc519d	-0.026894385
153	0x3e44cead	0.19219466
154	0xbe154cea	-0.14580122
155	0xbe41414a	-0.18872562
156	0x3e071da4	0.13194901
157	0xbd0b7aec	-0.034052774
158	0xbd1e85e1	-0.038701896
159	0x3c059d33	0.008155155
160	0xbd376204	-0.04477121
161	0xbe66fd7d	-0.22557636
162	0xbdf4962f	-0.11942708
163	0x3e734597	0.23757015
164	0x3d0cba05	0.03435709
165	0x3d093470	0.033497274
166	0xbde72c61	-0.112877615
167	0x3d427b0b	0.047480624
168	0x3e4e426a	0.20142522
169	0xbe3517d3	-0.1768487
170	0xbdd2492b	-0.10267862
171	0x3d7f44a4	0.06232132
172	0x3e8f6f97	0.28014824
173	0x3da4dfcd	0.08050499
174	0xbda2a526	-0.07941656
175	0x3d813d75	0.0631055
176	0xbdd248f5	-0.10267822
177	0xbbdb4c58	-0.0066924505
178	0xbd85c071	-0.06530846
179	0xbdb1c18c	-0.08679494
180	0x3e178a7c	0.14798921
181	0xbdbccea5	-0.09219102
182	0xbd916493	-0.07099261
183	0xbc0c4281	-0.008560778
184	0x3d4e2136	0.05032464
185	0x3e0b890a	0.13626495
186	0x3d8cfb3f	0.06883859
187	0xbd9ede7c	-0.07757279
188	0xbd978321	-0.07398058
189	0x3e253423	0.1613317
190	0x3e715130	0.23566127
191	0xbe212123	-0.15735297
192	0x3d7e96de	0.062155597
193	0x3d5267c8	0.051368505
194	0x3df0fd81	0.11767102
195	0xbf087a06	-0.53311193
196	0x3ddbe91e	0.10737823
197	0x3d72708f	0.059189375
198	0xbc3b3738	-0.011426739
199	0x3ceaf0cd	0.028679276
200	0xbcd1e1c3	-0.025620347
201	0xbcf4dc0b	-0.02989008
202	0xbc05795c	-0.00814661
203	0x3da3b830	0.07994115
204	0xbe207a08	-0.15671551
205	0x3d59644f	0.053074177
206	0xbdbe025b	-0.09277793
207	0x3c117558	0.008878075
208	0x3ce57741	0.028010966
209	0xbe041df0	-0.12902045
210	0x3d75d29d	0.06001531
211	0xbd63f2fe	-0.055651657
212	0x3eb3e1a5	0.3513309
213	0x3c015ff4	0.007896412
214	0xbe11cd01	-0.14238359
215	0x3cc92c38	0.024557218
216	0xbc5dd17d	-0.013538715
217	0xbb707a7b	-0.0036694098
218	0xbd8e8083	-0.069581054
219	0xbec3861f	-0.38188264
220	0xbcec6ab3	-0.028859472
221	0x3d1e7fdd	0.03869616
222	0xbd479fa3	-0.048736226
223	0x3e0ccf21	0.13750888
224	0x3dde8185	0.10864548
225	0xbe30cbcc	-0.17265242
226	0xbd648e2c	-0.05579965
227	0x3dec430e	0.11536227
228	0xbdc314af	-0.095254295
229	0x3e1a68de	0.15079066
230	0xbdad2685	-0.08454613
231	0xbd4bd5b1	-0.04976434
232	0x3da2288a	0.079178885
233	0x3c73805d	0.014862147
234	0x3dbe4d62	0.09292103
235	0x3bd9c2b2	0.006645524
236	0xbdbb09a0	-0.09132695
237	0xbd1f346a	-0.038868345
238	0xbe8a7deb	-0.27049193
239	0x3df9d05a	0.12197943
240	0xbcf0d2f5	-0.029397467
241	0xbce62411	-0.02809337
242	0x3d456841	0.048195127
243	0xbd876773	-0.06611528
244	0xbe733f0f	-0.23754524
245	0x3d85d742	0.06535198
246	0xbe563b41	-0.20921041
247	0xbe18c451	-0.14918639
248	0xbe1410c2	-0.14459518
249	0x3dbc0d3a	0.0918221
250	0xbdc6d361	-0.09708286
251	0xbd96391d	-0.07335112
252	0xbc8589bb	-0.016301027
253	0xbd8dd0ec	-0.06924614
254	0x3d71c745	0.05902793
255	0xbe1e3d40	-0.15453053

fc3.bias f4 [64]
0	0xbe285a21	-0.16440631
1	0xbdaf23c4	-0.085517436
2	0xbd8504db	-0.06495067
3	0x3b8ebd0f	0.0043560336
4	0xbd389965	-0.045068163
5	0xbd1e9127	-0.038712647
6	0x3e05d1f1	0.13068368
7	0xbc182150	-0.009285286
8	0xbe4f2140	-0.20227528
9	0xbe198c2d	-0.14994879
10	0xbd7f781e	-0.062370412
11	0x3d23b399	0.0399662
12	0xbdff4fdd	-0.124664046
13	0xbdb48d04	-0.08815959
14	0xbcf61632	-0.03003988
15	0xbd37f556	-0.044911705
16	0xbd8439e1	-0.06456352
17	0xbd62da67	-0.055384066
18	0xbe134817	-0.14382969
19	0xbda95648	-0.0826841
20	0xbcf43db5	-0.02981458
21	0x3d01795c	0.031609878
22	0xbdc84b03	-0.09779932
23	0xbe3d813f	-0.18506335
24	0xbdfe5711	-0.1241895
25	0xbdd2a46e	-0.10285269
26	0x3dc9fea3	0.09863021
27	0xbd9ce6d3	-0.07661214
28	0x3d8888a5	0.06666688
29	0x3e26507e	0.16241643
30	0xbd0a91e6	-0.033830546
31	0xbe231834	-0.15927202
32	0xbd8eb688	-0.06968409
33	0x3dd41a9d	0.103566386
34	0xbe2fb174	-0.17157537
35	0x3d0c6de9	0.034284506
36	0xbcfebe6e	-0.031096663
37	0xbc843358	-0.016137764
38	0x3ccb4370	0.02481243
39	0x3a29ebbb	0.0006481965
40	0x3c9e30f0	0.019310445
41	0x3d8dcbe3	0.06923654
42	0x3d294799	0.041328046
43	0x3cf43d78	0.029814467
44	0xbc903b65	-0.017606447
45	0x3bfb6a32	0.0076725716
46	0xbd8c527f	-0.068516724
47	0xbe30637d	-0.17225452
48	0x3dac8f5b	0.084257804
49	0xbda62803	-0.081131004
50	0xbb9ad569	-0.0047251475
51	0xbcccfa00	-0.025021553
52	0x3d138b80	0.03602171
53	0x3dec5c87	0.11541086
54	0xbdaeec30	-0.08541143
55	0x3e281564	0.1641441
56	0xbe1540dc	-0.14575523
57	0xbdb7eac2	-0.089803234
58	0x3d274b56	0.04084333
59	0xbd68ff78	-0.05688426
60	0xbc24479b	-0.010026838
61	0xbd48d46b	-0.049030703
62	0xbd39f45f	-0.045399066
63	0x3d79d70f	0.06099611

action_out.weight f4 [2, 64]
0	0x3f43ea76	0.76529634
1	0xbe0040c1	-0.12524702
2	0x3f49b32b	0.78789014
3	0x3d215417	0.039386835
4	0x3e231bcb	0.15928571
5	0x3e43d3a4	0.19123703
6	0xbe42bbb3	-0.19016914
7	0x3f6cfa1e	0.9256915
8	0x3f26769e	0.65024745
9	0x3f069d92	0.52584183
10	0x3e29d479	0.16584958
11	0xbd114f82	-0.035476215
12	0x3fa3820c	1.2774062
13	0x3e810e27	0.2520611
14	0x3e08b785	0.13351257
15	0xbe16857a	-0.14699355
16	0xbe03d23a	-0.12873164
17	0x3de76f08	0.113004744
18	0x3e45d80d	0.19320698
19	0x3f81f418	1.0152617
20	0x3f7649b5	0.9620622
21	0xbe0376fe	-0.1283836
22	0x3f3ceb17	0.7379622
23	0x3e254379	0.1613902
24	0xb9b00fe8	-0.00033581187
25	0x3dcb65fb	0.099315606
26	0xbdc0236e	-0.09381758
27	0xbe1d7103	-0.15375142
28	0xbb358799	-0.002769923
29	0xbdd16f7f	-0.10226344
30	0xbdfbaad3	-0.122884415
31	0x3d3f7067	0.046738055
32	0xbe44a2c5	-0.19202717
33	0xbd9850d6	-0.07437293
34	0x3eb0b521	0.3451319
35	0x3e27c636	0.16384205
36	0xbe371fe8	-0.17883265
37	0xbda45a52	-0.0802504
38	0x3db47ea9	0.08813221
39	0x3e0eb03c	0.13934416
40	0x3e080ff0	0.1328733
41	0x3e7b1388	0.2451917
42	0x3df82036	0.12115519
43	0xbc3805dc	-0.011231866
44	0x3d9ea9c0	0.07747221
45	0x3d6ba146	0.05752685
46	0x3dba8dd5	0.091090836
47	0x3eeb409e	0.45947737
48	0xbd88fe06	-0.06689076
49	0x3e12cb43	0.1433535
50	0xbc9b8cec	-0.018988095
51	0xbdfab944	-0.12242368
52	0x3dc18d74	0.09450808
53	0x3e8afde8	0.2714684
54	0xbdbf9ed3	-0.09356465
55	0xbe4d993d	-0.20077987
56	0xbb35a2a4	-0.002771535
57	0xbdaaab40	-0.083334446
58	0xbe1ad1c5	-0.15119083
59	0x3d6c7ff5	0.057739217
60	0xbe3eef95	-0.18646081
61	0xbe3615cb	-0.17781751
62	0x3de212d8	0.110387504
63	0x3dfe99bb	0.124316655
64	0xbe41421f	-0.1887288
65	0x3e265f38	0.1624726
66	0xbe563feb	-0.2092282
67	0xbe9dee80	-0.30846024
68	0x3d179401	0.037006382
69	0xbe1aaa31	-0.15103985
70	0xbe381977	-0.17978464
71	0xbda39d8e	-0.079890355
72	0xbc571e16	-0.013129732
73	0xbdff6c34	-0.1247181
74	0xbbfe91a3	-0.007768826
75	0x3e34537f	0.17609976
76	0x3ea45a82	0.32100302
77	0xbda2729e	-0.07932018
78	0xbd76135b	-0.060077053
79	0xbdabb5a9	-0.08384258
80	0x3dd1f2c1	0.1025138
81	0x3e1bbcbc	0.15208715
82	0xbe70bf4b	-0.23510472
83	0x3d32936b	0.04359762
84	0x3dbb4439	0.09143872
85	0xbdbd03d8	-0.09229249
86	0x3ea8de47	0.32982084
87	0xbe88ba61	-0.26704696
88	0x3e0fe193	0.14050893
89	0xbbced9b9	-0.0063125757
90	0x3d24825b	0.04016338
91	0xbe67ffcf	-0.22656177
92	0xbedf7448	-0.43643403
93	0xbe32ea34	-0.17472154
94	0xbea026f0	-0.31279707
95	0x3db064a1	0.086129434
96	0x3ee1cae6	0.44100112
97	0xbe09d820	-0.13461351
98	0xbe0ddee5	-0.13854559
99	0x3e13d36f	0.14436124
100	0x3d32638d	0.04355197
101	0xbe9b8fde	-0.303832
102	0xbde6ab07	-0.112630896
103	0xbe1c4f4a	-0.15264621
104	0x3ccfc51f	0.02536255
105	0xbd33fdc0	-0.043943167
106	0x3ded36eb	0.115827404
107	0x3e272fec	0.16326874
108	0x3e17da32	0.14829329
109	0xbd7f6183	-0.062348854
110	0xbe35dcee	-0.17760059
111	0xbe4ec063	-0.20190577
112	0xbddd96e6	-0.10819797
113	0xbdade83a	-0.08491559
114	0x3df7adbe	0.120936856
115	0xbd6a4b40	-0.05720067
116	0xbd9a571c	-0.07536146
117	0xbd93a790	-0.072096944
118	0x3e021bd8	0.12705934
119	0xbdcadb20	-0.09905076
120	0x3f297650	0.66196156
121	0x3dc98604	0.098400146
122	0xbcbc3f9b	-0.022979548
123	0x3dd2e682	0.10297872
124	0xbe4e49f8	-0.20145404
125	0xbf237cdf	-0.63862413
126	0xbe940c01	-0.28915408
127	0x3e167684	0.14693648

action_out.bias f4 [2]
0	0x3ad0054b	0.0015870718
1	0x3c162442	0.009163918
