model_flock/flock/agent_0/14_actor_params.pkl (torch, 39031 bytes, 8 tensors)

fc1.weight f4 [64, 8]
0	0x3def93f7	0.11698144
1	0xbe699a86	-0.22812852
2	0xbe24e066	-0.16101226
3	0xbe8e2ffc	-0.27770984
4	0xbc293f4b	-0.010330032
5	0x3d78a527	0.060704377
6	0x3ecbe1ab	0.39820608
7	0x3ec1c605	0.3784639
8	0x3ddd6512	0.10810293
9	0xbe2c5c44	-0.16832072
10	0xbe313188	-0.17304051
11	0xbd63f757	-0.055655804
12	0x3de42d28	0.11141425
13	0xbd919bda	-0.071098045
14	0x3e8256bc	0.25456798
15	0xbe4a7a23	-0.19773154
16	0xbd1623e7	-0.036655333
17	0xbc0fad8e	-0.008769406
18	0xbeaf2f71	-0.34215882
19	0xbe7b4ab5	-0.24540217
20	0xbe680e42	-0.22661689
21	0x3ebc11b6	0.36732262
22	0x3f16cb9e	0.58904445
23	0xbd97cad9	-0.07411737
24	0xbe328084	-0.17431837
25	0xbe938e78	-0.28819633
26	0xbe9fadc0	-0.31187248
27	0x3e71db95	0.2361892
28	0x3d88be33	0.066769026
29	0xbe99f315	-0.3006827
30	0x3d90e94f	0.0707575
31	0xbe3e08e4	-0.18558079
32	0x3c55e990	0.013056174
33	0xbe064adc	-0.13114494
34	0xbe5bc958	-0.21463525
35	0x3eafa57b	0.3430594
36	0xbcb56e42	-0.022147302
37	0xbd51f0c6	-0.05125501
38	0x3e2750f6	0.16339478
39	0xbecbaf9e	-0.39782423
40	0x3f0f948a	0.5608603
41	0x3db55640	0.088543415
42	0x3e4c0ae3	0.19926028
43	0xbd978e17	-0.07400148
44	0xbe88108c	-0.26575124
45	0x3ec82c5e	0.3909635
46	0x3eac2c0c	0.33627355
47	0x3d806814	0.06269851
48	0xbeb9f4b3	-0.36319503
49	0xbd8b55b4	-0.06803456
50	0x3e83f3d7	0.25771973
51	0x3e2457ec	0.16049165
52	0x3c0fec72	0.0087844
53	0x3e8629f6	0.2620389
54	0x3d34b176	0.044114552
55	0x3e682621	0.22670795
56	0x3eabc1dd	0.33546343
57	0xbe0a7c7f	-0.13524054
58	0xbe364499	-0.17799605
59	0xbe7f804c	-0.24951285
60	0xbda9c3d6	-0.08289306
61	0x3e836ff3	0.25671348
62	0x3e2e46c6	0.17019185
63	0x3e5bd7e4	0.21469074
64	0x3ebc43c2	0.36770445
65	0xbd6958b8	-0.056969374
66	0xbd0398c3	-0.032128107
67	0x3d815288	0.0631457
68	0xbe94d633	-0.2906967
69	0x3e9a845d	0.3017911
70	0x3ed4cb45	0.41561332
71	0x3e4f7610	0.20259881
72	0x3d96b186	0.07358079
73	0x3f033811	0.51257426
74	0xbeb6c3e3	-0.35696325
75	0x3dff9b3f	0.12480783
76	0xbdbdde44	-0.092709094
77	0xbe980df1	-0.29698136
78	0xbee36536	-0.44413155
79	0xbe84b86b	-0.2592195
80	0x3d88be72	0.066769496
81	0xbe7fe271	-0.24988724
82	0xbe91ec20	-0.28500462
83	0xbe087704	-0.13326651
84	0x3e7a4527	0.24440442
85	0xbe472ef7	-0.1945151
86	0xbe85d849	-0.26141575
87	0x3e9693a3	0.29409513
88	0x3ebc6d3e	0.36802095
89	0xbe26466f	-0.16237806
90	0x3e2850f2	0.16437128
91	0xbe7addcd	-0.24498673
92	0xbe99f443	-0.3006917
93	0xbd1947ac	-0.037421867
94	0x3e910fc9	0.28332356
95	0xbe1e1271	-0.15436722
96	0x3ea2c450	0.317904
97	0x3ed51700	0.4161911
98	0xbd108059	-0.035278652
99	0xbeaef779	-0.34173182
100	0xbea8a9e0	-0.32942104
101	0x3e955a7b	0.29170594
102	0xbd56d01d	-0.052444566
103	0xbf0ed924	-0.5580008
104	0xbdd960f5	-0.10614196
105	0xbd37de34	-0.044889644
106	0xbe5e83cf	-0.21729968
107	0x3ee78ccc	0.45224607
108	0x3e731933	0.23740081
109	0xbee42f76	-0.4456746
110	0x3ea1b631	0.31584314
111	0x3ef306fe	0.47466272
112	0xbede43e8	-0.43411183
113	0x3ebaec93	0.36508617
114	0x3e215c16	0.15757784
115	0xbe672682	-0.22573283
116	0x3d79641d	0.06088649
117	0xbe090972	-0.1338251
118	0xbd990aa9	-0.074727364
119	0x3f0dbae4	0.553633
120	0xbdcbd05a	-0.09951849
121	0x3d40845d	0.04700123
122	0x3e83788a	0.25677902
123	0x3e80a745	0.25127617
124	0x3e748edb	0.2388262
125	0xbe95d6ce	-0.29265445
126	0xbe8e9138	-0.27845168
127	0x3e87ba13	0.2650915
128	0xbe5554c7	-0.20833121
129	0xbe15d49f	-0.1463189
130	0x3e9388cd	0.28815308
131	0xbdc68d4d	-0.0969492
132	0xbe05dd38	-0.1307267
133	0x3eacdc19	0.3376167
134	0xbeaa7fd5	-0.33300653
135	0xbe8f99f0	-0.28047132
136	0xbde64995	-0.112445034
137	0x3e1a95f4	0.15096265
138	0xbe7c71fa	-0.24652854
139	0x3e777cb6	0.24168667
140	0x3e97cdcc	0.29649198
141	0x3ac1741a	0.0014759332
142	0x3e5291f8	0.20563495
143	0x3dbbb907	0.091661505
144	0xbeb1c5b4	-0.34721148
145	0x3e7549f5	0.23953994
146	0x3e94fbf8	0.29098487
147	0xbe65de34	-0.22448045
148	0x3ec58321	0.38576606
149	0x3e38d684	0.18050581
150	0xbe2361d5	-0.15955289
151	0xbde68811	-0.11256421
152	0xbd9e2cc0	-0.07723379
153	0x3e602e6d	0.2189271
154	0xbbc402f7	-0.0059817987
155	0x3ecb6dd0	0.39732218
156	0x3dafd187	0.08584886
157	0xbe844b08	-0.25838494
158	0xbf170e37	-0.59006065
159	0xbd17a31f	-0.0370208
160	0xbe18c3f1	-0.14918496
161	0xbdd7884b	-0.10524043
162	0x3e90a8d9	0.2825382
163	0x3e26e091	0.16296603
164	0xbe94b0fa	-0.29041272
165	0xbec8eed1	-0.39244702
166	0xbefc64b2	-0.49295574
167	0x3d873a02	0.06602861
168	0xbeb2864d	-0.34868088
169	0xbe209955	-0.15683492
170	0x3d80efd5	0.06295744
171	0xbd5895c3	-0.0528772
172	0x3d2aaee1	0.041670684
173	0xbeba5abb	-0.36397347
174	0x3ec998c7	0.39374372
175	0x3e3f5bfb	0.18687432
176	0xbe596ab5	-0.21232112
177	0x3d1f05e4	0.038823977
178	0xbe0582dd	-0.13038202
179	0xbe68688d	-0.22696133
180	0xbe4baa22	-0.1988912
181	0x3e8b0413	0.27151546
182	0x3e9aadf1	0.30210832
183	0xbe8872bd	-0.26650038
184	0xbdc7b31d	-0.0975096
185	0xbd993c12	-0.07482161
186	0x3dcfb4be	0.10141896
187	0xbeaabc03	-0.33346567
188	0x3eb534e1	0.35391906
189	0x3dc46330	0.09589231
190	0x3e9d8bff	0.3077087
191	0xbeb6335b	-0.35586056
192	0x3b948ab9	0.0045331386
193	0x3e0abf8b	0.1354963
194	0x3df21cba	0.118218854
195	0xbeaf58c6	-0.34247416
196	0x3c125eb5	0.008933713
197	0x3ca8d951	0.020611437
198	0x3eb483f3	0.3525692
199	0x3ead9425	0.33902088
200	0xbea3bdc5	-0.3198072
201	0x3eb46902	0.35236365
202	0xbe68f60b	-0.22750108
203	0x3e4e90e3	0.20172457
204	0x3e75ba10	0.23996758
205	0x3e3e7a95	0.18601449
206	0xbe1ea2f9	-0.15491857
207	0xbe9a75fa	-0.30168134
208	0xbede8493	-0.4346052
209	0x3e20dc7d	0.1570911
210	0x3e97b84a	0.2963279
211	0xbd862eee	-0.0655192
212	0x3e1caaef	0.15299581
213	0x3cb0ecfc	0.021597378
214	0x3e866041	0.2624531
215	0x3edbe244	0.42946064
216	0x3e31fc01	0.17381288
217	0xbe536a45	-0.20646007
218	0xbdeacb22	-0.11464526
219	0xbdcfdfbe	-0.10150097
220	0xbec8a265	-0.39186397
221	0x3e49deb4	0.19713861
222	0xbd0af8b1	-0.033928577
223	0xbd86375d	-0.065535285
224	0xbd8cf0df	-0.0688188
225	0x3b9b0b98	0.0047316067
226	0x3e8cb7bf	0.27483937
227	0xbd2749a6	-0.04084172
228	0x3dcb3d2e	0.099237785
229	0xbdc8b018	-0.09799212
230	0x3eda5729	0.42644623
231	0x3ec2e9cf	0.38069007
232	0xbe9bc728	-0.30425382
233	0xbeb885a3	-0.36039457
234	0x3dea869a	0.114514545
235	0xbe42844c	-0.1899578
236	0x3ec42c07	0.3831484
237	0x3dbb8070	0.09155357
238	0xbdda1ba3	-0.106498025
239	0x3e357ffa	0.177246
240	0xbe773a61	-0.24143364
241	0x3df545d6	0.11976211
242	0x3e348092	0.1762717
243	0x3e9088cf	0.28229377
244	0x3eae94d3	0.3409792
245	0x3ea4aaaf	0.3216147
246	0xbe17bea6	-0.1481882
247	0x3ee9034f	0.45510337
248	0xbebea24b	-0.37233195
249	0xbed06d16	-0.40708226
250	0xbdb0baee	-0.08629404
251	0xbebc8988	-0.36823678
252	0x3e4c373e	0.19942948
253	0x3eb47079	0.3524206
254	0x3e1580ac	0.14599866
255	0xbe4ab819	-0.1979679

fc1.bias f4 [64]
0	0x3e4c72f3	0.19965725
1	0x3efe1571	0.49625733
2	0x3ec4e14f	0.38453147
3	0x3d9dd8c1	0.07707358
4	0x3e9ff064	0.3123809
5	0x3e8be5cb	0.27323756
6	0xbe8df00a	-0.27722198
7	0x3bb5cf82	0.0055484185
8	0x3da7519f	0.08169865
9	0xbdfea52a	-0.12433846
10	0x3dc9db16	0.098562405
11	0x3afcc3e8	0.0019284459
12	0xbe870807	-0.26373312
13	0x3e478012	0.19482449
14	0x3e5329cb	0.20621412
15	0xbe032419	-0.12806739
16	0x3cae107d	0.021248097
17	0x3e86af1c	0.26305473
18	0x3d66219e	0.056184404
19	0x3e067cd6	0.13133559
20	0xbe29b405	-0.16572578
21	0xbea0f905	-0.31439987
22	0x3d832f18	0.06405467
23	0xbaf7071b	-0.0018846722
24	0x3ed5f331	0.41787103
25	0x3e932009	0.28735378
26	0xbe8b9cd2	-0.27268082
27	0x3e9dc8a4	0.3081714
28	0x3cfba477	0.030718071
29	0x3d836859	0.06416387
30	0xbd3c3fb6	-0.045959197
31	0x3d43644a	0.047703065
32	0x3e86bf97	0.26318046
33	0x3b8b419b	0.004249764
34	0x3ea460c2	0.3210507
35	0x3d1d0703	0.038336765
36	0x3e3dd099	0.18536605
37	0x3dbbee61	0.091763265
38	0x3eb5139f	0.35366532
39	0x3e2aee01	0.16692354
40	0x3dd8dbb4	0.1058878
41	0xbea6747c	-0.32510746
42	0x3ebfcad3	0.3745943
43	0xbe1273b2	-0.14301947
44	0x3e945720	0.2897272
45	0x3e4a2ad4	0.197429
46	0x3e650a74	0.22367269
47	0xbe11d82d	-0.14242621
48	0xbe9a392c	-0.30121744
49	0xbcd4349d	-0.025903994
50	0x3e220dc0	0.15825558
51	0x3c32ac5b	0.010905351
52	0xbe02662b	-0.12734286
53	0xbebbaaf2	-0.36653858
54	0xbdb6fd32	-0.08935012
55	0x3eab7ce5	0.33493724
56	0x3e094451	0.13404967
57	0xbd5e8fa6	-0.054336213
58	0xbe99ce1b	-0.30040058
59	0xbc9403bd	-0.018068189
60	0xbe62d9e3	-0.2215343
61	0xbdbc9a9e	-0.092091784
62	0xbed225f0	-0.4104457
63	0x3ef65ec1	0.48119166

fc2.weight f4 [64, 64]
0	0x3c177ae1	0.009245605
1	0x3e019cf9	0.12657537
2	0xbd6fc9c9	-0.058542047
3	0xbd0b1ac1	-0.03396106
4	0x3d106157	0.03524908
5	0x3d2163ab	0.03940169
6	0x3e4353c5	0.19074924
7	0x3d2fcdbc	0.042920813
8	0x3d4d6a9d	0.050150502
9	0xbdf7435c	-0.12073395
10	0x3cb15b3f	0.021649955
11	0xbe126c0a	-0.14299026
12	0xbe388179	-0.1801814
13	0xbd2b15b0	-0.04176873
14	0xbba68678	-0.005081948
15	0xbc9e2012	-0.019302402
16	0xbd7d6d92	-0.061872073
17	0xbcb034fb	-0.021509638
18	0x3de04556	0.10950725
19	0xbdd284f3	-0.10279264
20	0x3d34fc49	0.04418591
21	0x3d92a238	0.07159847
22	0x3dccefa3	0.100066446
23	0x3e0cc3f7	0.1374663
24	0x3cd10223	0.025513714
25	0x3d9928b3	0.07478466
26	0x3e0129b2	0.12613562
27	0x3de2ca7f	0.11073779
28	0xbdc39f09	-0.09551818
29	0x3dc66aff	0.09688377
30	0x3e0d3b77	0.13792215
31	0x3c73cffb	0.014881129
32	0x3d89c2e5	0.06726626
33	0xbd10d3d7	-0.035358276
34	0xbcf16a99	-0.029469775
35	0xbdfcfd27	-0.123529725
36	0xbb65f1e7	-0.0035086812
37	0x3cecf501	0.02892542
38	0x3c358ff9	0.011081689
39	0xbc9c5900	-0.019085407
40	0x3daa0e4b	0.083035074
41	0xbccdf519	-0.025141286
42	0x3dc39e12	0.09551634
43	0xbd582e91	-0.052778784
44	0xbd9e47ed	-0.077285625
45	0xbe909226	-0.28236502
46	0xbde9e74b	-0.11421069
47	0x3c4e3f17	0.012588284
48	0xbdda5ba9	-0.10662014
49	0x3ccf94f6	0.025339585
50	0xbdc6e3ae	-0.09711395
51	0x3e0e4291	0.1389258
52	0xbe0a5909	-0.13510527
53	0xbe0b38e9	-0.13595928
54	0x3de545cf	0.111949556
55	0xbe2ba4fd	-0.16762157
56	0xbd861352	-0.06546654
57	0x3db96895	0.090531506
58	0x3dca03c2	0.09863998
59	0xbdda6aae	-0.10664879
60	0x3dd255d4	0.10270277
61	0x3ddd0c0e	0.10793315
62	0x3ddc1a24	0.107471734
63	0x3e037066	0.12835845
64	0x3d8890c8	0.0666824
65	0x3b8a91d9	0.004228812
66	0x3cf9ee67	0.030509187
67	0xbd4e0c28	-0.05030456
68	0xbdbe3d53	-0.092890404
69	0xbc503d4a	-0.012709925
70	0x3e1ac420	0.15113878
71	0x3c4bd8e1	0.012441845
72	0xbc71043b	-0.014710481
73	0xbc060825	-0.008180653
74	0xbcd18d2f	-0.025580017
75	0x3d0ccb33	0.034373473
76	0xbdaf412b	-0.08557352
77	0xbd8870e0	-0.06662154
78	0x3dcafc64	0.09911421
79	0xba127ce1	-0.00055880664
80	0x3da3c79b	0.07997056
81	0xbc03478c	-0.008012664
82	0x3dd23a92	0.10265078
83	0x3ce3fc26	0.027830195
84	0x3d911a4b	0.07085093
85	0xbda883cd	-0.08228264
86	0xbe1b6c0a	-0.15177932
87	0xbd80cf2b	-0.06289514
88	0x3dc53ac7	0.096303515
89	0xbc958204	-0.018250473
90	0xbcc83f40	-0.024444222
91	0x3dafb4ea	0.085794285
92	0xbdcb57fc	-0.09928891
93	0xbd5d33f2	-0.054004617
94	0xbd89bf2a	-0.06725915
95	0xbd881ef0	-0.06646526
96	0x3dfe9603	0.12430956
97	0xbd306c6e	-0.043072157
98	0x3d17486c	0.0369343
99	0xbcf600a5	-0.030029604
100	0x3df6798a	0.120349005
101	0x3e79d5fb	0.24398033
102	0x3ce5b379	0.02803968
103	0xbcd347ac	-0.025791012
104	0xbd692347	-0.05691841
105	0x3e2be4bc	0.16786474
106	0xbe201fc1	-0.15637113
107	0xbc871351	-0.016488703
108	0x3da07d7a	0.07836433
109	0x3c4657e8	0.012105919
110	0x3d88c21a	0.06677647
111	0x3d627079	0.055283044
112	0x3dbec9c3	0.09315827
113	0x3c17cfb1	0.009265826
114	0x3c97e60c	0.018542312
115	0x3d10a2a2	0.03531135
116	0x3d5b416f	0.0535292
117	0x3e4303de	0.19044444
118	0x3dbdda11	0.092701085
119	0x3d38a6a0	0.04508078
120	0x3dbb6e3c	0.09151885
121	0x3c5558d4	0.013021667
122	0x3d778c41	0.06043649
123	0x3def8745	0.116957225
124	0x3d1089d2	0.035287686
125	0xbdc25603	-0.09489062
126	0x39ba275a	0.00035506004
127	0xbcd2c9e3	-0.025731033
128	0xbddba949	-0.10725648
129	0x3d720529	0.059086952
130	0x3d496702	0.0491705
131	0xbd23b6a1	-0.03996909
132	0x3d009bcb	0.031398576
133	0xbe3923be	-0.18080041
134	0xbd7b5da6	-0.061368607
135	0xbd98b696	-0.074567005
136	0x3e245701	0.16048814
137	0xbde02815	-0.10945145
138	0x3cbd9ea2	0.023146931
139	0xbdafad8f	-0.085780255
140	0x3e1e9ef3	0.15490322
141	0x3d875806	0.06608586
142	0xbbcef9b3	-0.0063163876
143	0x3dd5fd3b	0.104486905
144	0x3d04aaca	0.03238944
145	0x3d1664cb	0.036717217
146	0xbe119c6e	-0.1421983
147	0xbd43bd1d	-0.047787774
148	0x3e4e2b9c	0.20133823
149	0x3e1e1e65	0.15441282
150	0x3d8f8182	0.070071235
151	0xbe3c5080	-0.18390083
152	0xbe2c33ce	-0.16816637
153	0x3d9ff4f0	0.0781039
154	0xbdcb720b	-0.09933861
155	0x3c98018e	0.018555429
156	0x3d1a783d	0.037712324
157	0x3bd086be	0.006363719
158	0xbdb131f7	-0.08652108
159	0xbd852193	-0.065005444
160	0xbd158093	-0.03649957
161	0xbd71825e	-0.05896222
162	0x3e2e0a8c	0.16996211
163	0x3e4fea08	0.2030412
164	0x3d1b15d2	0.037862606
165	0xbd9bd954	-0.076098114
166	0x3e3fc5ed	0.18727846
167	0x3e56fc68	0.20994723
168	0x3d1f4bca	0.038890637
169	0x3d0c270e	0.034216933
170	0x3d4165bb	0.04721616
171	0x3d046c36	0.03232976
172	0x3bcdf69f	0.006285503
173	0xbdaf593f	-0.08561944
174	0x3e18e1ee	0.14929935
175	0x3d958060	0.07299876
176	0xbe17c30a	-0.14820495
177	0x3dd7a195	0.10528866
178	0x3d8bd492	0.06827654
179	0xbd45b471	-0.048267785
180	0xbdec2cd0	-0.11531985
181	0xbe2669ab	-0.16251247
182	0xbc32ac03	-0.010905269
183	0x3d54399c	0.051812753
184	0x3da60f1f	0.08108353
185	0xbd38eff8	-0.045150727
186	0xbb1a436e	-0.0023538726
187	0x3d8471f6	0.06467049
188	0xbe0b01db	-0.13574927
189	0xbc6191e3	-0.013767692
190	0x3d6bc88f	0.057564314
191	0xbd99e2a2	-0.0751393
192	0xbdbfd003	-0.09365847
193	0xbb27bac4	-0.0025593499
194	0xbd818e7a	-0.063260034
195	0xbd94b07d	-0.07260225
196	0x3dcebcd3	0.10094609
197	0xbbe42622	-0.0069625536
198	0xbcc4a17a	-0.02400278
199	0xbcd045d6	-0.025423925
200	0x3d96328b	0.07333859
201	0x3e13aca8	0.14421332
202	0xbc935c80	-0.017988443
203	0x3df189f4	0.117938906
204	0x3c7d7861	0.015470595
205	0xbc9f98ab	-0.019481977
206	0x3d95dbb5	0.073172964
207	0xbd43c620	-0.04779637
208	0x3b921fda	0.0044593634
209	0xbe06d78c	-0.13168162
210	0xbbf9abb4	-0.0076193456
211	0x3d87403e	0.0660405
212	0x3c57fe2e	0.01318316
213	0xbe1378ae	-0.14401504
214	0x3d1bc5d5	0.038030464
215	0x3d1a8d19	0.037732217
216	0x3d59ad09	0.053143535
217	0x3d302ed8	0.043013424
218	0xbdb24b26	-0.0870574
219	0x3e21efc0	0.15814114
220	0x3d8a1604	0.067424804
221	0xbda847da	-0.082168296
222	0x3c1722f1	0.009224639
223	0xbab82c1a	-0.0014051229
224	0x3d7f45a0	0.06232226
225	0x3d84337d	0.06455133
226	0x3df7509b	0.12075921
227	0x3e3c6cb8	0.18400848
228	0xbd9ee951	-0.07759345
229	0x3e19a7da	0.15005437
230	0xbdcb19a5	-0.09917001
231	0x3d461e13	0.048368525
232	0x3e124237	0.14283071
233	0xbdc5f705	-0.09666256
234	0x3e14f80f	0.14547752
235	0x3dd05d0e	0.10173999
236	0x3ce7a32e	0.028276052
237	0xbdd0e565	-0.102000035
238	0x3de20703	0.11036494
239	0x3d8fd38e	0.07022773
240	0x3dc39d7e	0.095515236
241	0x3d18ce66	0.037306212
242	0xbd1aa85d	-0.03775822
243	0x3e8483d3	0.25881824
244	0xbe184803	-0.1487122
245	0x3cde8a0f	0.02716544
246	0xbcf09c5f	-0.029371439
247	0x3d169b0e	0.036768965
248	0xbd3b1b44	-0.0456803
249	0xbd12560e	-0.0357266
250	0x3dfff96f	0.124987476
251	0xbce7fdae	-0.028319206
252	0xbe1cda05	-0.15317543
253	0xbdad9e70	-0.08477485
254	0x3c3b4bbc	0.011431631
255	0x3e21cbca	0.15800396

fc2.bias f4 [64]
0	0x3da2ef9d	0.07955859
1	0xbdbd8ee2	-0.09255768
2	0x3d84e037	0.06488078
3	0x3dc48b6d	0.09596906
4	0xbcacfb0e	-0.021115806
5	0xbe205942	-0.15659049
6	0x3d203881	0.039116386
7	0xbd8b0078	-0.06787199
8	0xbe046002	-0.12927249
9	0x3e4685b6	0.19386944
10	0x3d7c84ec	0.0616502
11	0xbda76692	-0.081738606
12	0x3de338b0	0.11094797
13	0x3e439db8	0.19103134
14	0xbde8134a	-0.11331804
15	0x3daa70c0	0.083222866
16	0x3d44da97	0.048060026
17	0x3e12dbce	0.14341661
18	0xbe646da2	-0.22307447
19	0x3e72782e	0.23678657
20	0xbcb150a9	-0.021644907
21	0xbe818634	-0.252977
22	0x3e09829a	0.13428727
23	0xbda9a6ca	-0.082837656
24	0xbd72e014	-0.05929573
25	0xbe2d259b	-0.16908877
26	0xbdafa02b	-0.085754715
27	0x3dad25b3	0.08454456
28	0xbd39082e	-0.045173816
29	0x3db2eded	0.08736787
30	0xbdecdb79	-0.115652986
31	0xbd8280a4	-0.063721925
32	0x3dcc42a6	0.0997365
33	0x3e59f95c	0.2128653
34	0xbb521a12	-0.0032058996
35	0xbd983590	-0.07432091
36	0x3d5c74d9	0.053822372
37	0x3db22d37	0.0870003
38	0xbe3f06d7	-0.18654953
39	0xbce50f32	-0.027961347
40	0xbe24f37f	-0.16108511
41	0x3da5090b	0.080583654
42	0x3e3c7e13	0.18407468
43	0xbdcf284a	-0.101151064
44	0xbc90cb92	-0.017675195
45	0x3de73956	0.11290233
46	0xb78e8b10	-1.6992475e-05
47	0xbd8f2643	-0.0698972
48	0x3cb6eb4b	0.022328993
49	0x3d87ee95	0.06637303
50	0x3dfe891f	0.124284975
51	0x3e167f3a	0.1469697
52	0xbe11216f	-0.1417291
53	0x3d4a319c	0.049363717
54	0xbe3e193d	-0.18564315
55	0xbe0aa4f1	-0.13539483
56	0x3e1127fe	0.14175412
57	0x3c24cd0d	0.010058654
58	0xbde5fe5f	-0.11230158
59	0xbdbd13a5	-0.092322625
60	0x3c971ed1	0.018447312
61	0xbd513682	-0.051077373
62	0xbd839607	-0.064251
63	0xbd318ccd	-0.04334717

fc3.weight f4 [64, 64]
0	0xbe0db51b	-0.13838618
1	0xbc6926ea	-0.014230469
2	0xbe0309cd	-0.12796707
3	0xbeaad82d	-0.33368054
4	0x3d7ee092	0.062225886
5	0x3de2ddf7	0.11077493
6	0x3da77b9a	0.08177872
7	0x3e0d968a	0.13826957
8	0x3e348785	0.17629822
9	0x3d06b84e	0.03289061
10	0xbd4ec7a6	-0.05048337
11	0x385185e9	4.9954197e-05
12	0xbe9b810f	-0.303719
13	0xbddd7696	-0.10813634
14	0x3e314fc1	0.1731558
15	0x3e279fda	0.16369572
16	0xbba31f2e	-0.004978082
17	0xbe26dc44	-0.16294962
18	0x3de24e25	0.11050061
19	0xbdeef2c5	-0.11667398
20	0x3ea41879	0.3204992
21	0x3e7e8a20	0.24857378
22	0xbb38c092	-0.0028190953
23	0x3df984e6	0.121835515
24	0xbd41c534	-0.04730721
25	0x3dc95101	0.098299034
26	0x3d02ad6a	0.03190366
27	0xbe0ebd90	-0.139395
28	0x3d8b82ed	0.068120815
29	0x3d280ec9	0.041029725
30	0x3df121e6	0.11774044
31	0x3dd48d02	0.103784576
32	0xbdba9944	-0.09111264
33	0xbe07ebab	-0.13273494
34	0xbd2d4780	-0.042304516
35	0x3e65f860	0.22458029
36	0xbc52466b	-0.012834172
37	0x3e101126	0.14069042
38	0x3dd5b9df	0.10435843
39	0x3d47af7c	0.04875134
40	0x3dcd234a	0.100164965
41	0xbdd4bbed	-0.103874065
42	0x3d689d37	0.056790557
43	0x3cf13cc0	0.029447913
44	0x3e622a76	0.2208651
45	0x39614bdd	0.00021485933
46	0xbd52325c	-0.051317558
47	0x3e18c097	0.14917217
48	0xbde33ccc	-0.110955805
49	0xbcd66d3f	-0.02617514
50	0xbd4bec0d	-0.049785662
51	0xbdbd63f9	-0.09247584
52	0x3e00d3ee	0.12580845
53	0x3d07bdc2	0.03313995
54	0x3db28d89	0.08718402
55	0xbdd7f1d8	-0.10544175
56	0xbceb7ff0	-0.028747529
57	0xbd5dc900	-0.054146767
58	0x3e2a027b	0.16602509
59	0x3d7204e0	0.05908668
60	0xbe562890	-0.20913911
61	0x3daa89cc	0.08327064
62	0x3da8ee57	0.08248585
63	0xbe5eeada	-0.21769276
64	0x3d5a41f7	0.053285565
65	0x3dc8f6e8	0.09812719
66	0xbe957c3e	-0.29196352
67	0x3de602eb	0.11231025
68	0x3d5e0608	0.05420497
69	0x3d9f4ad5	0.07777945
70	0xbe19a9e2	-0.15006211
71	0x3ca2b7d2	0.019863043
72	0xbda71b9f	-0.08159565
73	0x3d7a839b	0.061160665
74	0x3dc3584e	0.09538327
75	0xbdced0c8	-0.100984156
76	0xbd48d216	-0.04902848
77	0x3d262ea6	0.04057183
78	0x3e006b6f	0.12540983
79	0xbde02347	-0.109442286
80	0x3e179a88	0.14805043
81	0x3d91fe75	0.07128612
82	0xbd9fb0d7	-0.077974014
83	0xbdc7869b	-0.09742471
84	0xbd961e82	-0.07330038
85	0x3d16cdc3	0.036817323
86	0x3d173d05	0.036923427
87	0xbdacd1d8	-0.08438462
88	0x3dc93b02	0.09825708
89	0xbc74b13a	-0.014934832
90	0x3ce57538	0.028009996
91	0x3defe23c	0.11713073
92	0x3e0949a4	0.13406998
93	0x3df00e97	0.11721533
94	0x3d36d00d	0.044632006
95	0x3dc04cc4	0.09389642
96	0xbe12d843	-0.1434031
97	0xbd8d5b6e	-0.069022045
98	0x3d7e985d	0.062157024
99	0x3d807af7	0.06273454
100	0x3c932681	0.017962696
101	0xbdf6932c	-0.120397896
102	0x3d177552	0.03697712
103	0x3c3cca15	0.0115227895
104	0x3c15fa94	0.009153981
105	0x3e477db3	0.19481544
106	0xbe2bfd96	-0.16795954
107	0x3b90f8a8	0.0044241734
108	0xbd1573a0	-0.03648722
109	0x3be7411c	0.007057322
110	0xbd0b72c7	-0.034045007
111	0x3e06693c	0.13126081
112	0xbdeaf59d	-0.11472628
113	0x3e0015e7	0.12508355
114	0x3ddd4b68	0.10805398
115	0xbd9cf2fc	-0.07663533
116	0x3e2442b8	0.16041076
117	0x3baf9c5c	0.0053592157
118	0xbd18589f	-0.03719389
119	0x3cfaddae	0.030623283
120	0x3c1bcf8f	0.009509935
121	0xbda72587	-0.08161455
122	0xbdbd2539	-0.09235615
123	0x3d84b652	0.06480087
124	0x3e010e2e	0.12603065
125	0x3d98c062	0.07458569
126	0xbde80715	-0.11329476
127	0x3d4a512a	0.04939381
128	0xbcebe360	-0.028794944
129	0x3c0ac287	0.0084692305
130	0xbda4cbc7	-0.0804668
131	0xbeb1aa12	-0.34700066
132	0xbce49b35	-0.02790604
133	0x3e5b32e7	0.21406136
134	0x3e2883e8	0.16456568
135	0x3e64ec99	0.2235588
136	0x3d243bb9	0.04009602
137	0xbd84d201	-0.064853676
138	0xbc0d9254	-0.008640844
139	0x3d1a3348	0.03764656
140	0xbeadfd6d	-0.3398241
141	0x3d4ba37d	0.04971646
142	0x3e00250e	0.12514135
143	0x3b71b7dd	0.0036883273
144	0x3e104fe4	0.14092976
145	0xbe0d06b7	-0.13772093
146	0x3e39de01	0.18151094
147	0xbdf0114b	-0.11722048
148	0x3e4d7f2f	0.20068048
149	0x3ebc2b0c	0.36751592
150	0xbde3d01d	-0.11123679
151	0x3e73b119	0.23798026
152	0xbcf6f23e	-0.030144807
153	0x3e4f8e0d	0.20269032
154	0xbe0c8d90	-0.13725877
155	0xbe492f92	-0.19647053
156	0x3e10801e	0.14111373
157	0xbce32d41	-0.02773154
158	0xbd1e85e1	-0.038701896
159	0xbabab941	-0.0014245884
160	0xbd49e839	-0.04929373
161	0xbe725d5c	-0.23668426
162	0xbdcfdaef	-0.1014918
163	0x3e752cc4	0.23942858
164	0x3cebe25a	0.028794456
165	0x3cda7722	0.026668135
166	0x3e423d33	0.18968658
167	0x3d2f7b65	0.042842288
168	0x3e689370	0.22712493
169	0xbe304ecf	-0.17217563
170	0xbdd9636f	-0.106146686
171	0x3d8e38ba	0.069444135
172	0x3e93504b	0.28772196
173	0x3dab8024	0.0837405
174	0xbdb4f8af	-0.08836495
175	0x3da2487d	0.07923982
176	0xbdd5c2ee	-0.104375705
177	0xbc0654c1	-0.008198918
178	0xbd8fb84e	-0.07017575
179	0xbdb651cb	-0.089023195
180	0x3e260ce4	0.16215855
181	0xbdcbb0b7	-0.09945815
182	0xbc9b14ab	-0.018930754
183	0xbc8be04c	-0.017074727
184	0x3d213506	0.039357208
185	0x3e0fdb67	0.14048539
186	0x3d8ffb3b	0.0703034
187	0xbd988f30	-0.07449186
188	0xbda5cd27	-0.0809577
189	0x3e25d4d5	0.1619447
190	0x3e7608c9	0.24026789
191	0xbe227067	-0.1586319
192	0x3d303b7f	0.04302549
193	0x3d1f28df	0.038857337
194	0x3e1b96be	0.15194222
195	0xbf0e9ede	-0.5571116
196	0x3dabf0db	0.08395549
197	0x3d33b2e9	0.043871794
198	0x3d42aa9f	0.047526
199	0x3e0219dd	0.12705179
200	0xbcb3d455	-0.021951834
201	0xbd2d7e29	-0.042356644
202	0xbcae63be	-0.021287795
203	0x3da3b830	0.07994115
204	0xbe25ea80	-0.16202736
205	0x3d2087a1	0.039191846
206	0xbe11580b	-0.14193742
207	0xbb2f8d4f	-0.0026787107
208	0x3ca8ef8a	0.020622034
209	0xbe08382b	-0.13302676
210	0x3d84e782	0.06489469
211	0xbd606bef	-0.054790433
212	0x3e914c84	0.2837869
213	0x3cc0b87b	0.023525467
214	0xbe2ba6ef	-0.16762899
215	0x3c2940a7	0.010330356
216	0xbca4953f	-0.020090697
217	0xbcbdcdad	-0.023169363
218	0xbda84624	-0.08216503
219	0xbee49521	-0.44645026
220	0xbd813ae5	-0.06310061
221	0x3ce71886	0.028209936
222	0xbd479fa3	-0.048736226
223	0x3e039af1	0.12852074
224	0x3dd21078	0.102570474
225	0xbe42d037	-0.1902474
226	0xbdc97e27	-0.09838515
227	0x3dd40507	0.103525214
228	0xbdcc385e	-0.09971689
229	0x3e10f355	0.14155324
230	0x3d008fae	0.031387024
231	0xbd6815ba	-0.056661345
232	0x3db4d570	0.088297725
233	0x3c02e19d	0.007988361
234	0x3daf62ff	0.08563804
235	0x3c27af9a	0.010234738
236	0xbdbb0a66	-0.09132843
237	0xbd903f75	-0.070433535
238	0xbe9f69c3	-0.31135377
239	0x3dfc8520	0.12330079
240	0xbda04a82	-0.07826711
241	0xbd1d3962	-0.038384803
242	0x3d2fc81b	0.042915445
243	0xbd8a0476	-0.06739132
244	0xbe92b556	-0.28653973
245	0x3d913b7d	0.070914246
246	0xbe68a36d	-0.22718592
247	0xbe32d484	-0.17463881
248	0xbe2f3254	-0.17109042
249	0x3d9c2516	0.07624261
250	0xbde8b71b	-0.113630496
251	0xbdded86b	-0.10881122
252	0xbceaacef	-0.028646914
253	0xbda5075b	-0.080580436
254	0x3d26a0cd	0.040680695
255	0xbe2f1356	-0.1709722

fc3.bias f4 [64]
0	0xbe3c3d94	-0.18382865
1	0xbdba106b	-0.09085163
2	0xbda4018f	-0.0800811
3	0xbb7aeee9	-0.0038289374
4	0xbd0d8dc5	-0.03455903
5	0xbcf7553b	-0.030192008
6	0x3def52e7	0.11685734
7	0xbc97292a	-0.018452246
8	0xbe5eadb4	-0.2174595
9	0xbe2febb3	-0.17179756
10	0xbd5fdf59	-0.05465636
11	0x3d13cf58	0.03608641
12	0xbe097ce4	-0.13426548
13	0xbd9fded4	-0.07806173
14	0xbcc9327f	-0.024560211
15	0xbd35fd03	-0.044430744
16	0xbd8439e1	-0.06456352
17	0xbd3e182f	-0.046409782
18	0xbe1e45bc	-0.15456289
19	0xbdd99250	-0.1062361
20	0xbd3e5ffb	-0.046478253
21	0x3c8005cf	0.01562777
22	0xbdd5c03e	-0.10437058
23	0xbe370fb6	-0.17877087
24	0xbdfd665c	-0.12373039
25	0xbdbde689	-0.09272487
26	0x3db1f430	0.08689153
27	0xbd9cdfbc	-0.076598614
28	0x3d8134d0	0.06308901
29	0x3e15eb6e	0.1464059
30	0xbcbb2226	-0.022843432
31	0xbe1b11b0	-0.15143466
32	0xbddad44c	-0.10685024
33	0x3db850c3	0.08999779
34	0xbe34fe97	-0.17675243
35	0x3d3476c3	0.044058573
36	0xbd2e42e0	-0.042544246
37	0xbccf671e	-0.025317725
38	0x3ce0a4a1	0.027422251
39	0xbb521234	-0.0032054307
40	0x3cf0a80b	0.029377004
41	0x3d98384c	0.07432613
42	0x3d571496	0.052509867
43	0x3d2cb8ea	0.042168535
44	0xbc2b2a80	-0.0104471445
45	0x3d777023	0.060409676
46	0xbd94cbc3	-0.07265427
47	0xbe38a718	-0.18032491
48	0x3d94fbe2	0.07274605
49	0xbd938b86	-0.07204346
50	0xbc033719	-0.008008742
51	0xbcccfa00	-0.025021553
52	0x3d138b80	0.03602171
53	0x3debf26b	0.11520847
54	0xbdbe1098	-0.09280509
55	0x3e1a69e4	0.15079457
56	0xbe688918	-0.22708547
57	0xbdb7eac2	-0.089803234
58	0x3cfa9ea5	0.030593226
59	0xbd565d38	-0.052334994
60	0xbcc33371	-0.02382824
61	0xbcb6e8cd	-0.022327805
62	0xbd2d4c6d	-0.042309213
63	0x3d90a764	0.07063177

action_out.weight f4 [2, 64]
0	0x3f97c413	1.1856712
1	0xbdf53b70	-0.119742274
2	0x3f94ce79	1.162551
3	0x3e14d6c7	0.14535056
4	0x3e182d22	0.14860967
5	0x3e3cdcd6	0.18443617
6	0xbe3c3bfd	-0.18382259
7	0x3f95ef2c	1.1713614
8	0x3f670a24	0.9024985
9	0x3f65b7d2	0.8973361
10	0x3e20582e	0.15658638
11	0xbd10aa96	-0.035318933
12	0x3fcad0c2	1.5844958
13	0x3e7c6abd	0.24650092
14	0x3dfed629	0.124431916
15	0xbe1a937c	-0.15095323
16	0xbe03d23a	-0.12873164
17	0x3dd89035	0.1057438
18	0x3e2c7013	0.16839628
19	0x3fbac465	1.4591185
20	0x3fb47fec	1.4101539
21	0xbde36e86	-0.11105065
22	0x3f6e7d86	0.93160284
23	0x3e8d82db	0.27638897
24	0x397b359d	0.00023957198
25	0x3db41d2b	0.08794626
26	0xbdb0c512	-0.08631338
27	0xbe5ee8dd	-0.21768518
28	0xbb95ba97	-0.0045693624
29	0xbdacbecb	-0.08434828
30	0x3dee4b63	0.116354726
31	0x3d0b1a2f	0.033960517
32	0xbe9c415a	-0.3051861
33	0xbd6ac944	-0.057320848
34	0x3ef21a8f	0.47285888
35	0x3e1e9b39	0.154889
36	0xbe3265aa	-0.17421594
37	0xbd9437c2	-0.072371975
38	0x3d970a98	0.073750675
39	0x3df5c6d0	0.12000811
40	0x3e045372	0.12922457
41	0x3e835b6e	0.25655693
42	0x3de49c2b	0.11162599
43	0xbca93993	-0.020657336
44	0x3d8a48b5	0.06752149
45	0x3e4bdbc7	0.19908057
46	0x3d476a95	0.04868563
47	0x3f214cb5	0.6300767
48	0xbd747b5f	-0.05968797
49	0x3e0a56c1	0.13509656
50	0xbcbae331	-0.022813411
51	0xbdfab944	-0.12242368
52	0x3dc18d74	0.09450808
53	0x3e8c2776	0.27373856
54	0xbdbd1f21	-0.09234453
55	0xbe405f83	-0.18786435
56	0xbb35a2a4	-0.002771535
57	0xbdaaab40	-0.083334446
58	0xbe160ce3	-0.14653353
59	0x3d39ec6a	0.045391478
60	0xbe30ffae	-0.17285034
61	0xbddb6f3e	-0.10714577
62	0x3ea0d525	0.31412616
63	0x3df30de2	0.11867882
64	0xbe4830c4	-0.19549853
65	0x3e29db98	0.16587675
66	0xbe63bac3	-0.22239213
67	0xbea774db	-0.3270634
68	0x3d292357	0.04129347
69	0xbe195d7a	-0.14977065
70	0xbe3ca1a5	-0.18421037
71	0xbdb820b4	-0.089906126
72	0xbc2318a1	-0.009954602
73	0xbe013ce7	-0.12620889
74	0xbc1cf317	-0.0095794415
75	0x3e2ede7e	0.17077062
76	0x3ead76ca	0.3387969
77	0xbd98758a	-0.07444294
78	0xbd799ddd	-0.060941566
79	0xbdd7535e	-0.10513948
80	0x3dd1f2c1	0.1025138
81	0x3e1cc0f9	0.15307988
82	0xbe811e95	-0.25218645
83	0x3d335ad1	0.04378778
84	0x3dc39329	0.09549553
85	0xbdb384b3	-0.08765545
86	0x3eb397b5	0.3507668
87	0xbe81b3c2	-0.25332457
88	0x3e0d5bd6	0.13804564
89	0xbb2809a4	-0.0025640512
90	0x3d12b1d3	0.035814118
91	0xbe74f5b3	-0.23921852
92	0xbef3c26b	-0.47609267
93	0xbe2e46ad	-0.17019148
94	0xbeb72a41	-0.35774425
95	0x3dab5914	0.083666
96	0x3ed2a1ac	0.4113897
97	0xbe07e96c	-0.13272637
98	0xbe1e5ba8	-0.15464652
99	0x3e1431d2	0.1447213
100	0x3d11456f	0.035466608
101	0xbe96225f	-0.29323098
102	0xbdda4af1	-0.10658825
103	0xbe35332e	-0.17695305
104	0x3ce84f3e	0.028358098
105	0xbdbc2a63	-0.09187772
106	0x3deb8eee	0.11501871
107	0x3e25a077	0.16174494
108	0x3e1735e1	0.14766647
109	0xbdb650af	-0.08902108
110	0xbe5d2425	-0.2159582
111	0xbe6509f5	-0.2236708
112	0xbde0a46f	-0.10968863
113	0xbdaa8801	-0.08326722
114	0x3df10e88	0.1177035
115	0xbd6a4b40	-0.05720067
116	0xbd9a571c	-0.07536146
117	0xbe179536	-0.14803013
118	0x3df8a9d3	0.121417664
119	0xbdc63e96	-0.09679906
120	0x3f605636	0.8763155
121	0x3dc98604	0.098400146
122	0xbcffb5fb	-0.031214705
123	0x3dd484db	0.10376903
124	0xbe515dcc	-0.20445937
125	0xbf39c298	-0.7256255
126	0xbeadc4d7	-0.3393924
127	0x3e19d64a	0.15023151

action_out.bias f4 [2]
0	0x3c4e2df1	0.0125841955
1	0x3c3fafaf	0.011699601
