model_flock/flock/agent_0/15_actor_params.pkl (torch, 39031 bytes, 8 tensors)

fc1.weight f4 [64, 8]
00000000: 1e16 e83d 1853 6cbe 84c7 23be 7134 8dbe
00000010: 5e2d 46bc b5cf 703d 4474 cb3e cd4a aa3e
00000020: 7db3 da3d 100c 2cbe 65bd 30be 01a3 65bd
00000030: 1e7a e23d bfd8 90bd a374 833e 6cbb 4abe
00000040: d0b2 14bd 5962 72bc 1b09 aebe f895 79be
00000050: a569 69be 8738 bb3e 4189 173f 871c d9bc
00000060: 2090 2fbe 6142 94be 9673 9fbe 93a5 703e
00000070: b7e5 8e3d 0e54 99be 9e4c 9f3d 5c61 19be
00000080: fcc5 7a3c 5f01 f3bd 8e9b 5abe 816e af3e
00000090: c882 a5bc c33e 50bd 5767 263e 6429 e4be
000000a0: d6a7 0f3f 66aa a93d e503 4c3e 2a08 95bd
000000b0: 2adb 87be 4f80 c73e 1c05 ad3e 6c59 513c
000000c0: 1e0f bdbe 3e16 92bd c80c 823e a9f1 243e
000000d0: bd41 9f3b 84f6 853e 47e7 1c3d d23f 5d3e
000000e0: d142 ad3e 1ba7 fcbd b7b0 35be 55d7 7fbe
000000f0: 0d42 a6bd aa91 833e 8a8b 2d3e 8396 2b3e
00000100: 0a16 bc3e 20bd 65bd 5690 07bd 8194 823d
00000110: 9d0b 95be 4730 9a3e fa19 d53e 749c 4b3e
00000120: 6c7b 7b3d b859 043f 100e b6be ed5e 023e
00000130: 24fb c9bd ba59 99be 50db e9be 6c85 83be
00000140: 410c 863d 5234 7dbe 4f1b 92be 3e25 08be
00000150: e6bd 7a3e 9c80 47be c91b 86be bf28 953e
00000160: e994 ba3e 1307 29be e22d 293e 6066 78be
00000170: 5d9a 9abe 8fca 23bd 3060 903e 76f7 52be
00000180: c4f2 a33e 9ef0 d33e a655 01bd f0b2 afbe
00000190: e6b4 a6be 1412 963e 6203 54bd be2d 16bf
000001a0: 2eab d0bd 1c67 69bd c76f 57be 98f4 e73e
000001b0: 2bed 783e 2694 e4be 725e a83e ad90 073f
000001c0: 9ec2 e6be 0116 bb3e 8e54 1f3e f96b 61be
000001d0: 0e01 703d 7b9c 0ebe c4eb adbd c450 0b3f
000001e0: 6df1 ccbd d0f6 8b3d bfc8 843e 640f 843e
000001f0: 1c16 693e d733 99be a09a 94be 9eb4 833e
00000200: 9e49 5cbe 0169 0cbe 45e5 913e 5be1 bcbd
00000210: 8637 0bbe ea57 aa3e 65ec adbe fe90 8dbe
00000220: 13a4 edbd 5a82 2b3e 1331 7abe 8a5e 783e
00000230: 1527 963e c4df 233a c7b0 503e 465a 913d
00000240: e6dd b1be 2de0 6d3e 27c4 923e 12f4 64be
00000250: c5ba c43e 4c08 383e cb7e 24be 0acc d8bd
00000260: aa0f 97bd bd16 4b3e 3693 cebb b42b ca3e
00000270: 4668 ab3d 4c0a 83be 2015 1abf 7518 0ebd
00000280: 1cf7 20be 6f5a e6bd 74eb 8e3e ca3c 253e
00000290: 9544 97be c21d c8be 3346 01bf 546d 8b3d
000002a0: 29a3 b2be 3b4d 14be 6067 823d 8cb6 56bd
000002b0: 1652 2e3d 7191 babe cc70 c83e 83ed 2d3e
000002c0: 57f1 57be d47e 253d 1a26 03be 3ef3 67be
000002d0: 16e9 4bbe 73ca 8a3e ce61 9c3e 1729 56be
000002e0: 0e18 c8bd 83df b3bd 94b7 cc3d fc9c aabe
000002f0: f2fe b43e 4b0d c43d 03c8 9c3e d0aa aebe
00000300: a640 953b 1e31 063e 7b36 f43d c5ad aebe
00000310: c7c4 023c da0c 9e3c 8cce b43e 5792 963e
00000320: 451e a3be 72d5 b53e 7c48 68be 6b8f 4e3e
00000330: 798b 763e e882 3e3e 2866 1cbe f2bb 7bbe
00000340: 4acf dfbe b4c5 213e 2925 973e ce16 85bd
00000350: c50a 1b3e 88b6 ad3c 58a8 853e adcd d43e
00000360: 3a0f 323e 9c94 4cbe f789 e9bd 71c7 cebd
00000370: ed53 c9be 7353 493e 4279 13bd 1f10 cabd
00000380: 079f a0bd 6895 873c 005b 8b3e 04fe 3abd
00000390: dcfb bf3d 91a2 bebd c586 d93e 4006 bc3e
000003a0: 7e7a 9dbe d4d9 bdbe 6d4b eb3d 0def 40be
000003b0: e3a8 c33e fe70 b83d c05e e2bd 01bd 453e
000003c0: 3888 75be 98c1 ef3d 3947 323e 989a 8f3e
000003d0: 47a1 ae3e d89f a53e bc0b 18be e5a4 e83e
000003e0: 0d9f bfbe 9aff d5be f6fa b0bd 5424 bcbe
000003f0: adb8 4b3e 2311 b43e 42d1 153e b42d 10be
0.113323435 -0.23078573 -0.15994078 -0.27579072 -0.012095777 0.058791835 0.3973714 0.33260193
0.10678766 -0.16801476 -0.17259748 -0.056063656 0.11058448 -0.07072591 0.25674924 -0.19798058
-0.03630334 -0.014793956 -0.33991322 -0.24373615 -0.22794206 0.36566564 0.5919381 -0.02650286
-0.17144823 -0.28956893 -0.31142873 0.23500662 0.069774084 -0.2994694 0.077782854 -0.14978546
0.015305992 -0.11865496 -0.21348402 0.34263995 -0.020203963 -0.050841104 0.16250359 -0.4456283
0.5611547 0.08284454 0.1992336 -0.07276948 -0.26534396 0.3896508 0.3379296 0.0127776675
-0.36925596 -0.071331486 0.25400376 0.16107811 0.0048601315 0.2616464 0.0383065 0.21606377
0.3384004 -0.1233656 -0.17743193 -0.24984486 -0.08118067 0.2569707 0.16947761 0.16756634
0.36735564 -0.056088567 -0.033096634 0.06375981 -0.29110423 0.30114958 0.4162138 0.19883901
0.061397 0.516994 -0.35557604 0.12731524 -0.098623544 -0.29951268 -0.45675135 -0.2568773
0.06545306 -0.2472699 -0.2853646 -0.13295457 0.24486503 -0.19482654 -0.26193073 0.2913265
0.36441734 -0.16506605 0.16521409 -0.24257803 -0.30195895 -0.039988097 0.28198385 -0.20602211
0.32021153 0.41394514 -0.03157582 -0.34316206 -0.3255989 0.29310668 -0.05176104 -0.5866355
-0.101889 -0.0569831 -0.21038733 0.45303798 0.24309222 -0.44644278 0.32884556 0.5295513
-0.45070356 0.36540225 0.15559599 -0.22013845 0.058594756 -0.1392688 -0.08492234 0.54420114
-0.10006986 0.06834185 0.25934407 0.25792992 0.2276234 -0.29922363 -0.2902422 0.25723737
-0.21512458 -0.13711931 0.2849523 -0.09222671 -0.135954 0.33270198 -0.33969417 -0.27649683
-0.1160356 0.16748944 -0.24432783 0.24254814 0.29326692 0.00062513 0.20379935 0.070972964
-0.34739608 0.23230048 0.28665277 -0.2235873 0.38423744 0.17971915 -0.16063993 -0.10585792
-0.073760346 0.19832893 -0.00630417 0.39486468 0.08369498 -0.25593793 -0.60188484 -0.034691293
-0.15719265 -0.112477176 0.2791401 0.1613647 -0.2954451 -0.39085203 -0.5049774 0.06807962
-0.34890106 -0.14482586 0.063673735 -0.052420184 0.042558752 -0.36439088 0.39148557 0.16985135
-0.21088158 0.040404156 -0.12807503 -0.22651383 -0.19913134 0.27107581 0.3054337 -0.20914112
-0.09770213 -0.08782866 0.09995952 -0.33322895 0.35350758 0.09572848 0.30621347 -0.34114695
0.004554826 0.13104674 0.11924454 -0.3411695 0.007981486 0.019293237 0.35313833 0.29408523
-0.3185903 0.35514408 -0.226839 0.20171897 0.24076642 0.18604624 -0.15273345 -0.24583414
-0.43712837 0.15798074 0.29520538 -0.0649849 0.15140827 0.021205202 0.26105 0.41563168
0.17388621 -0.19978565 -0.11403268 -0.10096634 -0.39321843 0.1966074 -0.036004312 -0.09866356
-0.07842832 0.016550735 0.27217865 -0.045652404 0.0937421 -0.09308351 0.42485633 0.36723518
-0.30757517 -0.37080252 0.11488996 -0.1884119 0.38214788 0.090059265 -0.110532284 0.1931038
-0.23977745 0.11706847 0.17409982 0.28047633 0.3410742 0.32348514 -0.14848226 0.45438305
-0.37426034 -0.4179657 -0.08641617 -0.36746466 0.19894667 0.35169324 0.14630607 -0.14079934

fc1.bias f4 [64]
00000000: 8cae 4b3e 3328 ff3e 70ba c53e a044 a03d
00000010: 68df a03e ae07 8c3e 0f79 90be 6e6d d13b
00000020: db7a aa3d 12df 07be 3293 c73d 5415 1537
00000030: 4bd6 86be 92ae 4e3e a8f0 503e 6c15 0dbe
00000040: d6ee 7c3c b7ec 843e afc9 583d 9656 063e
00000050: 9ab6 2fbe 7e71 a0be c766 873d 5a02 3dbb
00000060: 40fa d53e 748d 933e 5a7a 8cbe 7891 9d3e
00000070: 948e ed3c 4d97 7d3d 42fe 40bd 9237 3e3d
00000080: cf69 863e 47ac 023b fb8a a53e 98b3 1c3d
00000090: db6d 3b3e 6580 be3d 224c b63e f44d 293e
000000a0: cb91 df3d b884 a9be 155b c23e db05 12be
000000b0: 08a0 943e bc0b 533e be75 643e 00e2 15be
000000c0: 73c4 9abe 1499 fbbc 04a9 203e b9a1 2c3c
000000d0: ad84 04be 958a babe c378 babd 734d aa3e
000000e0: 92db 0a3e 310d 5ebd 2d93 9bbe 293c a6bc
000000f0: 6865 64be e8f9 bdbd 2d8a d2be 4d1a f53e
0.19890803 0.49835357 0.38618803 0.07825589 0.31420445 0.2734961 -0.2821736 0.006391219
0.08324214 -0.13268688 0.09744872 8.886058e-06 -0.26335368 0.20183781 0.20404303 -0.13777703
0.015437802 0.2596185 0.052926715 0.13118967 -0.171595 -0.31336588 0.066114 -0.0028840513
0.41792488 0.28818858 -0.27437097 0.30775046 0.02899865 0.06191187 -0.04711748 0.046439715
0.262526 0.001993911 0.32332596 0.03825721 0.18303625 0.09301833 0.3560496 0.16533643
0.1091648 -0.3310907 0.37960115 -0.14260046 0.29028344 0.20609945 0.2231054 -0.14636993
-0.30228004 -0.030712642 0.15689474 0.010536605 -0.12941237 -0.36433855 -0.09105065 0.33262214
0.13560322 -0.0542118 -0.30385724 -0.020292358 -0.22304308 -0.092761815 -0.41121045 0.47871628

fc2.weight f4 [64, 64]
00000000: ad41 5d3c 7bc8 063e 0dcc 65bd 86f7 11bd
00000010: 77e4 1b3d 1f67 213d 18b8 423e a353 353d
00000020: 03a4 803d 8e14 febd 1f5f a23c eca5 1dbe
00000030: cf33 36be a381 24bd 96d3 81bb 5ab8 a5bc
00000040: 6ab4 81bd 66d0 a0bc d4fb df3d de1b c8bd
00000050: bd85 3e3d e0f6 863d 3b86 cf3d 1cc0 0a3e
00000060: 82c9 e13c c50b 933d 2436 003e d0d0 f63d
00000070: f4ad c6bd a80d c93d 4f03 0e3e 5c3f 843c
00000080: 85cb 8b3d 1ff8 1abd 2d64 82bc 0cf0 febd
00000090: 25b2 46bb 0f73 a53c 9b7a 823c 6ecd 9abc
000000a0: 7428 b23d 56b3 e7bc 3216 c33d 37dd 3bbd
000000b0: b8fe 9dbd 32a0 97be a85f ecbd 951d 7d3c
000000c0: b18e dfbd ba80 c13c bbc2 cfbd ab0b 1d3e
000000d0: 65b2 0fbe 92a4 15be ce4f e53d 5dad 2bbe
000000e0: 0c67 7bbd c6ec ba3d 25e4 d53d bfa9 dcbd
000000f0: 52ab d03d ebde ec3d f16a d93d 71b2 043e
00000100: 3f6e 823d 8b97 803b 6ce8 e23c a356 40bd
00000110: 0fa1 bebd 068d 67bc 0e83 193e 4a5a 313c
00000120: 6920 eabc b238 6cba 16c0 b7bc 3e70 193d
00000130: 5ceb c3bd 8cf6 81bd 154e c63d 8349 a6ba
00000140: 2775 a23d 6827 d8bb bdd2 d13d 4135 d43c
00000150: 94b2 8f3d 6cec a4bd 9589 1ebe 28c9 7dbd
00000160: 892a c13d ac2f 6bbc a482 cfbc 7a4b a43d
00000170: b3be cabd b2bb 5bbd d293 89bd 162a 89bd
00000180: 69a0 013e 9ff1 1dbd a5c1 ec3c 13c5 fcbc
00000190: f685 f83d f934 843e 9290 cd3c adc6 dabc
000001a0: 1078 4cbd ed86 2d3e ceae 24be 3a7f bcbc
000001b0: 5a66 9b3d 55df c53c 7711 863d f3ce 6b3d
000001c0: 6af2 c83d b6ef 6c3c 2676 9b3c 3df2 033d
000001d0: ace7 6d3d e65a 4b3e fbe6 c03d 3935 3c3d
000001e0: 827d b23d f4db 803c f86b 803d e59c f43d
000001f0: 5543 1b3d d7b8 d4bd 0bfc 1e3b 6698 d9bc
00000200: b938 ccbd da66 863d cefa 603d d61e 20bd
00000210: 126d 163d fcc2 36be 68b4 7abd db04 8cbd
00000220: c997 4d3e 1ebb e9bd fbea b53c dbb6 b3bd
00000230: 4fab 693e d4c0 8e3d 4b1c afbb 4653 d73d
00000240: 9ef4 083d 019b 1f3d ad36 10be 5b22 38bd
00000250: 3adf 4d3e 4b7f 1a3e e991 9a3d 9a8b 3abe
00000260: d576 29be e34f 9b3d 83f9 cabd 7a23 063d
00000270: e44f 1a3d 44ff 073c 7bb0 aebd cdb8 81bd
00000280: 676d 0fbd 6178 7bbd 8162 403e dd58 4e3e
00000290: 3d8d 213d 71db afbd b606 433e 5426 573e
000002a0: 3bb9 6d3d 4139 0f3d 0752 433d 91e1 493d
000002b0: 44c8 da3b 6a1a b1bd 359d 183e fab4 923d
000002c0: 4765 1bbe 59cf d23d 9f83 8c3d 19f7 12bd
000002d0: 0cec e5bd 04df 22be b458 07bc 8744 5c3d
000002e0: 80b2 b83d cb06 38bd 2b6c 52bb 6573 813d
000002f0: 93fc 0cbe 4884 113b 3e69 633d ad2b 95bd
00000300: 3dc9 c5bd 7737 a2ba 42fd 8abd 69d8 90bd
00000310: 8cea c33d abbd 08bc c63b cbbc 36cc e0bc
00000320: 27e3 563d 40e3 1b3e 34b6 59bc ea52 f03d
00000330: bb0b c63c f950 cfbc 4681 943d 5fa5 49bd
00000340: 328f 833b f7e4 08be a9e3 08bc 1544 833d
00000350: 0524 523c 67ee 13be b5ae 193d 50fe 173d
00000360: ba32 543d 4374 413d 1717 b4bd 5ac6 203e
00000370: e352 883d 4b31 a9bd 80de 063c 3f32 d33b
00000380: 1587 8d3d cfea 8e3d 40f3 cc3d 35f9 3b3e
00000390: df5a 96bd 29cd 273e e831 d5bd 54e6 413d
000003a0: 9651 093e a5f0 c7bd 5100 163e 1041 ac3d
000003b0: b0a4 c73c 1b76 c6bd 680d e03d b7e0 953d
000003c0: 0350 dc3d e4bc 433d 68e7 1abd c3c4 853e
000003d0: a843 19be ba94 f63c 7ed1 f9bc 8f0d 0e3d
000003e0: a32d 56bd 8048 0fbd 1524 053e 337d d1bc
000003f0: ba0e 19be da9b bebd 32d3 a63c 70f4 203e
0.013504428 0.13162415 -0.0561028 -0.035636447 0.038059678 0.039404985 0.19015539 0.044269215
0.06281283 -0.12406264 0.019820748 -0.15395325 -0.17793201 -0.040162694 -0.0039619906 -0.020229507
-0.063332394 -0.019630622 0.10936704 -0.0977094 0.04651426 0.065900564 0.10133024 0.13549846
0.027561907 0.07179979 0.12520653 0.120515466 -0.09701148 0.09817058 0.1386845 0.016143493
0.06825928 -0.037834283 -0.015916908 -0.12448129 -0.0030318585 0.020196466 0.015927603 -0.018896785
0.08699122 -0.028283756 0.09525718 -0.045865264 -0.07714599 -0.29614407 -0.115416825 0.015448947
-0.10915888 0.023620952 -0.10144564 0.15336482 -0.14032896 -0.1461356 0.11196862 -0.16765352
-0.06137757 0.09127192 0.10443906 -0.10774564 0.10188927 0.11565956 0.106161006 0.12958695
0.06368684 0.0039243153 0.027698718 -0.046957623 -0.09308063 -0.014132744 0.149914 0.010824749
-0.028579907 -0.0009011134 -0.02243046 0.037460558 -0.095663756 -0.06345853 0.09682862 -0.0012686703
0.07932501 -0.0065964945 0.10245273 0.0259043 0.07016483 -0.080529064 -0.15482171 -0.061959416
0.09431941 -0.014354628 -0.025330849 0.080222085 -0.09899654 -0.053645797 -0.067176476 -0.066974804
0.12658848 -0.038560506 0.02890093 -0.030855691 0.12134926 0.25821665 0.02509335 -0.026706064
-0.049919188 0.16946001 -0.16082308 -0.023009885 0.075878814 0.024154345 0.065463 0.05757041
0.09811862 0.014461448 0.018977236 0.03221344 0.058082268 0.19858894 0.09419056 0.045949195
0.08715345 0.015729882 0.062705934 0.11943988 0.03790601 -0.10386818 0.0024259116 -0.026561927
-0.099717565 0.06562586 0.054926686 -0.039091907 0.03672511 -0.17847818 -0.061207205 -0.068368636
0.20077433 -0.11412643 0.022206774 -0.08775111 0.22819255 0.06970373 -0.005343949 0.1051393
0.03343641 0.038966183 -0.14083357 -0.04495464 0.20104685 0.15087621 0.075473614 -0.18217316
-0.16549237 0.075835966 -0.09910872 0.032748677 0.037673846 0.008300606 -0.08529755 -0.06334076
-0.035016444 -0.0613941 0.18787576 0.20151086 0.039441336 -0.08586777 0.19045529 0.21010715
0.058037978 0.03496671 0.04768565 0.049287383 0.0066767056 -0.08647616 0.1490372 0.07163425
-0.15175353 0.10293455 0.06861042 -0.035880182 -0.11226663 -0.15905386 -0.008260895 0.05377629
0.09018421 -0.044928353 -0.003210793 0.06320838 -0.13768224 0.002220409 0.05552029 -0.07283721
-0.09657524 -0.0012376149 -0.06786586 -0.07072527 0.09566221 -0.008346002 -0.024808776 -0.027441125
0.052462723 0.15223408 -0.0132880695 0.117345646 0.024175515 -0.025307165 0.072512195 -0.049229976
0.004014873 -0.13368593 -0.00835506 0.0640947 0.012825971 -0.14446412 0.03752013 0.037107766
0.05180619 0.047230016 -0.087934665 0.15700665 0.066564344 -0.08261355 0.008231759 0.006445199
0.069105305 0.0697838 0.10007334 0.18356784 -0.07341551 0.16386856 -0.104099095 0.0473388
0.13410029 -0.09762696 0.14648558 0.08410847 0.024370521 -0.096904956 0.10940057 0.073182516
0.107574485 0.047787562 -0.037818342 0.2612668 -0.14967215 0.030100215 -0.030495401 0.0346809
-0.052289616 -0.03498125 0.13002045 -0.025572395 -0.14947024 -0.0930707 0.020364378 0.15718246

fc2.bias f4 [64]
00000000: fed1 af3d 6e77 c5bd 8793 8d3d d515 c03d
00000010: 4373 abbc 4c94 21be b81a 153d 7d77 83bd
00000020: 344c 02be 52c6 453e 4412 763d 9266 a7bd
00000030: 5b6d e63d f550 453e 0f96 e9bd 9628 a53d
00000040: 259f 413d 4bda 113e 1f48 66be 3840 793e
00000050: 5a62 b0bc b46b 82be 032e 0a3e 1aaa acbd
00000060: 56c2 77bd bbed 2ebe 48e2 b2bd 2c2e ac3d
00000070: b56a 43bd 5599 af3d 79db ecbd a863 86bd
00000080: ddb4 d13d 3692 593e a34a 01ba a2f5 9dbd
00000090: ffe1 653d 31ec ad3d cce5 40be 56aa 07bd
000000a0: 3808 27be b44c a63d 97f8 3d3e 734a d2bd
000000b0: 5c6e 91bc b7da d73d 5938 1c3a a7d8 92bd
000000c0: 9676 ab3c 9e32 8b3d e7ce fc3d 4462 1a3e
000000d0: 674a 16be b7ac 3d3d 8887 3dbe 1552 0cbe
000000e0: 50fd 103e c090 1c3c 26b2 eabd e910 b8bd
000000f0: 6bb8 983c c3ae 53bd b6ab 85bd 78b8 33bd
0.08584975 -0.0964192 0.06912904 0.09379164 -0.020928985 -0.15779227 0.036402434 -0.06419275
-0.12724382 0.19313934 0.060076013 -0.081738606 0.11251327 0.19269164 -0.114055745 0.08064382
0.047270913 0.14243428 -0.2248845 0.24340904 -0.021531273 -0.25472796 0.13494115 -0.08430882
-0.060488068 -0.17082874 -0.08734566 0.08407244 -0.047709186 0.08574168 -0.115652986 -0.06561977
0.10239575 0.21247181 -0.0004932081 -0.07712866 0.05612373 0.084923156 -0.1883766 -0.03312143
-0.16311729 0.08120099 0.18551861 -0.10268106 -0.017752819 0.105397634 0.0005959324 -0.071702294
0.02093057 0.06796764 0.12344151 0.15076548 -0.1467682 0.04630729 -0.18508732 -0.13703187
0.14159131 0.009555995 -0.1145976 -0.089876 0.018642625 -0.051680338 -0.06526892 -0.043877095

fc3.weight f4 [64, 64]
00000000: f26e 10be c754 44bc 3cdd 0fbe d569 abbe
00000010: 59af 7e3d a707 e33d 7449 a53d ed12 eb3d
00000020: 91e2 343e 438d 013d abf5 51bd e985 5138
00000030: 12e8 9dbe 49c8 e1bd 1abe 2f3e d016 263e
00000040: d646 f9bb 8fd8 27be 020a e43d 5b82 f4bd
00000050: dc5d a53e 0846 823e 5e9f 45bb 3473 f93d
00000060: ff78 4bbd 0eab cf3d e20e 043d 8e25 13be
00000070: d6c3 8c3d 744c 303d e621 f13d 3dde ce3d
00000080: c6b4 bdbd 3072 09be 375a 29bd 478a 643e
00000090: 2610 5fbc 0439 0d3e 9161 b53d 118b 463d
000000a0: 4745 d13d df0b d6bd f131 653d ea23 f33c
000000b0: 2580 623e e314 1bb9 b3cd 56bd 11e7 153e
000000c0: 6c00 e1bd 8d08 dcbc b283 52bd e9b1 c5bd
000000d0: 1f6c 023e 630b fd3c 0f1c c53d 2ee1 e4bd
000000e0: 8d84 01bd f450 60bd 9640 2a3e 0cd2 6e3d
000000f0: 26c7 58be ebd4 aa3d 6ab4 aa3d 5787 5ebe
00000100: e81d 553d be19 cb3d 11c1 92be b78c e43d
00000110: 5805 583d 13b3 9e3d a53f 1cbe 59e0 3c3d
00000120: ba74 a9bd 58eb 793d 86b5 d33d c8d0 cebd
00000130: 6777 41bd 39bc 263d 30aa 043e 10e7 e0bd
00000140: 1775 1b3e 98f7 943d 5fa0 8fbd 86ed d0bd
00000150: b515 9bbd ff83 1d3d 96ac 153d 9c0f adbd
00000160: b331 c73d 30b3 5ebc b277 dc3c 93c2 ee3d
00000170: f6d1 073e abf0 f53d 0dd0 363d 5adb c03d
00000180: df21 14be 149a 90bd 64a6 523d 0e89 823d
00000190: 3c4d ac3c fdcd fcbd ecdb f93c b43b 563c
000001a0: cc93 b33b 8363 483e f29a 29be 74d0 a0ba
000001b0: 836e 2ebd c2b3 9a3b 5920 11bd b886 033e
000001c0: d447 edbd 4ce7 003e 987b e33d 508e a5bd
000001d0: fc0a 253e c52d 823b d535 56bd bc64 fb3c
000001e0: 81ad 863b 83dc afbd de4a c0bd 0a77 803d
000001f0: 37c8 003e 0b6e 993d 1318 edbd c4b0 483d
00000200: 6e36 00bd 9292 203c 06f6 a6bd 7888 b2be
00000210: 4e6f debc d1e0 5c3e 83b5 263e 4f82 703e
00000220: 787b 2f3d 1f61 86bd af55 bbbb 4833 1a3d
00000230: a83b b0be 19ea 4d3d f021 003e fada a63b
00000240: 51f7 0f3e 6442 0cbe cb95 3a3e c53d eebd
00000250: f34f 4e3e cb4b bc3e a0ff e2bd 0d77 743e
00000260: f9ec febc b744 533e 39fc 0dbe cf24 4cbe
00000270: aa47 103e 41d0 c1bc e185 1ebd 278b 16bb
00000280: 4b2a 46bd 13e2 72be fcba cabd acbd 763e
00000290: a182 f73c e3c3 d83c 2b85 703e 0a1d 333d
000002a0: 6b0b 6a3e 6c67 30be ace2 d5bd 91f6 933d
000002b0: 8b65 923e e173 ac3d f6ef b5bd 66f3 9f3d
000002c0: 0df2 d2bd 52e9 04bc fc98 8ebd abbe b9bd
000002d0: 22d8 263e 297a cabd 7e54 31bc 5712 a7bc
000002e0: e1e7 1b3d 7804 123e a581 913d 67ef 98bd
000002f0: 381b aabd 483c 273e 854c 783e 7861 22be
00000300: 70a3 493d eb2c 0d3d ced1 4f3e ca4f 17bf
00000310: 00b1 a23d 13a8 253d fcd9 673d 2df7 093e
00000320: 5fb9 90bc d36c 1fbd 97c1 85bc 30b8 a33d
00000330: 38be 17be 8012 413d 2f40 41be 7145 bfba
00000340: 56da e23c 434d fdbd 2397 9a3d af21 28bd
00000350: 9b25 843e bed5 a23b badf 2ebe 88a3 103c
00000360: 9d52 92bb 6e8a ecbc ab6b a0bd 8fc1 e5be
00000370: a6bb 97bd 0612 093d a39f 47bd 7243 0e3e
00000380: f911 e63d 14f9 38be fd1d dabd 3424 db3d
00000390: df6f b5bd c7a4 183e 0194 6e3d 3ea6 52bd
000003a0: 2743 a83d b24a 903c 5c1d bc3d 3a43 833c
000003b0: 660a bbbd 93ec 9abd feff 9bbe a8e8 043e
000003c0: 6fb8 9abd 61ae 0abd f523 513d 16a3 56bd
000003d0: 7c82 a9be 5844 a63d 5505 70be efe9 35be
000003e0: 1e7f 38be 7715 a53d 0412 efbd 82d0 eabd
000003f0: 54be 9bbc 8ca1 9fbd 1d33 0c3d 872a 2dbe
-0.14104822 -0.011983103 -0.14049238 -0.3347918 0.062178943 0.11085444 0.08070651 0.11478219
0.17664553 0.03162886 -0.051259678 4.9954197e-05 -0.30841118 -0.110245295 0.17162362 0.1621964
-0.0076073213 -0.16391204 0.11134721 -0.11938926 0.32298172 0.25444055 -0.0030154805 0.121801764
-0.049675938 0.10140048 0.032240756 -0.14369795 0.0687329 0.04304166 0.11774044 0.10100982
-0.092629954 -0.13422465 -0.0413458 0.22318374 -0.01361469 0.13791281 0.088565 0.048472468
0.10218292 -0.10451483 0.05595583 0.029680211 0.22119196 -0.00014789733 -0.052442264 0.14638926
-0.109864086 -0.026859546 -0.051395126 -0.09653074 0.12736557 0.030889219 0.096244924 -0.11175762
-0.03162055 -0.054764703 0.166262 0.058305785 -0.21169719 0.08341392 0.083351925 -0.21731316
0.052030474 0.09917019 -0.28662923 0.11159652 0.05273947 0.077489994 -0.15258653 0.046112392
-0.08274217 0.061015457 0.10337357 -0.100984156 -0.04723301 0.040706847 0.12955546 -0.10981572
0.15181385 0.07273787 -0.0701301 -0.10201554 -0.075725 0.03845596 0.036541544 -0.08450243
0.09726276 -0.013592526 0.026912544 0.11658206 0.13263687 0.120087944 0.044632006 0.09416838
-0.14466046 -0.07060638 0.051428214 0.06373797 0.021032922 -0.12343977 0.030500375 0.013075758
0.0054802652 0.1956921 -0.16563013 -0.0012269155 -0.04258586 0.004721136 -0.03543124 0.1284436
-0.11585966 0.12588233 0.11107558 -0.080837846 0.16117471 0.0039727413 -0.052297432 0.030687682
0.0041100387 -0.08586981 -0.0938928 0.06272705 0.12576376 0.07491692 -0.115768574 0.0489967
-0.03130191 0.00980057 -0.08152394 -0.34869742 -0.027152684 0.21570136 0.16280179 0.23487209
0.04284236 -0.06561493 -0.0057170014 0.03764656 -0.34420514 0.05027208 0.12512946 0.005092022
0.14059187 -0.13697201 0.18221204 -0.11632875 0.20147686 0.36776575 -0.11083913 0.2387354
-0.031118857 0.20631681 -0.13865747 -0.19935916 0.14089838 -0.023658874 -0.038701896 -0.0022971125
-0.048380177 -0.23719053 -0.09898946 0.24095792 0.030213656 0.026460594 0.234883 0.043728866
0.22855918 -0.17226952 -0.10443625 0.07224763 0.28593096 0.0842054 -0.088836595 0.078100964
-0.10300074 -0.0081122685 -0.06962773 -0.0906957 0.16293386 -0.098865815 -0.010823367 -0.020394487
0.038062934 0.14259517 0.07104806 -0.074675374 -0.08305973 0.16331589 0.2424794 -0.15857494
0.04922813 0.034466665 0.20294878 -0.59106123 0.07943916 0.04044349 0.05660437 0.13473196
-0.017666517 -0.038922142 -0.016327662 0.07994115 -0.14818656 0.047136784 -0.1887214 -0.0014592839
0.027692001 -0.12368252 0.07548358 -0.04104775 0.2580994 0.0049693277 -0.17077532 0.008828051
-0.0044654147 -0.028874602 -0.07833036 -0.44874236 -0.07408838 0.033464454 -0.048736226 0.13892916
0.11233897 -0.18063766 -0.10650251 0.107002646 -0.08859228 0.14906608 0.058246616 -0.051428072
0.08215933 0.017613743 0.09185287 0.016023267 -0.09132843 -0.07564654 -0.30468744 0.12979376
-0.07554709 -0.033857707 0.051059682 -0.052401625 -0.33107364 0.08118504 -0.23439534 -0.1776502
-0.18017241 0.08060735 -0.11673358 -0.11465551 -0.019011654 -0.077944845 0.034228433 -0.16910754

fc3.bias f4 [64]
00000000: 2bfe 3fbe 50e2 bcbd 6d88 a5bd 7841 223b
00000010: 1577 06bd 4929 f1bc f955 e93d 6bab 9cbc
00000020: 9b44 5fbe 4707 33be f28f 64bd a2a8 203d
00000030: 42e1 0bbe e502 9ebd 5f49 d8bc 3a5b 29bd
00000040: e139 84bd 990b 34bd 63d3 1ebe eba6 e4bd
00000050: 6119 4fbd 48aa 4b3c 5fe4 d4bd 3d02 36be
00000060: 00e5 f3bd 715e bbbd 58c1 af3d 32ee 95bd
00000070: 0968 713d 9b86 113e e501 acbc 7b6c 17be
00000080: 0e95 f3bd 8fc0 af3d 65ff 33be bddf 3e3d
00000090: 1fa1 33bd 1e30 03bd 6301 bb3c 1c0d dfba
000000a0: 46d9 fd3c fd81 9c3d a441 623d d5ac 273d
000000b0: 9a2b 0bbc c1dc 833d 13e8 8cbd 5767 3bbe
000000c0: 3abe 8c3d 4ce2 92bd 2d8e e8bb 00fa ccbc
000000d0: 808b 133d e4df ea3d df35 bebd 401b 183e
000000e0: 2781 6abe c2ea b7bd 1119 ef3c 815e 6dbd
000000f0: 6588 ddbc 93a2 bfbc 862c 0cbd 5bb3 963d
-0.18749301 -0.09222853 -0.08082662 0.002475826 -0.03282841 -0.029438632 0.11393351 -0.019124707
-0.21803515 -0.17483245 -0.05580134 0.03922332 -0.13660148 -0.07715396 -0.026402174 -0.041346766
-0.06456352 -0.043956373 -0.15510325 -0.111646496 -0.050561313 0.012430735 -0.10395121 -0.17774291
-0.11908913 -0.09148873 0.08581799 -0.07320823 0.058937106 0.14211504 -0.020996997 -0.14787476
-0.11893664 0.085816495 -0.17577894 0.046600092 -0.04385483 -0.03202831 0.02282781 -0.0017017457
0.030987393 0.07641981 0.05523838 0.04093631 -0.008494282 0.0643859 -0.06880202 -0.1830114
0.0687222 -0.07172069 -0.007097027 -0.025021553 0.03602171 0.11468485 -0.09287619 0.14854145
-0.2290083 -0.089803234 0.029186757 -0.057951454 -0.027042577 -0.023392951 -0.03422215 0.07358428

action_out.weight f4 [2, 64]
00000000: e564 a33f 1f15 f3bd 4aea 9e3f ab13 263e
00000010: fba1 153e 5f33 3b3e 9309 3cbe 182d 993f
00000020: a02a 6d3f 42f9 783f 3c13 1f3e 0ce4 0cbd
00000030: df5a ce3f 801d 7b3e 891c fc3d c26e 1abe
00000040: 3ad2 03be 260d d63d 5518 2d3e 0147 c73f
00000050: dfce c23f 2c0e debd 02b1 703f ad18 953e
00000060: b628 c83a 3a97 ae3d 9074 adbd 6c3e 67be
00000070: 89b9 d0bb aee2 a5bd db5c b03d ef7a 053d
00000080: e009 adbe 6399 67bd 138c f63e c39a 1d3e
00000090: 750f 32be ea89 93bd 89e2 8b3d d7dc f43d
000000a0: ed76 043e 00e3 853e 0e45 e23d a9b4 97bc
000000b0: b4bc 873d 3577 803e 660b 3f3d 7f4d 223f
000000c0: ff5a 75bd 1ff8 083e 7d65 b2bc 44b9 fabd
000000d0: 748d c13d 939e 8c3e 03ce babd dacd 3dbe
000000e0: a4a2 35bb 40ab aabd 79b1 15be 02a2 363d
000000f0: cfc5 2ebe 8f3c e8bd d474 a53e fe2f f23d
00000100: e541 3ebe 3eb0 393e cffa 5cbe 48c2 b0be
00000110: 40b1 2a3d 7d92 1bbe 9739 34be eeb5 aabd
00000120: 5f04 3ab9 298e f3bd 9f3e 5fbc 0595 2f3e
00000130: bca1 b73e 3dce 94bd da7c 88bd a215 dabd
00000140: c1f2 d13d 955d 1c3e fdf5 81be 5299 623d
00000150: 1cf6 d83d d75e 8dbd 6b56 bc3e b9ab 7ebe
00000160: 8d46 133e b080 78bb 3851 273d 0bca 70be
00000170: 3b33 eabe a972 23be 84f2 adbe 07a0 ac3d
00000180: 21d8 cd3e 300f f5bd a4c7 1cbe 62a0 133e
00000190: ef58 293d ecea 8ebe be0a debd 8393 3bbe
000001a0: c788 fb3c de97 d3bd ac59 ed3d faef 2f3e
000001b0: c41f 173e c7cd d6bc caf2 63be ec02 62be
000001c0: 3718 ddbd 5a2d acbd d60d f13d 404b 6abd
000001d0: 1c57 9abd 187d 29be 4db1 f83d 5d2a abbd
000001e0: 0a12 683f 0486 c93d 974f f4bc c387 d73d
000001f0: 40d3 3ebe 7409 3bbf ebdc aabe 6617 1b3e
1.2765166 -0.11869263 1.2415249 0.1621844 0.14612572 0.18281315 -0.18363027 1.1966887
0.92643166 0.9725534 0.15534681 -0.03439717 1.6121482 0.24522972 0.1231013 -0.15081313
-0.12873164 0.104517266 0.16903813 1.5568544 1.5219382 -0.10842547 0.9402009 0.2912039
0.0015270922 0.08524938 -0.08469498 -0.22582406 -0.0063697738 -0.08099876 0.08611461 0.03258794
-0.33796597 -0.056542765 0.48153743 0.15391068 -0.17388709 -0.072040394 0.068303175 0.11956184
0.12935992 0.2614975 0.110483274 -0.018518763 0.06627789 0.25090948 0.04664173 0.633995
-0.059901234 0.133759 -0.021776909 -0.12242368 0.09450808 0.27464733 -0.09121325 -0.18535557
-0.002771535 -0.083334446 -0.14618482 0.044588096 -0.17067645 -0.11339676 0.32315695 0.1182556
-0.18579824 0.18133637 -0.21580051 -0.34523225 0.041672945 -0.151926 -0.17600094 -0.083354816
-0.0001773997 -0.11892349 -0.01362577 0.1714669 0.3586558 -0.07265899 -0.066644385 -0.106486574
0.1025138 0.15270074 -0.25382987 0.055322 0.10593817 -0.06902855 0.36784682 -0.24870194
0.14382382 -0.00379185 0.04084894 -0.23514573 -0.4574221 -0.15961708 -0.33974087 0.0842896
0.40203956 -0.119657874 -0.15310532 0.1441665 0.04134458 -0.27913606 -0.10841893 -0.1831799
0.030704869 -0.10331701 0.11589369 0.17181388 0.14758211 -0.02622117 -0.22260585 -0.22071427
-0.10795634 -0.084070876 0.11770217 -0.05720067 -0.07536146 -0.16551626 0.121431924 -0.083576895
0.90652525 0.098400146 -0.029823108 0.10523941 -0.18635273 -0.730613 -0.33371672 0.15145645

action_out.bias f4 [2]
00000000: 0e4f 663c a3c2 8a3c
0.014056934 0.016938513
