model_flock/flock/agent_0/15_critic_params.pkl (torch, 39287 bytes, 7 tensors)

fc1.weight f4 [64, 10]
00000000: 8d50 d4be 11b5 f3bc 2cdd 58be 1bd7 a33c
00000010: 4df7 d23e 1556 053e 3808 47be a06d 1dbf
00000020: 864f 57bd 5102 79be 2ba0 c1bd da70 9f3d
00000030: 8f84 8b3c 9fd4 94bd 967d 03bd 4eb3 f93d
00000040: 1b0c ca3e 27f8 ed3f 2e9a e23e 52f7 773d
00000050: 5296 ccbd 1cc1 02be 8209 0c3d 8c08 803e
00000060: a48a c23d f1d0 1ebd 54f4 bb3e 1025 a13d
00000070: 5cef 79bf ac61 dd3e c9e6 9fbd 8b77 9c3e
00000080: d871 3bbe 8954 a9bd 1544 16bf cdae 933a
00000090: 5e83 413e 549e f43e 43c9 c3bd be21 aebe
000000a0: a742 033f aa8e ed3e 66d5 8b3d 01fe 9d3e
000000b0: 59b2 c0be 99f8 abbe 80b4 303e f893 c5bd
000000c0: 29e1 51bc 03fd 973e aa15 94be 2141 77bf
000000d0: 6bed 1cbe 96d8 1e3e cd54 f3be d7d3 673e
000000e0: 3da2 663d b13e dfbc 8c63 eebe 3375 893d
000000f0: 81d4 3a3e 4bcc 95bd a86a 6c3e 0ad9 bf3d
00000100: e83a 913e ec68 7bbe 5843 283f 6136 e6be
00000110: 6b46 583e 20ea 433d 9d5f c03e 113f a33e
00000120: e1e5 fd3d 24fe 3ebe 3a5e 0b3e ad5b 193e
00000130: eb00 643e a608 6d3f 91d8 873d bd80 7bbe
00000140: f2b7 193e 8a8e d2bd ea67 8a3e 6161 c2bd
00000150: 0211 763b 6d9f 4a3e efb1 9bbe bc4a 0ebc
00000160: 61db c73c acbe cbbd a54c 28ba 1a71 1d3e
00000170: 4079 f13b 624a edbd 68fa b7bd da5c cebd
00000180: 88b5 1c3f 6c56 09be 2359 10bf 0657 673e
00000190: 2343 ed3e 2e91 9ebe 1691 0f3e 9c3f 32be
000001a0: 901e 2fbe b6d3 e33d b7d3 2b3d 3b56 0c3f
000001b0: dff0 47bd f20b cbbd f6e2 073e 7926 b73d
000001c0: 9c5f 8b3d 49e7 a8bd 6540 c13c ccef 2cbe
000001d0: 9d34 63bc 9358 e23e 83b8 063d 1e85 e03d
000001e0: 74ed af3d d326 8abe 6b0d fc3d 63fe 1f3d
000001f0: 72a3 69bf 38db 2c3e 7a40 87be d569 b03f
00000200: d88d 9e3d cc79 16be 3734 ea3e 8559 ce3d
00000210: b5a8 b43e 593f 833d dbf3 e6bc 0f14 66bb
00000220: c876 08bf 784e 06bf 1efa 0b3e 23c0 903d
00000230: 989b 7f3e 2326 343c 53d0 09bd 0ab5 f3bd
00000240: df32 06bf 74d6 9dbd 8634 d83e 0ac5 123e
00000250: 15f9 8e3e 5117 9abb c09a 103f ce4f 16be
00000260: 111b 273e a811 55bd d838 4d3e b127 7fbe
00000270: 6fe6 dabe 2a42 463f b570 d33e 9ceb 6a3e
00000280: 8f73 06bf 8324 50be 53a4 80be 125e debd
00000290: b488 7c3e b75f 913e 57bf e43d 9d16 5c3d
000002a0: 1c4f 6bbe 7d82 113e 7dd5 99be 06a1 62be
000002b0: ccb0 1d3e 601d f9bc 8a83 0e3f 7f15 4ebe
000002c0: e607 213e 64c7 ba3f bd80 10be 282f 29be
000002d0: 42c5 fdbe 58b4 c1bd 2e6a 2e3d 146e cf3d
000002e0: 59d4 fe3e 987c d53d fb42 9cbc 96a0 5b3f
000002f0: bf4c 23be 957e fa3c 419c 56bf 8e48 b7be
00000300: 3a11 18be fe86 273d 1a71 48bc 5c46 3dbe
00000310: 72f8 013f 2340 f13f e04c e4be af61 b83e
00000320: 7f8a 353e 1e35 dabd 20d2 efbd 55fb 273e
00000330: b60f 983e 9e8e febd f373 af3b 2344 123f
00000340: c25b 22bf acd0 e2bd d61f b03d 018f 223c
00000350: 5443 843e 9285 03be 4931 30be 502f 4bbe
00000360: 37cb a8bf bba2 1dbf 787a 26bd 42a2 ad3b
00000370: cb0f 123d fa16 c2be 38d8 403e 6ee1 80be
00000380: 7e93 933d dcd6 4dbc ed30 8d3e aafe 4b3f
00000390: e9c3 713e be17 98be 35ce 6abe 51ec 2abe
000003a0: a247 2a3d 7a29 053e a317 133f 0aeb 3f3d
000003b0: 5003 f9bd fda3 093f 5fba 073d 13f3 183e
000003c0: c5ed 9a3e dd67 10be befc e53d 5c79 0dbe
000003d0: a156 053f 20a0 94be b102 aebc 19c0 45bf
000003e0: a59f 293e bb7f 893c b9b2 5ebf e2ae 963d
000003f0: af3e 15be 75a0 2bbe 04eb 593e 81c3 95be
-0.41467705 -0.029749425 -0.2117812 0.020000031 0.412043 0.13021119 -0.19436729 -0.614954
-0.052566074 -0.2431729 -0.09454378 0.077851966 0.017030982 -0.07267117 -0.03210219 0.12192403
0.3946236 1.8591355 0.44258255 0.060538597 -0.09989609 -0.12768978 0.034188755 0.2500652
0.094991 -0.03877348 0.36709845 0.07868397 -0.9763086 0.4323858 -0.07807691 0.30559954
-0.18305147 -0.08268077 -0.58697635 0.0011267305 0.18897769 0.47777045 -0.09559872 -0.34010118
0.5127358 0.46397907 0.06827812 0.30857852 -0.37636068 -0.33588102 0.17256355 -0.096473634
-0.01281003 0.2968522 -0.28922778 -0.96583754 -0.15324943 0.15512308 -0.47525635 0.22639404
0.056307066 -0.027251573 -0.46560323 0.06711807 0.18245126 -0.073143564 0.23087561 0.09367569
0.28365254 -0.24551743 0.6572776 -0.44963363 0.21120612 0.0478307 0.37572947 0.31884053
0.123973615 -0.18651634 0.13610163 0.14976378 0.22265975 0.9259132 0.06633104 -0.24560829
0.15011576 -0.102810934 0.27032405 -0.0949123 0.0037546759 0.19787379 -0.3040919 -0.00868481
0.0243966 -0.09948477 -0.00064201123 0.15375176 0.0073691905 -0.11586453 -0.08983308 -0.10076304
0.61214495 -0.13411874 -0.5638601 0.2259179 0.46340284 -0.30970138 0.1402019 -0.17407078
-0.17101502 0.11124365 0.041949954 0.5481908 -0.048813697 -0.09914388 0.13270172 0.08942885
0.068053454 -0.08247239 0.023590276 -0.1688835 -0.013867524 0.44208202 0.032890808 0.1096289
0.085902125 -0.26982746 0.12307247 0.03906096 -0.9126502 0.168805 -0.2641638 1.3782297
0.07741898 -0.146949 0.45742962 0.10075668 0.35284963 0.06408567 -0.028192451 -0.003510717
-0.53306246 -0.52463484 0.13669631 0.07067897 0.24961698 0.010995421 -0.03364594 -0.11899765
-0.52421373 -0.07706919 0.42227572 0.14332977 0.2792441 -0.0047024866 0.5648613 -0.1467888
0.16318919 -0.05201879 0.20041215 -0.24917485 -0.42753932 0.7744471 0.41296926 0.2294144
-0.5252008 -0.20326428 -0.2512537 -0.10857786 0.24661523 0.28393337 0.11169308 0.053732503
-0.22979397 0.14209934 -0.3004569 -0.22131738 0.15399474 -0.030409515 0.5566946 -0.20125388
0.1572567 1.4592099 -0.1411161 -0.16521895 -0.49564558 -0.09458226 0.04258173 0.101284176
0.49771383 0.10424155 -0.019074908 0.8579191 -0.15947245 0.030577937 -0.83832175 -0.35797542
-0.14850321 0.040900223 -0.012233997 -0.18483871 0.5076972 1.8847698 -0.445899 0.36012027
0.17728613 -0.106546625 -0.1171 0.1640447 0.29699486 -0.12429546 0.0053543984 0.5713522
-0.6342126 -0.11074957 0.08599822 0.00992179 0.25832617 -0.12843922 -0.17206301 -0.19842267
-1.3187016 -0.6157643 -0.04064414 0.0052988837 0.035659593 -0.37908155 0.18832481 -0.2517199
0.07205866 -0.0125634335 0.2757639 0.7968546 0.2360989 -0.29705614 -0.22930224 -0.1669171
0.04157222 0.13004103 0.5745794 0.04685501 -0.12158835 0.5376585 0.03313672 0.14936475
0.3025953 -0.1410212 0.11229847 -0.13815826 0.5208531 -0.29028416 -0.021241518 -0.7724624
0.16564806 0.01678454 -0.8699146 0.07357575 -0.14574693 -0.16760428 0.21281058 -0.2925072

fc1.bias f4 [64]
00000000: 1a15 acbe 6d4f 73bd 0c51 c4bd 6963 733c
00000010: 7ecf 5f3e 7509 423e 3b40 b33d 9c51 803e
00000020: 0a89 acbe 16be 3b3f e6c8 0d3e fddc 083f
00000030: a934 d4be 7537 e0bb f701 ad3e b3a2 4cbe
00000040: c233 9ebe 3bf9 ed3a f57f 05be c130 543d
00000050: a329 19bf 24c6 13be 0c8e 09bf a92f b8be
00000060: 68ea cabe e43f 1c3e fb97 f53e d8d9 313f
00000070: a66b c73e b017 b8be eac0 20be 2c00 06bf
00000080: 1e4a 98be ef75 3bbf cf4d 0d3f 9c1d a3bd
00000090: 116a 193e bdd1 6ebe 2230 a93e 0d98 95bc
000000a0: aeee f03e f77a 8ebe c59a 363d f53b 52be
000000b0: eaca 283f 4662 c0be ffdd 87be d577 a9be
000000c0: a3c6 273e 606d e83e 2c20 583d c168 393e
000000d0: 5acc a6be c54f a73d a191 ca3e 8dde b83e
000000e0: 6af6 98bc 4d05 373d 45dd b0bd 9f96 023e
000000f0: 305a e63d 5e3d 463f 5003 3c3e 7558 c13e
-0.3360985 -0.05940192 -0.09585771 0.014855244 0.21856496 0.1894892 0.08752485 0.25062263
-0.33698303 0.73336923 0.13846168 0.534622 -0.41446427 -0.0068425485 0.33790562 -0.1998394
-0.30898863 0.0018155942 -0.13037093 0.051804308 -0.5982916 -0.14431053 -0.5373237 -0.35973862
-0.39631963 0.15258747 0.47967514 0.6947303 0.38949317 -0.35955572 -0.15698591 -0.5234401
-0.29744047 -0.7322683 0.5519685 -0.07964632 0.14981867 -0.23322196 0.33044535 -0.01826098
0.47057098 -0.2782819 0.044581193 -0.20530684 0.6593462 -0.37574977 -0.26536557 -0.33099237
0.16384368 0.45395947 0.052765056 0.18106367 -0.32577783 0.08169512 0.3956423 0.36107293
-0.018672187 0.04468279 -0.08635954 0.1275277 0.11247671 0.7743739 0.18360639 0.377628

fc2.weight f4 [64, 64]
00000000: 66d1 1abd 4e6d 58bd afde 693d a4cf 793e
00000010: 5bc4 c63e 035e 023c 33f2 0f3e ef93 f2bf
00000020: 6f82 95be 503b 81be 9a59 03bf 8fca 133f
00000030: 3a9c 153e 154b bcbd f5b0 7d3d e1ce 0f3d
00000040: 15e7 c03a 0d0a 193e 2c76 5bbf 11ac 0e3c
00000050: 985f bbbc 8286 53be b0ea adbe 3736 f8be
00000060: 273b 01c0 925c 9c3d 01cc 163c c128 153e
00000070: bf5c 3d3d 6233 d8be fed1 33bf 2dc3 0abe
00000080: 4106 e4bd b64a fe3d a377 a13e c209 4f3e
00000090: faad 48bf de05 94be ff1b c9be e1ea 0fbe
000000a0: 65d5 a43d fdb8 743e f900 e3bc d7a4 0b3e
000000b0: cb9d d13e 753d 053e 800a 1ebd 702c 1f3c
000000c0: a8fe 323d 46a5 883f 639a 87be d9ae 5f3e
000000d0: 8ab9 90be a38c 0e3e 98a7 8bbf eabf e63c
000000e0: 7211 cd3b 6952 4ebe 0419 283e 7d82 a3bc
000000f0: 629a e93d c444 9ebe 9572 933f 7e55 5b3d
00000100: 46cd 433e 48eb 77bc 3cda 413d cefe 53bd
00000110: 0280 4c3d f386 8abd 1235 3a3c b24b c5bd
00000120: fd4c 093d aeff bc3d 282c d1bc 1423 8c3d
00000130: de24 8dbd 1e99 b9be daae c13d 02e4 3ebd
00000140: 32c8 2b3e 542d aa3d 3926 913d a540 b73d
00000150: 7659 243e d4ad 1dbe 421a de3d fbe1 89bd
00000160: 3c91 85bd 7976 b23d 1213 463e 2893 593e
00000170: 33f2 363c b921 853d 756d 2c3d c7d4 41bd
00000180: 01bd b9bc 6832 39be 3c74 8c3e 1338 6dbe
00000190: eb25 533d af09 ce3c 93d3 0f3e 32af ac3e
000001a0: 2f6a c1bd fc8a bebd 8af5 ff3d 7957 2a3d
000001b0: 5f02 a7ba 7377 d23d 105b 05bd c86a 6bbd
000001c0: 1d11 303e 493d c23d 5441 0abd 737f 95bd
000001d0: abb1 b1bd 0bd1 73bd 9e3e c5bd 3886 ad3c
000001e0: 3887 013d d806 823d c941 513c a26b 2cbd
000001f0: 4b28 253e 2673 973e ee19 29be e3ab 0d3e
00000200: b7d3 223e 9c6c 733d d9a6 8e3d aa79 873e
00000210: b468 073f b37a 023d e028 3d3d b7e6 d3bc
00000220: 0f79 743e 12de 51be b75b 933c 33ed 28bd
00000230: 28a1 723e e791 7fbd 6ed8 bb3e 2d48 e1bd
00000240: fe71 fcbd 2271 88bd fba4 15be 14aa 27be
00000250: ea7b 0a3e 4173 0abe 2681 0f3e 1b5b 38be
00000260: 3262 8cbd d30f 9abd 7e7f 7dbd 492f 26be
00000270: f684 bbbe d78c 2f3e fff0 b93e 7d86 2abd
00000280: 26ee 1ebc 9f2e b53e 6648 663d 07a6 5fbf
00000290: 0530 49be 5225 37be ad38 84be e92d 373e
000002a0: 5025 353e c943 8abd f347 3f3c 139d 50be
000002b0: 6beb c8bd b8fa a0ba 398c 113e 7bc5 fabc
000002c0: 275b 03bd a905 573e 11de 9ebd bf81 53be
000002d0: adb9 303e 58b2 f33d b0df 403e a9a5 c0bd
000002e0: 052f f4bd f870 313e 3f7e 343e 9392 30be
000002f0: 6cba 783d 1da4 9e3e e878 e7bc a62e 9a3d
00000300: 8a4c 3fbe b4c4 053e 7015 2bbe 8e61 09c0
00000310: cd73 58be cbdf 1f3f 735d 61bb 35da d7bc
00000320: b410 d7bc ebee dcbd a2a4 febe 4a40 503e
00000330: f22e 7abe f703 54be cdf7 d6bd 4d3a 51be
00000340: bb70 b73d 0af4 c43d ac00 803e 1b0c cbbc
00000350: e382 4fbe 8f61 1bc0 86af 833d 8a93 143e
00000360: 36b3 013e 4665 93be 19fd bb3d c4ba 8f3d
00000370: e156 b0bd 0b51 dd3d a048 9fbe 8f25 8c3d
00000380: 62ec 1cbb 0632 4e3f b3ce cd3c 3a92 87bd
00000390: 3fcd 8e3d c27b a5be 5c1e 373e d362 8b3e
000003a0: 6cd3 05bf 8893 0a3d 166e 88be 4c78 443f
000003b0: d4e0 8abf 3f13 ffbd f460 f6be b796 ed3d
000003c0: 3489 0c3e 5d6e 28bd 2851 eb3e 9591 9ebe
000003d0: 9d4a 72bd 579e aebf 38ba 39bf 95a2 9f3b
000003e0: 2958 a43e 081c 483e 9c0b b4bd 74a2 f73d
000003f0: ea7e 683d 55cb d23c 3989 e23e f687 1abd
-0.037797354 -0.052838616 0.057097133 0.24395615 0.38821682 0.007956984 0.14057235 -1.8951396
-0.29201075 -0.25240564 -0.51308596 0.57730955 0.14610377 -0.09194008 0.061936338 0.035109404
0.0014717305 0.1494524 -0.8572719 0.008708016 -0.022872731 -0.2065678 -0.33968115 -0.48478863
-2.0192354 0.07634844 0.009203912 0.14566328 0.046231028 -0.42226702 -0.702423 -0.13551016
-0.11134005 0.12416594 0.31536588 0.20218566 -0.7839047 -0.28910726 -0.39279172 -0.14054443
0.08048514 0.23898692 -0.027710425 0.136371 0.409407 0.13011725 -0.038584232 0.009715185
0.04369989 1.0675437 -0.26484975 0.21844043 -0.28266555 0.13920836 -1.091052 0.028167684
0.006258183 -0.20148624 0.16415793 -0.019959683 0.11406399 -0.3091184 1.1519343 0.05354833
0.19121274 -0.015131779 0.047327265 -0.051756673 0.049926765 -0.06764021 0.011365192 -0.09633578
0.033520687 0.092284545 -0.02553375 0.06842628 -0.068917975 -0.36249632 0.094571784 -0.046604164
0.16775587 0.08309427 0.070873685 0.08947877 0.16049752 -0.15398341 0.10844852 -0.067325555
-0.06521842 0.08714003 0.19343212 0.21247542 0.011166143 0.06500573 0.042096574 -0.04732206
-0.022673132 -0.18085635 0.2743243 -0.23165922 0.051549833 0.025151102 0.14045553 0.33727413
-0.09444081 -0.09303853 0.12498005 0.041587327 -0.0012741796 0.102766894 -0.032557547 -0.05747488
0.17194028 0.094843455 -0.033753708 -0.072997 -0.086764656 -0.05952553 -0.09631084 0.021182165
0.031623095 0.063489616 0.012772032 -0.042094834 0.16128652 0.2958004 -0.16513798 0.13835101
0.15901075 0.05942975 0.069654174 0.2646001 0.5289414 0.031855296 0.04618156 -0.02586685
0.23874305 -0.2049487 0.017988069 -0.041241836 0.23694289 -0.062395003 0.3668856 -0.110000946
-0.1232643 -0.06662203 -0.14613716 -0.16373473 0.13523832 -0.13520528 0.1401411 -0.18003504
-0.06854667 -0.075225495 -0.061889164 -0.16228975 -0.3662488 0.1714357 0.36316678 -0.041632164
-0.009700334 0.35387132 0.05622139 -0.8736271 -0.19647224 -0.1788533 -0.2582449 0.17888607
0.17690015 -0.0675121 0.011674869 -0.20372419 -0.098105274 -0.0012281751 0.14213647 -0.030611744
-0.03206935 0.20998253 -0.077571996 -0.20654963 0.1725833 0.11899251 0.1883533 -0.09406597
-0.11923031 0.1732825 0.17626284 -0.17243414 0.06072466 0.30984583 -0.028255895 0.07528429
-0.18681541 0.13063318 -0.16707397 -2.1465793 -0.21137924 0.62450856 -0.0034387975 -0.026349166
-0.026253082 -0.107877575 -0.4973498 0.20337024 -0.2443197 -0.20704637 -0.10496483 -0.20432396
0.089570485 0.09616859 0.25000513 -0.024786046 -0.20264773 -2.4278295 0.06429963 0.14509407
0.1266602 -0.28788203 0.09179134 0.070180446 -0.08610321 0.10806473 -0.31110096 0.06843101
-0.0023944606 0.8054508 0.025122976 -0.066196874 0.06972741 -0.32320982 0.17882675 0.27223834
-0.5227573 0.033832103 -0.2664649 0.7674606 -1.0849862 -0.12454843 -0.48120844 0.11601012
0.13724214 -0.041120876 0.45960355 -0.30970445 -0.059153188 -1.3642071 -0.7254977 0.004871676
0.3209851 0.19541943 -0.08791277 0.12091532 0.05676166 0.025731722 0.44245318 -0.03772732

fc2.bias f4 [64]
00000000: baa8 a93d bd3f 713e 0703 dbbd b08c 133e
00000010: 3dfa 7cbd cd68 d8bd 87a3 f13e 1f0b 15bc
00000020: dd6a 9e3c bb0c 75be 59c2 523e bede 403e
00000030: ddf3 853c 805c 163d bf65 f7bd 8a45 bb3d
00000040: 8fa0 69bc 564a 6b3c 470b 52be 00a8 833d
00000050: 4565 d93e 0496 273d b5ee a83e f52c 75bd
00000060: 8dab be3b fd5a 28be b214 3c3d 7239 e93e
00000070: 035f 80bb 66d3 ce3e b470 0dbd e4d7 c0bd
00000080: 912a 86be 9227 a5be 5a6b 263d 66ed 9b3e
00000090: 520b c83e c618 7c3e 5ddf 003e 1bdf 90bd
000000a0: fee0 4f3d e400 343d 0430 a63d 640d 573e
000000b0: fcd1 873d 4afd 0b3e 13d6 aa3d 687d 923e
000000c0: 77c9 713d d5f1 31be c53c a93e a325 f4bd
000000d0: c288 0f3e ffff 5e3e d9fe 4dbe 264f 8e3d
000000e0: 38c3 0bbe 3de9 383e 9760 a4bd c65d fa3d
000000f0: 76ef 89bd 1025 a83e fbfb 013e 096f 6c3d
0.08284135 0.2355947 -0.10693937 0.14409137 -0.061762083 -0.10566864 0.47195074 -0.00909689
0.019338066 -0.23930638 0.2058195 0.1883497 0.016351635 0.03670931 -0.120799534 0.09144123
-0.014259472 0.014360985 -0.20512114 0.06428528 0.42460075 0.04091455 0.3299462 -0.059857327
0.0058187903 -0.1644096 0.045918174 0.4555164 -0.0039175763 0.4039566 -0.03453131 -0.09416178
-0.2620435 -0.32256752 0.040629722 0.30454558 0.39071137 0.24618825 0.12585206 -0.07073804
0.05075168 0.043946162 0.08114627 0.21001202 0.06631848 0.13670841 0.08341613 0.28611302
0.059030022 -0.17377408 0.33054176 -0.11921241 0.14017013 0.21777342 -0.20116748 0.0694869
-0.13648689 0.18057723 -0.080262356 0.12224917 -0.06735127 0.32840776 0.12693779 0.05772308

fc3.weight f4 [64, 64]
00000000: a9c7 1dbe ee42 193d 8120 8e3e c2e4 063b
00000010: 127c 80bd 97e0 823d c42e f3bd edbd b2bc
00000020: 13cd 453d 8440 00be 4fa3 94be 5f9a c7bd
00000030: 2c07 eb3d a4a3 cf3c 11c8 88bf d842 98bd
00000040: 2f78 7b3c 397c e1be 893e 543d 6cdb 9f3e
00000050: 387a cc3d 5fe3 64bf 0806 c83d 1429 3e3d
00000060: 84d0 a53e 4ee9 2c3e 6927 debd 8d24 29be
00000070: 92ff b5bf bfce 4c3e ac8d 56bd 6c8f 893d
00000080: 215b 3abe a7b4 333e 78fd f8bc fea5 55bc
00000090: 5eab d93d a349 f03d 94c1 5bbe 2e73 3abc
000000a0: 3844 28be edd7 56bf 80dd e53d 7533 583e
000000b0: 7b7e b0bd be56 333e e6d2 9cbe 05ff 203e
000000c0: 65b5 92bf 8171 8abe 51f4 51be 0550 aebd
000000d0: bcf6 6a3f b98b 9cbe f23b a13e a364 20bd
000000e0: 4b89 80bd d287 243e 9c7b b83d 5c3b 223e
000000f0: 37aa 7a3e 4f49 07bd 85b0 debe 9c48 583e
00000100: 21c1 fabe 865b f83d 07c4 a43e e179 6f3d
00000110: d443 bcbd ae01 803e 7cb8 d4bd a80c 98bd
00000120: 5f4e 723d 9369 31be 5b1c 68be b3cb b2bc
00000130: d762 9f3d 7b57 a13d 6476 69bf a04a f6bd
00000140: 6433 b73e e946 16bf ad52 1fbe 74e0 5e3e
00000150: 70d1 083e aea8 5ebf bfea 08bd ffe1 a93d
00000160: 8278 d63e 2e2e 733e 909b f63c fb4f 08bd
00000170: 50e7 d5bf dde7 663d 903c 5c3d 1f1f ee3d
00000180: 3fc6 6ebe 6a73 063e 21b7 723e 6ff3 603e
00000190: 9702 a83d 7b6f 753e 85ba b4be e5fd bebd
000001a0: 47c7 593e 0e45 403e d135 c13a 53ab 1c3e
000001b0: 1a73 74bc 2466 26be ffff c5bd 025e 2b3d
000001c0: c9c0 e43d 8798 113f 054b 81be 62cc 3fbd
000001d0: 1311 343f 7306 3cbf 4263 433e 0377 db3d
000001e0: e22e ec3c b3cb 0e3e cb68 663d 3e20 8ebd
000001f0: b07e fd3c 511e 0b3d bbfa 2fbf 9030 4abe
00000200: a0f1 8cbc b8b5 153d f67e 193e a479 d2bc
00000210: dc18 36bd a2c8 463d 5a58 3f3d b41c c3bd
00000220: 137f afbb 932a 96bd 47c0 34be f092 463e
00000230: 264d 88bd ae40 6fbd 2a9d 11be b430 b93c
00000240: 2f1a febc fd34 11be 570e 73bd eee2 813d
00000250: 6423 0e3d e677 53bd fa22 933d ebde 473d
00000260: 04d1 8c3d 798e a8be ba1f 5cbc 33fe b73d
00000270: 6c9a 1bbe bc50 29bd c0ca 943c 6477 2dbc
00000280: 00d7 95be f92c 3e3b 336a 87be 72fe ac3c
00000290: 9a83 093d 01da 293e 6446 a0bd cfba 693d
000002a0: 7b56 aebd 7d38 dbbe 05c7 db3d 34d9 b83d
000002b0: bac6 d7bd 7ac1 e03b 0eb0 18bd 5be3 543e
000002c0: dc84 82bf 2bfd 54be 388b eb3d 17fe 8cbd
000002d0: 374b 243d 68dc 9bbc 4654 4a3e 76d3 babd
000002e0: fb92 cebd 0b1a c43d 0992 55bd c8de 323e
000002f0: 409a b13e 7270 fe3d 28f6 763d 452c 3e3e
00000300: 56e7 86bd 91a2 f83a 2373 b5be 7557 cabd
00000310: 5ef3 9a3d 013f 003e 55bb c73d 08d9 aa3d
00000320: d980 2fbb fe2d c23d 4e39 a93d 1d32 0e3b
00000330: 703e 57bd 092e 003e ae7a 1a3d 4b7e dabd
00000340: bcb1 40be 3175 9abc 4ddc 48bd 9d36 6e3d
00000350: a365 c23d fd43 003d 1894 833d 82df cf3d
00000360: cb4c 2e3d db82 98bc 8340 9a3c 3366 9c3b
00000370: e749 923e 6522 023d 40ab 0e3d 0e53 ed3a
00000380: 6df8 e8bc 505b 48bd 130c a93e cf62 2bbe
00000390: 0e43 cb3d 35e0 82bd ac67 c83d 2a4f 2ebc
000003a0: 0bc2 d2bc 78ca cdbd 4267 a33d 8283 1f3c
000003b0: 1250 033e ee50 c83c 37e5 11bd da97 f2bb
000003c0: cd18 b4bc cf17 8dbe fdb7 203e f870 a6bd
000003d0: bd5f 56be c0ec 1e3e 2996 653c d0fd e83b
000003e0: b4ad b83d a5e7 863d 246a 4d3c a438 5fbe
000003f0: 8ed2 4abf 0f71 f2bc cb4a 37bd e2fa 273e
-0.15408196 0.037417345 0.27759174 0.0020583128 -0.062736645 0.06390493 -0.11874154 -0.02181908
0.048291277 -0.12524611 -0.29030845 -0.09746241 0.11475977 0.025346585 -1.0686055 -0.074346244
0.015348478 -0.44040087 0.05181745 0.31222093 0.09984249 -0.8940944 0.09766775 0.046425894
0.32385647 0.16885874 -0.10847361 -0.1651785 -1.4218619 0.20000742 -0.052381203 0.06716809
-0.18198825 0.17549382 -0.0303943 -0.013040064 0.10628389 0.11732795 -0.21460563 -0.01138
-0.16432273 -0.83923227 0.112238884 0.2111338 -0.08617874 0.17513558 -0.30629653 0.15722282
-1.1461607 -0.27039722 -0.20503356 -0.08511356 0.91782737 -0.3057535 0.31491047 -0.039158475
-0.062761866 0.16067436 0.090079516 0.15842956 0.24478994 -0.033028897 -0.4349405 0.21121448
-0.4897547 0.12126832 0.32180807 0.058465842 -0.09192625 0.25001281 -0.1038675 -0.07424289
0.05915677 -0.1732543 -0.22667067 -0.021825647 0.07782524 0.07878014 -0.91196275 -0.12025952
0.35781395 -0.5870195 -0.15558882 0.2176531 0.13361144 -0.86976135 -0.033426996 0.082950585
0.41888815 0.23748085 0.030103475 -0.0332794 -1.6711216 0.056373466 0.053768694 0.1162703
-0.23317812 0.13129964 0.2370267 0.21967863 0.08203619 0.23968308 -0.35298553 -0.0932577
0.21267425 0.18776342 0.001474077 0.1529973 -0.0149200205 -0.16249901 -0.09667968 0.0418377
0.11169583 0.56873363 -0.25252548 -0.046825774 0.70338553 -0.7344734 0.19080833 0.10716059
0.02883095 0.13944893 0.056252282 -0.069397435 0.030944198 0.03396446 -0.6874196 -0.19745088
-0.01720506 0.036550254 0.14989838 -0.025692768 -0.0444573 0.048531182 0.046715118 -0.09526959
-0.0053557246 -0.07332339 -0.17651473 0.1939199 -0.0665534 -0.058411293 -0.1422011 0.022606231
-0.031018345 -0.1418037 -0.059339847 0.063421115 0.03470172 -0.051628016 0.071844056 0.048796576
0.06875804 -0.32921198 -0.013435299 0.089840315 -0.15195626 -0.04133676 0.018163085 -0.010587547
-0.29265594 0.0029018505 -0.2644821 0.021117423 0.03357277 0.16587068 -0.07825926 0.05706292
-0.085125886 -0.42816535 0.10731319 0.09025803 -0.10535951 0.0068590017 -0.037277274 0.20789854
-1.0196795 -0.20799701 0.11501163 -0.06884401 0.040110793 -0.019025996 0.1975871 -0.09122364
-0.10086628 0.0957528 -0.052141223 0.17467797 0.34687996 0.12423791 0.060293347 0.18571575
-0.065870926 0.0018969347 -0.35439405 -0.09879962 0.0756595 0.12524034 0.097525276 0.08342177
-0.002677968 0.094814286 0.08262883 0.002169735 -0.05254978 0.12517561 0.037714653 -0.1066862
-0.188178 -0.01885471 -0.04903822 0.058157552 0.09492042 0.03131484 0.06424731 0.101500526
0.042553704 -0.018617084 0.01882959 0.0047729253 0.28572008 0.031771082 0.034831285 0.0018106417
-0.028438771 -0.048915207 0.33017024 -0.16736911 0.09924899 -0.0639042 0.09785399 -0.010638991
-0.025727293 -0.100483835 0.07978679 0.009735944 0.12823513 0.024452653 -0.035618987 -0.007403356
-0.021984482 -0.27557227 0.15695186 -0.08127016 -0.20934959 0.1552 0.014012852 0.007110335
0.09017506 0.065871514 0.012537513 -0.2179895 -0.7922753 -0.029594926 -0.044749063 0.16404298

fc3.bias f4 [64]
00000000: abf8 b23d c1a4 133d 7027 723d 97f0 c93d
00000010: 1c4c 643c 62a2 0abd b098 adbd e291 853d
00000020: c1da 56bd 177a 973e 6ce5 9a3e c3c6 febd
00000030: d2e1 03be d2e8 4fbd 3ad2 01be 3d00 a03e
00000040: d9cf 733d 0edb 7a3e 7817 d23d 799c ba3e
00000050: 1d39 8f3e 6aac 36be 4066 93bd f193 023c
00000060: ff4e 42bd 594a f3bd 8215 e83c 7abf 2ebe
00000070: c0e7 d03d a8c0 74bd f522 1abe 24aa 8d3d
00000080: d363 963d 742c 963e 7843 ccbd a928 953d
00000090: 372f 3e3e 7988 613d ed03 43be 9042 3a3d
000000a0: 7e97 eabb 1fbd fdbd ea42 c6bd ae07 483d
000000b0: c297 0b3f 405e 7fbd d695 01be 34b7 36bc
000000c0: 8cc9 ccbd f0e5 dabd 7f4b babd 96e7 d13e
000000d0: 9546 c03d 19c3 573c fb28 a3bd b5d0 c23d
000000e0: 8608 f6bd aa87 103d 3117 543d 59d6 bebd
000000f0: 3334 963e ac06 4ebc 1232 5cbd 5c89 65bd
0.08738836 0.036045793 0.05911964 0.09860342 0.0139341615 -0.033846267 -0.084763885 0.065219656
-0.052454714 0.29585335 0.3025316 -0.124402545 -0.12879112 -0.050759144 -0.12677851 0.31250182
0.05952439 0.24497625 0.102583826 0.36447504 0.2797326 -0.17839208 -0.07197237 0.007969842
-0.047438618 -0.11879415 0.028330568 -0.1706523 0.10200453 -0.059754044 -0.15052398 0.069172174
0.07343259 0.2933079 -0.09973806 0.07283146 0.18572699 0.05506179 -0.19044466 0.045473635
-0.0071591726 -0.123895876 -0.096807316 0.04883545 0.5452844 -0.062345743 -0.12654814 -0.0111520775
-0.099993795 -0.10688388 -0.09096431 0.40997 0.093884625 0.0131690735 -0.07966801 0.09512464
-0.120133445 0.03528563 0.05177993 -0.09318227 0.293367 -0.012574833 -0.05375869 -0.0560392

q_out.weight f4 [1, 64]
00000000: 7ae2 dbbe b886 95be a51f d3bd 7d3a ba3d
00000010: 4c3e 0cbe 1d86 9e3f 1249 b1be 913d adbe
00000020: 4d73 8ebe 8cc5 e33e 5195 1b3f e203 c9be
00000030: 1ad3 9abd cb8d 9a3e 0dfa 0abe 86e0 3f3f
00000040: 89c4 30be 95b9 e33e 51b5 0c3f 6920 823f
00000050: 3a59 a93f d43c 57bf 4f9f c43e ced8 743e
00000060: 7f1e b3bf da25 eebd 6651 c3be debb 683c
00000070: 0e09 cd3e 8ce4 5a3d 76f6 51bd 2bb9 8eba
00000080: 7ef9 51be 2c0a a23e ea90 813b ecf8 363f
00000090: d08f 483f 48d8 b8bc 9833 603f e80a 04be
000000a0: e9db 37bf 85bc 963d c0e3 9b3e c335 c03e
000000b0: 7583 973f b3d1 14bf 07e3 8e3c 16e0 b23e
000000c0: f49a f63c 66d5 f2bd 2e72 933b 2f90 fd3e
000000d0: db1c 483e c773 c4be d26a 11be 64a5 67be
000000e0: f563 953e e342 d6bd 8016 89bf fb47 3cbe
000000f0: d0f0 023f bed8 36bd 209d 6f3e 0126 6b3e
-0.42946225 -0.29204345 -0.1030877 0.09093187 -0.1369564 1.2384678 -0.3462606 -0.33836034
-0.27822343 0.44486654 0.60774714 -0.39260775 -0.07559796 0.30186304 -0.1357195 0.7495197
-0.17262472 0.44477525 0.54964167 1.0166141 1.3230355 -0.8407719 0.38402793 0.2391083
-1.3993682 -0.11628313 -0.3814804 0.014204947 0.4004597 0.053440616 -0.051260434 -0.0010888925
-0.2050533 0.31648386 0.0039540427 0.71473575 0.7834444 -0.022564068 0.87578726 -0.12894785
-0.7181993 0.07360176 0.30447197 0.37541017 1.1836993 -0.58132476 0.01744224 0.3493659
0.030103184 -0.11857109 0.0044996953 0.49524066 0.19542257 -0.3836958 -0.14200905 -0.22621685
0.29177824 -0.104619764 -1.0709991 -0.18386833 0.511487 -0.044640295 0.23399782 0.22963716
