model_flock/flock/agent_0/17_actor_params.pkl (torch, 39031 bytes, 8 tensors)

fc1.weight f4 [64, 8]
0.108352825 -0.23504171 -0.16076802 -0.27329138 -0.015870934 0.05628566 0.3960958 0.2627593
0.10422285 -0.17516376 -0.17062666 -0.055114757 0.11020596 -0.07169684 0.2614057 -0.16881071
-0.03730326 -0.023866756 -0.33879426 -0.2390121 -0.23021188 0.36099124 0.59442824 0.08314465
-0.16931595 -0.26283142 -0.31206352 0.23106135 0.07516116 -0.29556745 0.083408706 -0.19022207
0.016992295 -0.11132716 -0.21167292 0.34345052 -0.020457694 -0.051621515 0.1614563 -0.3933894
0.5635798 0.07862031 0.19851239 -0.07107358 -0.2659206 0.38787207 0.34088752 -0.083170496
-0.37111852 -0.06452636 0.24860695 0.16119426 -0.0011359233 0.26167092 0.03053846 0.20723075
0.34281275 -0.11728059 -0.1744188 -0.2503321 -0.07988972 0.25741825 0.17052098 0.13483354
0.36525545 -0.059123315 -0.035405714 0.06521393 -0.293481 0.29970035 0.4164612 0.31526345
0.06134721 0.5359999 -0.3503884 0.123004116 -0.101485796 -0.295191 -0.47047952 -0.2959594
0.06294878 -0.23438539 -0.28516707 -0.13292174 0.24562976 -0.1948708 -0.26317328 0.19251613
0.36460018 -0.16474593 0.16572958 -0.23541059 -0.304923 -0.04724496 0.28311256 -0.20690654
0.32447663 0.41741344 -0.026024686 -0.34742308 -0.31976718 0.29724002 -0.04799093 -0.69032466
-0.11169308 -0.042560652 -0.20508957 0.46826884 0.24343348 -0.4617164 0.33069426 0.5560246
-0.46952087 0.35971555 0.15207468 -0.21944179 0.05657512 -0.13979422 -0.09834817 0.5213769
-0.10024299 0.06135326 0.25587958 0.24822623 0.2219693 -0.28950366 -0.30643547 0.25359946
-0.22449823 -0.12190338 0.28125933 -0.080462575 -0.1452669 0.32090616 -0.35397664 -0.1983874
-0.12038709 0.19896209 -0.24124888 0.23958257 0.28880796 0.003533496 0.2028449 -0.01535826
-0.34343538 0.22909 0.2783814 -0.22064184 0.3817745 0.1768483 -0.15778053 -0.056573946
-0.071528904 0.1563131 -0.0050629736 0.3944063 0.08180303 -0.25548366 -0.62099457 -0.047156867
-0.16523734 -0.12541984 0.27389765 0.15807423 -0.3033826 -0.38756692 -0.5270921 0.073140115
-0.36131987 -0.116219334 0.062241044 -0.051928386 0.04026358 -0.36488023 0.38375947 0.1578594
-0.21334402 0.028464846 -0.12631553 -0.2227777 -0.2020039 0.26734653 0.30667207 -0.13729905
-0.09929207 -0.094123535 0.09807232 -0.33201307 0.3524779 0.09461079 0.3045375 -0.23748198
0.008114989 0.11696463 0.117297 -0.33943048 0.0073173023 0.017537503 0.35661393 0.2001865
-0.32057244 0.3621658 -0.2267646 0.20185037 0.24097075 0.1859315 -0.15238506 -0.18173896
-0.44274938 0.14901112 0.2927642 -0.061751243 0.14828196 0.018076552 0.25638345 0.3692377
0.17597434 -0.19871058 -0.11390226 -0.10130841 -0.39429876 0.1969816 -0.036590714 -0.0035691105
-0.086646274 0.0054802657 0.26485986 -0.06522185 0.089322425 -0.073723756 0.42400187 0.27154583
-0.30957085 -0.3747982 0.11099888 -0.18732376 0.38341057 0.08903358 -0.11194562 0.26004034
-0.23931415 0.102700934 0.17151196 0.2812605 0.34056795 0.32273912 -0.15050149 0.4447847
-0.3813301 -0.43812698 -0.08734723 -0.36451113 0.19633123 0.34878057 0.1430674 -0.07468825
00000000: 16e8 dd3d c6ae 70be 5fa0 24be d9ec 8bbe
00000010: c303 82bc cb8b 663d 12cd ca3e 6388 863e
00000020: ca72 d53d 215e 33be c1b8 2ebe 03c0 61bd
00000030: aab3 e13d cbd5 92bd f8d6 853e b7dc 2cbe
00000040: 4ecb 18bd 3784 c3bc 7176 adbe 97bf 74be
00000050: aabc 6bbe d8d3 b83e 732c 183f be47 aa3d
00000060: 2961 2dbe d791 86be cac6 9fbe 599b 6c3e
00000070: 18ee 993d 9e54 97be 2fd2 aa3d 93c9 42be
00000080: 6d33 8b3c 7eff e3bd c9c0 58be bfd8 af3e
00000090: e596 a7bc 1571 53bd cd54 253e 566a c9be
000000a0: c446 103f af03 a13d d546 4b3e 068f 91bd
000000b0: bf26 88be 2b97 c63e cf88 ae3e 4b55 aabd
000000c0: 3f03 bebe 6526 84bd d292 7e3e 1c10 253e
000000d0: 43e3 94ba bbf9 853e cb2b fa3c 4c34 543e
000000e0: 2785 af3e ce30 f0bd d89a 32be 872b 80be
000000f0: 399d a3bd 53cc 833e 0d9d 2e3e ce11 0a3e
00000100: c302 bb3e 4a2b 72bd 9505 11bd e28e 853d
00000110: 2443 96be 5372 993e 673a d53e 366a a13e
00000120: 3647 7b3d 4a37 093f 1c66 b3be 95e9 fb3d
00000130: c9d7 cfbd 4623 97be b1e2 f0be fe87 97be
00000140: 4aeb 803d b902 70be 6b01 92be a31c 08be
00000150: 5e86 7b3e 368c 47be a6be 86be f322 453e
00000160: e0ac ba3e 28b3 28be 04b5 293e 790f 71be
00000170: de1e 9cbe ee83 41bd 21f4 903e 4fdf 53be
00000180: cd21 a63e 37b7 d53e b931 d5bc 70e1 b1be
00000190: 86b8 a3be d82f 983e 2392 44bd 1eb9 30bf
000001a0: 57bf e4bd 1454 2ebd 0003 52be efc0 ef3e
000001b0: a046 793e 1866 ecbe c250 a93e a157 0e3f
000001c0: 0a65 f0be a32c b83e 77b9 1b3e 59b5 60be
000001d0: 50bb 673d 3726 0fbe c46a c9bd f578 053f
000001e0: 324c cdbd 8e4d 7b3d a602 833e 042f 7e3e
000001f0: ec4b 633e d339 94be 1ce5 9cbe cad7 813e
00000200: dde2 65be 7ba8 f9bd 3901 903e 90c9 a4bd
00000210: d9c0 14be d04d a43e 6d3c b5be 1126 4bbe
00000220: 828d f6bd b8bc 4b3e f209 77be 2255 753e
00000230: a3de 933e 3a92 673b 93b6 4f3e 36a1 7bbc
00000240: c3d6 afbe 9296 6a3e 0288 8e3e efef 61be
00000250: f277 c33e b917 353e 3891 21be 15ba 67bd
00000260: bf7d 92bd 8b10 203e 4de7 a5bb 9fef c93e
00000270: 5988 a73d c1ce 82be 80f9 1ebf 8f27 41bd
00000280: fa33 29be 0f6e 00be 503c 8c3e 36de 213e
00000290: f754 9bbe 2c6f c6be 82ef 06bf 7cca 953d
000002a0: ebfe b8be 6704 eebd 77f0 7e3d dcb2 54bd
000002b0: 6ceb 243d 95d1 babe 1f7c c43e e5a5 213e
000002c0: db76 5abe 1c2f e93c dc58 01be d61f 64be
000002d0: 1cda 4ebe a5e1 883e 1f04 9d3e 1f98 0cbe
000002e0: a459 cbbd d7c3 c0bd 24da c83d 9efd a9be
000002f0: fc77 b43e 4dc3 c13d 57ec 9b3e 7a2e 73be
00000300: bbf4 043c 278b ef3d 6939 f03d d5c9 adbe
00000310: fbc5 ef3b cfaa 8f3c 1a96 b63e b1fd 4c3e
00000320: 1222 a4be cc6d b93e fb34 68be ddb1 4e3e
00000330: 09c1 763e d464 3e3e d40a 1cbe c719 3abe
00000340: 0cb0 e2be 5f96 183e 30e5 953e dfee 7cbd
00000350: 3ad7 173e 4715 943c b144 833e b90c bd3e
00000360: 9e32 343e c97a 4bbe 9745 e9bd c97a cfbd
00000370: 87e1 c9be 8bb5 493e 25e0 15bd bde7 69bb
00000380: 9a73 b1bd cd93 b33b b69b 873e 0993 85bd
00000390: adee b63d 7bfc 96bd c616 d93e 0e08 8b3e
000003a0: 1280 9ebe 8de5 bfbe 6153 e33d cdd1 3fbe
000003b0: 644e c43e 3d57 b63d bf43 e5bd 0224 853e
000003c0: c50e 75be de54 d23d d5a0 2f3e 6001 903e
000003d0: ec5e ae3e 103e a53e 101d 1abe d2ba e33e
000003e0: b33d c3be 2e52 e0be 1be3 b2bd 34a1 babe
000003f0: 0e0b 493e 5e93 b23e 4380 123e 27f6 98bd

fc1.bias f4 [64]
0.19833861 0.5034285 0.38862604 0.07821575 0.3152956 0.2747577 -0.29032093 0.009051599
0.08475756 -0.14457266 0.09514537 -0.0019424717 -0.2597094 0.20054571 0.20160955 -0.14663555
0.005139728 0.2570985 0.048026614 0.13064101 -0.1807175 -0.31556392 0.0668768 -0.0057124537
0.42053598 0.2869324 -0.27864656 0.30900496 0.028793655 0.06051137 -0.050195612 0.041674957
0.2650845 -0.0021715602 0.32625833 0.038929146 0.18274179 0.09143256 0.35900202 0.16279592
0.107652456 -0.34358865 0.3840012 -0.14189805 0.29199317 0.21176524 0.22252196 -0.15285875
-0.3049484 -0.03482742 0.1594984 0.012281585 -0.13304348 -0.3616105 -0.09292395 0.32847857
0.13881835 -0.0517551 -0.31012335 -0.02464492 -0.22639401 -0.095214754 -0.41359782 0.47865325
00000000: 4719 4b3e b1e0 003f fef9 c63e 942f a03d
00000010: 6d6e a13e 0bad 8c3e f2a4 94be 284d 143c
00000020: 5f95 ad3d db0a 14be 93db c23d 899a feba
00000030: a1f8 84be db5b 4d3e bc72 4e3e a127 16be
00000040: 2a6b a83b 6aa2 833e 8eb7 443d c2c6 053e
00000050: 020e 39be 9891 a1be b4f6 883d 892f bbbb
00000060: 7e50 d73e cee8 923e c3aa 8ebe e635 9e3e
00000070: ace0 eb3c c5da 773d ea99 4dbd 5cb3 2a3d
00000080: 28b9 873e bc50 0ebb 550b a73e 2b74 1f3d
00000090: aa20 3b3e fe40 bb3d 1dcf b73e f9b3 263e
000000a0: e478 dc3d daea afbe ce9b c43e b94d 11be
000000b0: 2180 953e fdd8 583e ccdc 633e 0187 1cbe
000000c0: 3222 9cbe 32a7 0ebd 8c53 233e b338 493c
000000d0: 8d3c 08be 0325 b9be e94e bebd 582e a83e
000000e0: 6626 0e3e 28fd 53bd 7dc8 9ebe 25e4 c9bc
000000f0: d5d3 67be f4ff c2bd 18c3 d3be 0a12 f53e

fc2.weight f4 [64, 64]
0.01723358 0.13574588 -0.05439509 -0.036164626 0.041961342 0.037562232 0.19074786 0.04461211
0.06836176 -0.12818976 0.018290304 -0.16698588 -0.17875054 -0.034867886 -0.0007251274 -0.021049857
-0.06390152 -0.017424183 0.110579945 -0.09922366 0.045876462 0.057529956 0.098557204 0.1336157
0.029780807 0.067535914 0.12542358 0.12735437 -0.0980134 0.09812073 0.13968249 0.017465774
0.06816986 -0.040694635 -0.0029251776 -0.12517528 -0.003288642 0.00675026 0.020269386 -0.01952766
0.10539769 -0.032316834 0.10069906 -0.039092623 -0.0732142 -0.295028 -0.115972914 0.0150934905
-0.11314351 0.021233268 -0.105504796 0.1669328 -0.14593944 -0.15958036 0.11169302 -0.16807358
-0.057996225 0.09276807 0.106306024 -0.10952449 0.100934766 0.118420854 0.10219808 0.12891132
0.060449 0.0025004207 0.026146509 -0.049974363 -0.09756687 -0.011931286 0.14710543 0.010840673
-0.034939397 0.00054303795 -0.021882147 0.04508572 -0.10322453 -0.067958884 0.09213893 -0.0030590156
0.076462224 -0.007440494 0.100852855 0.018458137 0.06590223 -0.081510834 -0.15318178 -0.059328686
0.094663806 -0.011841888 -0.027454805 0.07646569 -0.09937772 -0.055130385 -0.068895094 -0.066643655
0.12520416 -0.035610538 0.0192187 -0.03226928 0.12053839 0.26706904 0.026928859 -0.029084545
-0.0531798 0.1701367 -0.16438663 -0.026578326 0.07451221 0.01878345 0.06307201 0.05718776
0.099931836 0.013044863 0.018808363 0.027461216 0.06547677 0.2098855 0.09326244 0.04678457
0.08436145 0.0152886575 0.0621584 0.12115713 0.03916278 -0.10615316 0.0024875756 -0.027626894
-0.098264314 0.066404566 0.05542812 -0.03566346 0.0404033 -0.17940648 -0.060067914 -0.0694828
0.20563063 -0.11562895 0.022316992 -0.09345319 0.2588883 0.07357914 -0.0029476068 0.10633897
0.03585929 0.039517317 -0.13834189 -0.03939996 0.20157687 0.14691244 0.07547682 -0.1806909
-0.1642476 0.07410236 -0.0981275 0.037377972 0.037604082 0.011852178 -0.08300599 -0.06224443
-0.032605805 -0.06422476 0.19280966 0.19947387 0.039311808 -0.092583634 0.18636501 0.2106335
0.07904749 0.03611874 0.048926152 0.048829734 0.005520685 -0.07897825 0.14888844 0.07100518
-0.15369786 0.10476877 0.06920174 -0.032557268 -0.110507414 -0.17247857 -0.0040520225 0.05475623
0.091722965 -0.04512148 -0.0033373686 0.060452208 -0.139832 0.0050173886 0.0565222 -0.070509575
-0.10437634 0.0013041088 -0.07851173 -0.07497756 0.08723442 -0.009927533 -0.02518405 -0.033822678
0.027225092 0.15362346 -0.013888515 0.11677769 0.03785122 -0.034683518 0.07231438 -0.050591048
0.004002458 -0.1403669 -0.009484328 0.062263317 0.0126769245 -0.14504893 0.03132654 0.035318755
0.050182145 0.04410533 -0.088754185 0.15587863 0.06547068 -0.0838549 0.006916863 0.010350542
0.06935538 0.06929132 0.08165886 0.18384172 -0.0729058 0.17249669 -0.10863552 0.04654808
0.12293103 -0.09912947 0.14838178 0.07725448 0.020598296 -0.092960104 0.10898237 0.077129684
0.11331518 0.050315425 -0.038166516 0.2656462 -0.1527488 0.016362537 -0.032534596 0.0320134
-0.06351953 -0.041681282 0.1375326 -0.029674128 -0.15287809 -0.10443908 0.019708302 0.15582788
00000000: 702d 8d3c f800 0b3e 63cd 5ebd 5c21 14bd
00000010: a8df 2b3d dbda 193d 6853 433e 30bb 363d
00000020: 4001 8c3d 2d44 03be 8cd5 953c 59fe 2abe
00000030: 620a 37be a1d1 0ebd 7a16 3eba c070 acbc
00000040: cdde 82bd 29bd 8ebc bd77 e23d c635 cbbd
00000050: f5e8 3b3d 88a4 6b3d 5cd8 c93d 8ed2 083e
00000060: e1f6 f33c 4550 8a3d 0a6f 003e 2f69 023e
00000070: 40bb c8bd 85f3 c83d ed08 0f3e 6214 8f3c
00000080: a49c 8b3d 6baf 26bd 56b4 3fbb f32d 00be
00000090: 4286 57bb 4931 dd3b fc0b a63c 79f8 9fbc
000000a0: beda d73d a85e 04bd 4f3b ce3d 961f 20bd
000000b0: 54f1 95bd e90d 97be 3583 edbd b04a 773c
000000c0: c9b7 e7bd 64f1 ad3c e612 d8bd 6ff0 2a3e
000000d0: 2671 15be 0969 23be 4fbf e43d 7b1b 2cbe
000000e0: 738d 6dbd 30fd bd3d f9b6 d93d 604e e0bd
000000f0: e3b6 ce3d a286 f23d 3a4d d13d 5401 043e
00000100: 5f99 773d 19de 233b 3431 d63c ebb1 4cbd
00000110: 24d1 c7bd 717b 43bc cea2 163e 149d 313c
00000120: 9d1c 0fbd a95a 0e3a 3042 b3bc ceab 383d
00000130: 6267 d3bd 072e 8bbd 56b3 bc3d c479 48bb
00000140: 3a98 9c3d 63cf f3bb f18b ce3d 8535 973c
00000150: c0f7 863d 27ef a6bd afdb 1cbe a302 73bd
00000160: 19df c13d 7a04 42bc e6e8 e0bc 0b9a 9c3d
00000170: 8c86 cbbd 66d0 61bd df18 8dbd 787c 88bd
00000180: 8535 003e 5bdc 11bd 8970 9d3c cb2c 04bd
00000190: d5dc f63d 46bd 883e e999 dc3c b642 eebc
000001a0: 10d3 59bd 5138 2e3e f854 28be caba d9bc
000001b0: dc99 983d c0df 993c e62b 813d b63d 6a3d
000001c0: 10a9 cc3d 1fba 553c ff13 9a3c 58f6 e03c
000001d0: af18 863d 39ec 563e 6100 bf3d 2da1 3f3d
000001e0: b2c5 ac3d 477d 7a3c ce99 7e3d 3b21 f83d
000001f0: 2769 203d d466 d9bd 9806 233b cc51 e2bc
00000200: cd3e c9bd 1eff 873d 9908 633d d913 12bd
00000210: ee7d 253d 55b6 37be c609 76bd 004d 8ebd
00000220: d690 523e dfce ecbd 20d2 b63c 6364 bfbd
00000230: 028d 843e a9b0 963d a32c 41bb 3fc8 d93d
00000240: 31e1 123d e9dc 213d 7fa9 0dbe da61 21bd
00000250: 2b6a 4e3e 3770 163e 9793 9a3d 0907 39be
00000260: 8630 28be fac2 973d 12f7 c8bd a519 193d
00000270: bd06 1a3d a32f 423c 0bff a9bd 04f4 7ebd
00000280: aa8d 05bd 4588 83bd e56f 453e e142 4c3e
00000290: 6b05 213d 7d9c bdbd 78d6 3e3e 4fb0 573e
000002a0: a7e3 a13d 3ef1 133d ca66 483d b001 483d
000002b0: dde6 b43b 59bf a1bd 3676 183e 2a6b 913d
000002c0: f962 1dbe 0291 d63d a4b9 8d3d c55a 05bd
000002d0: b651 e2bd 399e 30be d4c6 84bb 1248 603d
000002e0: 40d9 bb3d 4dd1 38bd c1b7 5abb bc9c 773d
000002f0: 1f30 0fbe e868 a43b d383 673d 5367 90bd
00000300: 43c3 d5bd a1ee aa3a c2ca a0bd d68d 99bd
00000310: f6a7 b23d 17a7 22bc c84e cebc a689 0abd
00000320: 2807 df3c 784f 1d3e a78c 63bc 2429 ef3d
00000330: e209 1b3d 4e10 0ebd 9019 943d 8f38 4fbd
00000340: 0d27 833b 57bc 0fbe 2864 1bbc d207 7f3d
00000350: e0b2 4f3c b587 14be 4250 003d 66aa 103d
00000360: cb8b 4d3d caa7 343d c1c4 b5bd a69e 1f3e
00000370: 7e15 863d 1ebc abbd daa6 e23b 5295 293c
00000380: 320a 8e3d 9ce8 8d3d c33c a73d 0141 3c3e
00000390: a34f 95bd f9a2 303e 4d7c debd 33a9 3e3d
000003a0: 44c3 fb3d 6404 cbbd 65f1 173e 9937 9e3d
000003b0: c2bd a83c de61 bebd 2632 df3d 2bf6 9d3d
000003c0: ca11 e83d 8c17 4e3d 7e54 1cbd c702 883e
000003d0: 2e6a 1cbe ba0a 863c ff42 05bd 7c20 033d
000003e0: 8716 82bd feb9 2abd 59d5 0c3e 2817 f3bc
000003f0: 138c 1cbe 28e4 d5bd 4e73 a13c 5891 1f3e

fc2.bias f4 [64]
0.09126749 -0.1011855 0.07183793 0.09159446 -0.022682311 -0.16243055 0.03314533 -0.059974246
-0.12811258 0.19353959 0.061670758 -0.081738606 0.11609178 0.19498052 -0.116396055 0.07797317
0.047493096 0.14332347 -0.22613661 0.25372243 -0.022244582 -0.25751486 0.13704337 -0.0871504
-0.061119493 -0.17226732 -0.09392711 0.085128546 -0.054316316 0.078099504 -0.115652986 -0.066633835
0.104055375 0.21411337 0.002509365 -0.081308305 0.059301235 0.08240406 -0.18725921 -0.039955486
-0.16539355 0.08200705 0.18827865 -0.10430333 -0.016914291 0.10022005 0.0007338024 -0.07546619
0.02081265 0.06959829 0.12331618 0.15564406 -0.15583052 0.047088962 -0.1843319 -0.14056835
0.14041094 0.0050700805 -0.117619336 -0.089834265 0.020304184 -0.053710733 -0.06694799 -0.04387673
00000000: 73ea ba3d 583a cfbd c41f 933d e095 bb3d
00000010: 41d0 b9bc 3254 26be 66c3 073d 8ea7 75bd
00000020: f22f 03be 3e2f 463e 7a9a 7c3d 9266 a7bd
00000030: 87c1 ed3d f9a8 473e 0e61 eebd 66b0 9f3d
00000040: 1f88 423d 63c3 123e 5b90 67be e8e7 813e
00000050: 453a b6bc fdd8 83be 1955 0c3e e97b b2bd
00000060: 6f58 7abd d866 30be db5c c0bd e057 ae3d
00000070: c97a 5ebd a2f2 9f3d 79db ecbd 5277 88bd
00000080: fc1a d53d 8940 5b3e 2974 243b f884 a6bd
00000090: dae5 723d 76c3 a83d e1c0 3fbe 5da8 23bd
000000a0: ed5c 29be 50f3 a73d 1ecc 403e fc9c d5bd
000000b0: d78f 8abc 2b40 cd3d a55c 403a 058e 9abd
000000c0: 4a7f aa3c 8c89 8e3d 328d fc3d 2861 1f3e
000000d0: 0992 1fbe 5be0 403d 80c1 3cbe 26f1 0fbe
000000e0: e3c7 0f3e eb22 a63b 68e2 f0bd 07fb b7bd
000000f0: f654 a63c c9ff 5bbd 071c 89bd 16b8 33bd

fc3.weight f4 [64, 64]
-0.14232968 -0.008629281 -0.1395345 -0.33403343 0.0626262 0.10949642 0.08354872 0.11553257
0.17798032 0.029943835 -0.05425157 4.9954197e-05 -0.31633165 -0.11334161 0.1799028 0.15609941
-0.004271419 -0.16883335 0.116011575 -0.12666465 0.32482934 0.2645924 -0.0025985641 0.12296231
-0.059044056 0.10591475 0.035873484 -0.14545031 0.072368115 0.045578703 0.11774044 0.09566226
-0.096118405 -0.13591455 -0.037232246 0.2227594 -0.016083257 0.13697015 0.08432945 0.04694962
0.10723933 -0.100742646 0.052661836 0.027930895 0.22276148 -0.0010371717 -0.05494855 0.14985943
-0.10971598 -0.027338173 -0.054808557 -0.104719326 0.13726188 0.02397112 0.10964645 -0.11433417
-0.028986633 -0.05366446 0.16649146 0.057704724 -0.21724628 0.08313828 0.08486106 -0.21641393
0.04265741 0.097552516 -0.28590095 0.113759816 0.048099842 0.07027857 -0.15304075 0.07376824
-0.08647829 0.058046322 0.097835615 -0.100984156 -0.07117689 0.032566756 0.13021207 -0.11758017
0.14542711 0.07217382 -0.069436945 -0.120118484 -0.088473976 0.0419262 0.02629394 -0.087942004
0.098952316 -0.01581382 0.016764365 0.11529058 0.12607665 0.109040976 0.044632006 0.087950826
-0.1503205 -0.07398142 0.04058656 0.058518853 0.0127695 -0.12897842 0.04432525 0.0048112716
0.0049764765 0.18730126 -0.16504832 -0.00712158 -0.048146404 0.0056603174 -0.03918053 0.12632409
-0.11641977 0.119778164 0.107253544 -0.09183906 0.1583614 0.0008484342 -0.030321086 0.029756604
0.0021501796 -0.099698365 -0.09479973 0.05968472 0.123618826 0.07129132 -0.1205578 0.043375358
-0.03310862 0.011636652 -0.077000394 -0.3528649 -0.022265337 0.21698873 0.1598153 0.19703834
0.04228013 -0.067314826 -0.010410017 0.03764656 -0.35054746 0.052109335 0.12945898 0.004211639
0.12119306 -0.14115326 0.17358999 -0.12168922 0.20801565 0.364874 -0.10829813 0.24219544
-0.03092541 0.217671 -0.13868052 -0.20518115 0.14473285 -0.018509071 -0.038701896 -0.009423115
-0.04971612 -0.24043137 -0.08574688 0.24280646 0.030156486 0.028730217 0.20583849 0.04143365
0.22985236 -0.17764853 -0.10202872 0.074223906 0.27977234 0.083733335 -0.088065416 0.07396604
-0.10141673 -0.009832942 -0.073337376 -0.0997803 0.16665629 -0.11552703 0.0026587993 -0.024780532
0.038339283 0.15008354 0.07391253 -0.0727491 -0.092076205 0.16497248 0.24997985 -0.15891953
0.04027562 0.027596988 0.25197226 -0.6020107 0.06666814 0.024186634 0.1040237 0.15227653
-0.017531255 -0.042796023 -0.012881532 0.07994115 -0.12935898 0.04646776 -0.22786643 -0.007851183
0.025518943 -0.12186628 0.07044035 -0.037431285 0.21946448 0.0020273102 -0.18611908 -9.399838e-05
8.1518465e-06 -0.041875757 -0.08561249 -0.44113034 -0.103531435 0.0294278 -0.048736226 0.13532989
0.11242282 -0.17592268 -0.115025595 0.09745171 -0.086513095 0.15766238 0.06065108 -0.05309633
0.09650284 0.014739257 0.09188114 0.03317318 -0.09132843 -0.08243215 -0.30047202 0.12894286
-0.05911754 -0.037164897 0.050399512 -0.051566243 -0.3384219 0.08502474 -0.2244743 -0.16538033
-0.18436362 0.075782835 -0.12663059 -0.13081971 -0.023061479 -0.08464199 0.024743456 -0.17642708
00000000: dfbe 11be d461 0dbc 22e2 0ebe 6e06 abbe
00000010: 2a42 803d a93f e03d 971b ab3d 579c ec3d
00000020: 7940 363e c64c f53c e536 5ebd e985 5138
00000030: 39f6 a1be a51f e8bd 7138 383e 86d8 1f3e
00000040: 42f7 8bbb a6e2 2cbe 7a97 ed3d 61b4 01be
00000050: 0850 a63e a878 873e ac4c 2abb aad3 fb3d
00000060: 2ed8 71bd d5e9 d83d 13f0 123d edf0 14be
00000070: bc35 943d bcb0 3a3d e621 f13d 93ea c33d
00000080: bad9 c4bd 2f2d 0bbe d780 18bd 0a1b 643e
00000090: 09c1 83bc e741 0c3e ebb4 ac3d 3f4e 403d
000000a0: 4ba0 db3d 2952 cebd f0b3 573d 55cf e43c
000000b0: 961b 643e b5f1 87ba bb11 61bd c074 193e
000000c0: c6b2 e0bd 4ef4 dfbc f07e 60bd 1677 d6bd
000000d0: 618e 0c3e 155f c43c 518e e03d 0928 eabd
000000e0: 6075 edbc 44cf 5bbd bd7c 2a3e ca5b 6c3d
000000f0: cf75 5ebe 6744 aa3d a3cb ad3d 9d9b 5dbe
00000100: 89b9 2e3d 9dc9 c73d 9c61 92be e8fa e83d
00000110: 5704 453d 36ee 8f3d b7b6 1cbe ce13 973d
00000120: 881b b1bd fbc1 6d3d 0a5e c83d c8d0 cebd
00000130: 30c5 91bd b864 053d 5056 053e dfcd f0bd
00000140: d8ea 143e decf 933d f534 8ebd ae00 f6bd
00000150: d831 b5bd cfba 2b3d 6466 d73c f01a b4bd
00000160: 83a7 ca3d fc8b 81bc 6c55 893c 781d ec3d
00000170: 3d1a 013e e050 df3d 0dd0 363d 901f b43d
00000180: 9eed 19be 9283 97bd 183e 263d 77b1 6f3d
00000190: 2a37 513c eb12 04be 658e 353d dfa7 9d3b
000001a0: b611 a33b e7cb 3f3e 6d02 29be 255c e9bb
000001b0: 2a35 45bd 2f7a b93b c37b 20bd 1a5b 013e
000001c0: 7d6d eebd 414e f53d bfa7 db3d 1e16 bcbd
000001d0: 7e29 223e 7569 5e3a ed63 f8bc 1fc4 f33c
000001e0: 07ea 0c3b a82e ccbd 5c26 c2bd f777 743d
000001f0: de2b fd3d 2f01 923d 02e7 f6bd 5caa 313d
00000200: e89c 07bd a8a7 3e3c 62b2 9dbd b5aa b4be
00000210: cc65 b6bc 4b32 5e3e 9fa6 233e 6bc4 493e
00000220: ee2d 2d3d 5bdc 89bd c78e 2abc 4833 1a3d
00000230: f57a b3be 9970 553d e590 043e ca01 8a3b
00000240: 1134 f83d 7b8a 10be 93c1 313e 3338 f9bd
00000250: 0e02 553e c4d0 ba3e 69cb ddbd 1502 783e
00000260: 4957 fdbc 26e5 5e3e 4402 0ebe 021b 52be
00000270: d934 143e 56a0 97bc e185 1ebd 6963 1abc
00000280: 21a3 4bbd a433 76be 0f9c afbd 42a2 783e
00000290: bc0a f73c a25b eb3c 53c7 523e 55b6 293d
000002a0: 6b5e 6b3e 7fe9 35be 6ff4 d0bd b402 983d
000002b0: 523e 8f3e 627c ab3d a45b b4bd 827b 973d
000002c0: 93b3 cfbd 591a 21bc e831 96bd 9d59 ccbd
000002d0: f2a7 2a3e 6f99 ecbd 403f 2e3b 8b00 cbbc
000002e0: a709 1d3d 80af 193e 745f 973d 7bfd 94bd
000002f0: 7392 bcbd 8cee 283e b8fa 7f3e cdbb 22be
00000300: 0cf8 243d 1413 e23c 8202 813e 601d 1abf
00000310: 4e89 883d 0c23 c63c 610a d53d 61ee 1b3e
00000320: b59d 8fbc e24a 2fbd 100d 53bc 30b8 a33d
00000330: ae76 04be fa54 3e3d d155 69be 40a2 00bc
00000340: 1a0d d13c 0795 f9bd 0843 903d 8c51 19bd
00000350: 4cbb 603e 9fdc 043b 0096 3ebe ff20 c5b8
00000360: eac3 0837 ea85 2bbd 9a55 afbd d6db e1be
00000370: 4a08 d4bd 9212 f13c a39f 47bd eb93 0a3e
00000380: ef3d e63d 1325 34be 8a92 ebbd c394 c73d
00000390: c72d b1bd 3f72 213e 446d 783d 8a7b 59bd
000003a0: 48a3 c53d ed7c 713c 2e2c bc3d 9ae0 073d
000003b0: 660a bbbd 30d2 a8bd 78d7 99be 9909 043e
000003c0: 3c25 72bd 383a 18bd b86f 4e3d 2037 53bd
000003d0: a345 adbe 7321 ae3d 97dc 65be 7659 29be
000003e0: d1c9 3cbe 0834 9b3d 73ab 01be 9af5 05be
000003f0: 6deb bcbc c858 adbd cab2 ca3c 4da9 34be

fc3.bias f4 [64]
-0.1920198 -0.09988881 -0.08279518 0.003691775 -0.0313236 -0.030090343 0.11238684 -0.02276641
-0.219885 -0.18017593 -0.05486761 0.04052423 -0.13962555 -0.076408796 -0.0255518 -0.040125072
-0.06456352 -0.042391934 -0.1551239 -0.11612769 -0.057095505 0.008874757 -0.10513606 -0.18421108
-0.116626136 -0.09081319 0.08447311 -0.07062665 0.06280979 0.1390211 -0.013543844 -0.14600949
-0.12368765 0.083907135 -0.17544344 0.048389796 -0.045233205 -0.03260948 0.020021122 -0.0060337186
0.032034848 0.076425605 0.05691209 0.041769143 -0.007431669 0.0680691 -0.06743652 -0.18715608
0.06706238 -0.071468 -0.016247898 -0.025021553 0.03602171 0.118231796 -0.09641886 0.14622085
-0.22731245 -0.089803234 0.02881926 -0.061747313 -0.030856472 -0.033207744 -0.032575805 0.075306386
00000000: d7a0 44be 8192 ccbd 8590 a9bd b5f1 713b
00000010: 2d4d 00bd 0680 f6bc 122b e63d 9f80 babc
00000020: 8929 61be 0a80 38be dcbc 60bd bcfc 253d
00000030: 00fa 0ebe 377c 9cbd 0252 d1bc 305a 24bd
00000040: e139 84bd 2aa3 2dbd cdd8 1ebe 5bd4 edbd
00000050: fadc 69bd 6e67 113c 9351 d7bd d4a1 3cbe
00000060: afd9 eebd 44fc b9bd 3d00 ad3d b4a4 90bd
00000070: 6ba2 803d 8c5b 0e3e 00e7 5dbc 8383 15be
00000080: f34f fdbd 81d7 ab3d 72a7 33be 6134 463d
00000090: 7446 39bd 8591 05bd 5603 a43c 80b6 c5bb
000000a0: f936 033d 0785 9c3d a71c 693d 1f16 2b3d
000000b0: 5c85 f3bb d067 8b3d 281c 8abd d8a5 3fbe
000000c0: 0058 893d d15d 92bd 501a 85bc 00fa ccbc
000000d0: 808b 133d 8323 f23d 4077 c5bd ebba 153e
000000e0: 98c4 68be c2ea b7bd 5e16 ec3c c0ea 7cbd
000000f0: b6c6 fcbc d804 08bd 356e 05bd 3c3a 9a3d

action_out.weight f4 [2, 64]
1.4591454 -0.11419731 1.3869243 0.19572145 0.14229107 0.18130733 -0.18308365 1.2413934
0.96520436 1.1460613 0.15324031 -0.032980423 1.6523081 0.24217756 0.12046124 -0.14954151
-0.12873164 0.10263321 0.17165251 1.7406273 1.7306226 -0.10584921 0.9554741 0.30998048
0.0024159248 0.08172732 -0.08188247 -0.2360857 -0.004264306 -0.076535836 0.02709212 0.031153223
-0.40393457 -0.054006472 0.49436143 0.15306953 -0.17281297 -0.07120043 0.0679362 0.12292825
0.12817246 0.26724946 0.10858525 -0.015735548 0.06561898 0.282974 0.049881615 0.6452985
-0.059506483 0.13149169 -0.017487131 -0.12242368 0.09450808 0.27023685 -0.08672289 -0.18374553
-0.002771535 -0.083334446 -0.14497977 0.04153436 -0.16980597 -0.115020916 0.31511065 0.117284514
-0.17792197 0.17015278 -0.2166884 -0.3600914 0.039413255 -0.15555228 -0.16565235 -0.07955274
0.015440545 -0.1168052 -0.014141812 0.16614282 0.37207732 -0.06816201 -0.06741696 -0.10232459
0.1025138 0.1498207 -0.24954475 0.06259635 0.109716944 -0.054435536 0.37540025 -0.26516703
0.14003809 -0.0033425924 0.040654846 -0.23401152 -0.46287778 -0.14936972 -0.4000795 0.083030425
0.3739847 -0.10356914 -0.15292546 0.14134032 0.04189927 -0.2668428 -0.08939968 -0.17610134
0.03342074 -0.11749319 0.114666484 0.19260803 0.14004357 0.018511843 -0.22018605 -0.21063605
-0.09531996 -0.08235423 0.09939962 -0.05720067 -0.07536146 -0.17304124 0.11450247 -0.073382005
0.9258913 0.098400146 -0.029165179 0.10718051 -0.16882242 -0.73622864 -0.3314614 0.14986205
00000000: 47c5 ba3f 47e0 e9bd bc86 b13f 346b 483e
00000010: c0b4 113e a1a8 393e 487a 3bbe fbe5 9e3f
00000020: a217 773f 23b2 923f 07eb 1c3e 7b16 07bd
00000030: d57e d33f 65fd 773e 62b4 f63d 6921 19be
00000040: 3ad2 03be 5c31 d23d adc5 2f3e e0cc de3f
00000050: 0b85 dd3f 78c7 d8bd f399 743f c3b5 9e3e
00000060: 7e54 1e3b a760 a73d ffb1 a7bd 73c0 71be
00000070: 97bb 8bbb d2be 9cbd 4bf0 dd3c 0b35 ff3c
00000080: 83d0 cebe e435 5dbd f11c fd3e 42be 1c3e
00000090: e2f5 30be 88d1 91bd 2222 8b3d cec1 fb3d
000000a0: a43f 033e ecd4 883e f261 de3d d6e7 80bc
000000b0: 3e63 863d f8e1 903e aa50 4c3d 4832 253f
000000c0: 12bd 73bd c2a5 063e 2c41 8fbc 44b9 fabd
000000d0: 748d c13d 7c5c 8a3e c59b b1bd ca27 3cbe
000000e0: a4a2 35bb 40ab aabd 9475 14be ef1f 2a3d
000000f0: 9ee1 2dbe 1690 ebbd 2f56 a13e dd32 f03d
00000100: 2d31 36be 883c 2e3e 90e3 5dbe e65d b8be
00000110: cb6f 213d 1949 1fbe c5a0 29be 8cec a2bd
00000120: 57fa 7c3c 9137 efbd 0fb3 67bc 5821 2a3e
00000130: eb80 be3e 8698 8bbd e711 8abd 8e8f d1bd
00000140: c1f2 d13d 996a 193e a988 7fbe 8432 803d
00000150: 47b3 e03d ccf7 5ebd 7634 c03e f9c3 87be
00000160: 2566 0f3e 650f 5bbb b285 263d b7a0 6fbe
00000170: 51fe ecbe 60f4 18be 38d7 ccbe db0b aa3d
00000180: ec7a bf3e 0f1c d4bd 7e98 1cbe 84bb 103e
00000190: 929e 2b3d 9f9f 88be 2e17 b7bd e953 34be
000001a0: 30e4 083d 45a0 f0bd 43d6 ea3d 0a3b 453e
000001b0: 9567 0f3e 26a6 973c 7478 61be fab0 57be
000001c0: 1c37 c3bd 56a9 a8bd 0792 cb3d 404b 6abd
000001d0: 1c57 9abd b931 31be 4580 ea3d 4e49 96bd
000001e0: 3607 6d3f 0486 c93d d0eb eebc 7581 db3d
000001f0: c9df 2cbe 7b79 3cbf 4fb5 a9be 7075 193e

action_out.bias f4 [2]
0.015274685 0.02081401
00000000: ac42 7a3c 2582 aa3c
