model_flock/flock/agent_0/19_critic_params.pkl (torch, 39287 bytes, 7 tensors)

fc1.weight f4 [64, 10]
00000000: a2b7 d9be b6c0 2e3d 2468 53be dbc3 373b
00000010: 08d5 cc3e 1db9 163e 9d57 6bbe 83dc 15be
00000020: a7a7 a6bd 3e82 65be c174 43bd 8005 2a3e
00000030: 9b50 073c b154 89bd 6460 99bc 1375 ec3d
00000040: d284 d33e 9e29 b43f abf8 c93e 8bc0 cf3d
00000050: d1d2 08bd a51a 27be ac5e ab3c 41bc 743e
00000060: af5c 0a3e cfd3 e7bc d522 903e e5b5 a83e
00000070: eef0 77bf c0ed ca3e f8a8 cbbd ed47 b53e
00000080: a2bc 51be d5f8 81bd 0c52 13bf 1c55 b0bc
00000090: abd8 083e 62b3 513f de2e 1fbe 7a26 aebe
000000a0: 82a8 163f 8568 f83e a082 a93d baa9 9f3e
000000b0: 416a b0be 191a abbe a42e d83d c32e 02be
000000c0: ca0f 80bd 46c8 9a3e 3bb1 70be f80d 66bf
000000d0: c7c1 2bbe b244 103e 1d1f f6be 8069 753e
000000e0: b482 9c3d 5a44 c33d ed44 16bf d405 2c3e
000000f0: aaa9 053e 95d9 84bd bbc0 613e 9516 be3d
00000100: 8d68 893e 095c 7dbe d4dd 273f 43df e9be
00000110: 6ced 4b3e 736a 8f3b 37fb bd3e ff51 b73e
00000120: fc17 ed3d 9de0 2ebe 59c4 ee3d 41b7 063e
00000130: 9f90 563e 1678 693f 4a44 8d3d 229e 89be
00000140: 94ad 123e 0ed2 cdbc d6c6 813e 2e29 18be
00000150: 09d3 8cbc 0b48 833e aae8 a0be 5c36 30be
00000160: b45a 31bc 92ef c6bd a080 343c 4d01 0f3e
00000170: 4522 873b b50e dfbd 0b80 d1bd 44ad dfbd
00000180: ea26 1f3f 72a0 25bd 8e2b 10bf 68d1 713e
00000190: e61d e63e f424 b3be 6b63 103e 0fa9 25be
000001a0: 4cb5 4ebe e360 cc3d 1f1a 383d 74f3 883e
000001b0: 129d 68bd bdc6 b9bd 210c 193e 8733 e03d
000001c0: 90f3 893d 0364 c1bd ac00 553c 393f 22be
000001d0: d0d9 cabb d85b 003f c533 d33c 7665 cb3d
000001e0: 4b55 033e 9793 1fbe 98c1 0b3e e07b b93d
000001f0: 548b 8bbf cb3a f03d f911 c1be 5f76 e23f
00000200: f6d7 913d 3738 c5bd 9470 d23e a98c 913d
00000210: bf6b a03e 9c5a ec3d 64cc 1e3e 7a75 5dbd
00000220: a14e 19bf e0eb 81bf 9f6f d93d 36f3 e53d
00000230: 9625 7e3e 302b 11bd 0e0f 01bd a397 bbbd
00000240: aa30 0abf b6cf d1bd d1ba e13e 9baf 983d
00000250: 81f2 a23e 0c22 e3bb 8f44 1d3f 570d b1be
00000260: 29c8 123e 678e 81bd 1a22 2b3e 2f0a 77be
00000270: d92a dcbe df53 263f 2f84 d63e 7f9c 353e
00000280: 7a15 04bf e70a 0cbe 7e10 75be 8fdf c3bd
00000290: ee8f 6f3e 1c96 8a3e b02d ce3d 8258 0a3d
000002a0: 86f9 60be a42e a83d c13f a9be 43c5 65be
000002b0: 5a76 203e a895 febc 336d 113f 5cea 4ebe
000002c0: 2511 233e 0293 c43f 552c d3bd 0b27 2dbe
000002d0: 3c53 04bf 7c05 92bd beaa 2c3d d9d9 df3d
000002e0: 4fd3 043f b3bb c43d f961 9ebc ea5f 813f
000002f0: 1863 23be eaa3 283d c281 52bf deb0 dabe
00000300: e4fa 20be b172 8a3d de10 22bd e4ec 58be
00000310: e697 083f 101d ff3f d2a4 e3be 2e62 d23e
00000320: 953b 8f3e 1e2a 8dbd 6c1a c2bd bb51 153e
00000330: 2dfe 883e fa32 d9bd 5066 d9bd ed3f 283f
00000340: a338 35bf 0d2a a5bd f57a c53d 2f15 1b3c
00000350: 4455 903e 1662 22be 7946 37be a24f 2cbe
00000360: 87d4 b5bf cbd3 04bf e6da 01bd c79b f63b
00000370: 4f4e 893d c60b 2fbe a0bd 313e cef4 5abe
00000380: 494a a03d 51b4 5abd b923 963e 43bf fe3c
00000390: 8eb3 403e e99d a3be d0ae 80be 0e41 36be
000003a0: 8fcd 2a3d 6d1c 033e c7a8 163f 866a 463d
000003b0: 0629 09be af68 433f 2eef e43c d74e 283e
000003c0: 01ff a23e dfe9 23be d656 df3d 887d 09be
000003d0: cfd0 083f cb0f 97be b89e 02bd 0200 94bf
000003e0: 509f 123e d2b2 333d 2ac2 5abf c839 803d
000003f0: 742a 0abe fb19 28be f7f2 4a3e cfbf 98be
-0.42522913 0.042664252 -0.20645195 0.0028040323 0.4000628 0.14719053 -0.2298264 -0.146349
-0.08137446 -0.22412965 -0.047718767 0.1660366 0.008258964 -0.06705607 -0.01872272 0.11545768
0.4131227 1.40752 0.3944753 0.101441465 -0.033404175 -0.16318758 0.020919167 0.23899938
0.13511918 -0.02829924 0.28151575 0.32951275 -0.96852005 0.39634514 -0.099443376 0.35406438
-0.20482114 -0.06346289 -0.5754707 -0.021524958 0.13363902 0.8191434 -0.15545222 -0.3401373
0.5885087 0.48517242 0.08276868 0.3118418 -0.34456065 -0.33418348 0.10555771 -0.1271315
-0.062530115 0.30230922 -0.23505108 -0.89865065 -0.16773139 0.14088705 -0.48070613 0.23966026
0.07642117 0.095345214 -0.5869892 0.16799098 0.13053003 -0.06486813 0.22046177 0.09281651
0.26837578 -0.2474214 0.6557286 -0.45678148 0.19914788 0.0043767034 0.37105724 0.35804746
0.1157684 -0.1707787 0.11658544 0.13155843 0.20953606 0.9119886 0.06897791 -0.26878458
0.14324027 -0.025124576 0.25347012 -0.14859459 -0.017190473 0.25640902 -0.3142751 -0.17208236
-0.010824848 -0.09713663 0.011016995 0.1396534 0.0041239583 -0.10891477 -0.102295004 -0.1092172
0.62168753 -0.040436216 -0.5631646 0.23615038 0.44944686 -0.3498913 0.14100425 -0.16177772
-0.20186347 0.09979417 0.044946786 0.2674824 -0.05679042 -0.090711094 0.14946033 0.10947328
0.06735909 -0.09442904 0.0130006485 -0.1584443 -0.006190516 0.5014014 0.025781522 0.099314615
0.12825505 -0.15583645 0.13648069 0.090568304 -1.0901895 0.11729964 -0.37709025 1.7692374
0.071212694 -0.09629863 0.41101515 0.07106907 0.31332204 0.1154072 0.15507656 -0.054067113
-0.59885603 -1.0150108 0.10616993 0.112280294 0.24819025 -0.035441577 -0.031508498 -0.09159782
-0.53980505 -0.10244696 0.44087842 0.07455369 0.3182564 -0.006931549 0.6143274 -0.3458049
0.14334168 -0.06325989 0.16712227 -0.24124978 -0.4300144 0.6497173 0.41897723 0.1773548
-0.5159527 -0.13676034 -0.23932073 -0.09564125 0.23394749 0.2706765 0.10067308 0.033775814
-0.21970186 0.08212021 -0.33056453 -0.2243853 0.15670148 -0.031077221 0.5680725 -0.20206589
0.15924509 1.5357363 -0.1031119 -0.16909425 -0.51689506 -0.07129952 0.04215502 0.10930223
0.5188493 0.09606113 -0.019333826 1.0107396 -0.1595577 0.041171946 -0.82229245 -0.42713064
-0.15720707 0.06760157 -0.039566867 -0.21184117 0.5335678 1.9930744 -0.44461685 0.4109053
0.27975145 -0.06892799 -0.09477696 0.14581959 0.2675642 -0.10605426 -0.10615218 0.65722543
-0.70789546 -0.08064661 0.09642593 0.0094655 0.28190053 -0.1585773 -0.17897977 -0.16827253
-1.4205483 -0.5188567 -0.0317029 0.0075258943 0.06704389 -0.17094335 0.17357492 -0.21382448
0.07826669 -0.05339462 0.2932413 0.03109706 0.18818495 -0.31956413 -0.2513337 -0.17798254
0.041699942 0.12803812 0.58851284 0.048441432 -0.13394555 0.7633161 0.027946081 0.16436325
0.31835178 -0.16007183 0.109052345 -0.13426793 0.53443617 -0.29504237 -0.031889647 -1.1562502
0.14318585 0.04387171 -0.8545252 0.06261021 -0.13492757 -0.16416161 0.19819246 -0.29833838

fc1.bias f4 [64]
00000000: b587 c0be 39e8 afbd 8ac9 58bd bbb6 b8bc
00000010: 543e 4d3e c022 673e 070d a13d 3cb5 633e
00000020: 9209 c1be 8541 3f3f ff7b 133e f5d6 0a3f
00000030: b1f8 e2be f57d 2fbd 0252 bb3e 1ce7 62be
00000040: dd60 a7be 6c80 1abc c26c 0dbe ff08 4c3d
00000050: 9693 1cbf e432 3abe 5e08 0abf c82c c1be
00000060: d752 d5be 10fb ec3d b065 f83e 28a9 333f
00000070: 980d bb3e 774f c0be e57d 58be 50df 0cbf
00000080: 9b97 adbe 2dcd 3dbf 647b 0e3f dcf2 aebd
00000090: eb16 193e 375b 3fbe 6223 a33e 4bbb f9bc
000000a0: 8250 f93e 6621 95be 8dfb 343d 272c 59be
000000b0: 0f06 2d3f 5291 d6be cd19 90be 3f2b b9be
000000c0: 5897 233e a686 e43e 66fb e03d 8d2e 4b3e
000000d0: aa4b b5be 0f7d ef3d 004b d23e a24c b63e
000000e0: 219f 29bc e88d fe3c dbff e6bd 5460 c93d
000000f0: b3e7 0c3e 71a9 473f 5f45 573e 8d5c c13e
-0.37603536 -0.08589215 -0.052926578 -0.02254807 0.20043308 0.2257185 0.07863813 0.22237104
-0.37702614 0.7470935 0.1440277 0.5423425 -0.4433036 -0.04284473 0.36586004 -0.22158474
-0.32691088 -0.009430032 -0.13811019 0.049813267 -0.611627 -0.18183476 -0.5391902 -0.37729478
-0.41664764 0.11571324 0.4851508 0.70179987 0.3653381 -0.37560627 -0.21141775 -0.5502825
-0.33904728 -0.741412 0.5565703 -0.085424155 0.14950149 -0.1868714 0.31862932 -0.030484816
0.48694235 -0.29127043 0.04418521 -0.21208249 0.6758737 -0.41907746 -0.28144684 -0.36165807
0.15975702 0.4463398 0.109854504 0.19841976 -0.3540929 0.11693775 0.41072845 0.3560534
-0.010352881 0.031073526 -0.11279269 0.09832826 0.13760261 0.7799292 0.21022557 0.37765923

fc2.weight f4 [64, 64]
00000000: 049c 10bd 5d5b aabd f92b 41be 1bf4 873e
00000010: c399 0d3f 7886 133d b8e1 623e 13d2 07c0
00000020: 65d4 cdbe 4d2c 83be 39e8 17bf 044f 403f
00000030: 6105 a73d c68c c7bd 79b5 da3d 5e44 593d
00000040: dd52 2a3b 74ad 0d3e b370 76bf 5891 f1bb
00000050: 84c8 dfba 01a0 44be 2e96 00bf 428d 20bf
00000060: 0694 03c0 3995 823d dd43 893c 6d05 cd3d
00000070: 150f 3a3e 9683 f0be af10 36bf 99f2 40be
00000080: 35ef e3bd 77d6 363e 29f3 c03e 0724 4b3e
00000090: 3e33 3ebf b106 87be 1c75 e0be d171 07be
000000a0: fd41 c43d 0dcf 843e ae27 aebc 5c38 ac3d
000000b0: ec3d b43e 168b 1a3e 5ef7 0ebd 1e0e 633d
000000c0: 1b43 2b3d b95a 8f3f ea72 83be 4c84 853e
000000d0: 014e a3be 6443 233e 6462 8bbf 7663 133d
000000e0: 1102 243c 7e51 6bbe 4b17 1a3e c131 d5bc
000000f0: 435b 083e a327 9cbe fb9b 9c3f bc69 833d
00000100: 5061 4d3e f398 bfbc 9226 943c a57b cdbc
00000110: 7ba6 253d 8688 93bd 34cc dc3b b1bb c4bd
00000120: c1a1 103d be1b be3d ca81 eebc 5d29 813d
00000130: e80b 0fbe 4dfc babe fa2c 123d b91a 5cbd
00000140: 88b9 333e 39b4 b23d 26c7 8e3d 86df e33d
00000150: 9718 083e 4665 25be 190d fe3d 45fb 83bd
00000160: 563d 7abd 7047 b43d 5101 4a3e d025 5c3e
00000170: 3aec f6bb e2a4 893d 9e4f 623d fac2 27bd
00000180: cc17 c1bc 7fa8 24be d934 8e3e d575 63be
00000190: dafa 593d 1cec bb3d b9b1 103e 26c5 a93e
000001a0: e105 07be 884e 91bd 84de ff3d 3284 9f3d
000001b0: 058a 3fbb 183f f33d 842e 2abd dc3b 48bd
000001c0: e365 333e b83b c13d 87ee 4bbc d54c 8dbd
000001d0: 4f29 a5bd 24b4 3bbd 0cff cfbd d66d d13c
000001e0: 31f1 913c 5156 993d 0499 cf3c 0b41 2bbd
000001f0: 4dfc 203e ce62 9b3e 695d 2cbe 5c30 143e
00000200: 85bf 403e 93b2 f5bb 54cf 493e 845d 9c3e
00000210: 7809 f23e e12d 813d f60e 633d 4145 f7bb
00000220: 468e 5b3e 621c 7fbe 9494 803d 54c0 92bd
00000230: cad6 9a3e aa49 24bd 456e a23e 793a b7bd
00000240: 22b6 fbbd 7a23 9ebd 4dd5 1bbe b377 5ebe
00000250: 33dc 623e 7a03 7dbe 2031 233e 9fb7 1dbe
00000260: 607d f8bb ae62 8dbd c9aa 93bd 40de 2fbe
00000270: 8656 00bf e21e 293e 7954 9e3e 0f90 4bbb
00000280: 8375 97bb de1e a23e 02cc 663d e42a 81bf
00000290: 027e 89be a71c 39be 96c9 a3be d6cf 213e
000002a0: 1665 4a3e 4fc5 bf3d 753b 423d 62bd 43be
000002b0: 0a0b 1ebe 0b80 503b e1a3 9c3d 9b1b 7bbd
000002c0: 743a 33bd e8d3 7e3e 25e4 7cbe a7bc 53be
000002d0: e0ea 393e 436a 193e ee03 403e e60d afbd
000002e0: 5749 15bd 238f 203e 8e6a 4b3e 9439 48be
000002f0: 75b8 38bc 22d7 ad3e 357b 0ebd 6fce cb3d
00000300: 74d7 65be e42f fc3d 62ce 08be d279 0cc0
00000310: ddd5 68be b469 4b3f e1c2 833a 51aa d4bc
00000320: 26e7 03bd 1c91 f7bd 5771 00bf 46ff 4b3e
00000330: f22e 7abe 66f5 34be ba67 15be 2d41 4cbe
00000340: 5e33 203d 99fd d13d 5096 8b3e 5a0e f23d
00000350: d0c5 eebd 7aea 43c0 2a89 4b3d 171b 2d3e
00000360: 3bd9 093e 4b8e 75be 4240 8c3d 5f1d 843d
00000370: 4138 f3bd eb29 303e cdeb 9e3d 3c1c b13d
00000380: 6b22 9d3c c932 563f 39d1 ad3c 3a92 87bd
00000390: c8a8 76bc cd83 9bbe f313 3c3e ebf7 873e
000003a0: 2b64 17bf 8893 0a3d e6ae bfbe 2657 a93e
000003b0: 1647 95bf 9750 93bd be48 09bf 9d3e 083e
000003c0: 664b 253e 918e 45bd 6019 f73e ded2 04be
000003d0: 67c3 033d 41b6 e6bf 5433 3fbf 96c8 af3c
000003e0: d6a4 a33e 042d 753e 75c7 9dbd 1dd2 003e
000003f0: 67f4 e7bc 700e 953c f023 c13e e4f8 69bd
-0.035305038 -0.083182074 -0.1886443 0.26553425 0.55312747 0.03601691 0.22156417 -2.122197
-0.40201107 -0.25619736 -0.5933872 0.7512057 0.08155323 -0.09743647 0.106791444 0.053043716
0.0025989332 0.13835698 -0.96265715 -0.0073720627 -0.0017073308 -0.19201662 -0.50229156 -0.6271554
-2.0559096 0.06376118 0.016755993 0.100108005 0.18169816 -0.46975392 -0.7111921 -0.18842544
-0.111296095 0.1785525 0.37685516 0.19837962 -0.7429694 -0.26372293 -0.43839347 -0.13227011
0.09582899 0.25939217 -0.021259155 0.08409187 0.35203493 0.1509212 -0.034903876 0.055433385
0.041812044 1.1199561 -0.2567361 0.26077497 -0.3189545 0.15943676 -1.0889401 0.035983525
0.010010258 -0.22980306 0.15047948 -0.026024701 0.13316064 -0.3049899 1.2235101 0.064166516
0.20056653 -0.023388362 0.018084798 -0.025083372 0.04044197 -0.07203774 0.00673821 -0.09606112
0.03531051 0.09282635 -0.029114623 0.063067175 -0.13969386 -0.36520615 0.035687424 -0.053736422
0.17551243 0.08725781 0.06971578 0.11126618 0.1329063 -0.16151914 0.12404842 -0.0644441
-0.06109365 0.08802688 0.19727065 0.214988 -0.0075354846 0.06720902 0.05525171 -0.04095743
-0.023570918 -0.16079901 0.27774695 -0.22212918 0.053217746 0.09175894 0.14130296 0.33158225
-0.13185836 -0.07095057 0.12493613 0.07788886 -0.0029226553 0.118772686 -0.041548267 -0.04888521
0.17519335 0.094352186 -0.012447006 -0.0689942 -0.080645196 -0.045826092 -0.10156068 0.02556507
0.017815204 0.07487167 0.025341518 -0.041810077 0.15721245 0.3034882 -0.16832508 0.14471573
0.18823059 -0.0074980943 0.19707996 0.30540097 0.4727285 0.06307579 0.05543419 -0.0075460975
0.21440992 -0.24913171 0.06278339 -0.0716559 0.30241996 -0.040109314 0.31724754 -0.089467
-0.122905985 -0.0772161 -0.15218087 -0.21725349 0.22154312 -0.24708357 0.15936708 -0.15402077
-0.0075833052 -0.06903587 -0.07210309 -0.17174625 -0.50132024 0.16515687 0.30923823 -0.0031061207
-0.004622163 0.31664175 0.0563469 -1.0091214 -0.2685395 -0.18077336 -0.31989735 0.1580194
0.19765124 0.093638055 0.047419984 -0.19115213 -0.15433899 0.00318146 0.07648445 -0.061305624
-0.043756917 0.24885523 -0.24696405 -0.20677434 0.18156004 0.14981942 0.18751499 -0.08547573
-0.036446895 0.15679602 0.19864866 -0.19553214 -0.011274447 0.33953196 -0.034785468 0.099514835
-0.2244547 0.12313822 -0.13359979 -2.1949353 -0.22737832 0.79458165 0.0010052585 -0.02596012
-0.032202862 -0.12088224 -0.5017294 0.19921598 -0.2443197 -0.17671737 -0.1459035 -0.19946738
0.039111488 0.10253448 0.27263117 0.118191436 -0.116588235 -3.0611863 0.049691357 0.16904865
0.13461773 -0.23980062 0.06848194 0.064509146 -0.11875964 0.1720349 0.07759819 0.086479634
0.01918145 0.8367124 0.02121793 -0.066196874 -0.015054889 -0.30373994 0.18366985 0.26556334
-0.5913722 0.033832103 -0.37438124 0.330743 -1.1662319 -0.07193106 -0.5362662 0.13305135
0.16142043 -0.048231665 0.48261547 -0.12971064 0.032168772 -1.802437 -0.74687696 0.021457952
0.31961697 0.23942953 -0.07704059 0.12580152 -0.028314782 0.01819536 0.3772273 -0.057122126

fc2.bias f4 [64]
00000000: 1a08 b23d 63ca 7e3e ae37 0cbe 4d63 073e
00000010: 3dfa 7cbd 1d50 e7bd 179e f83e 1f0b 15bc
00000020: b2bc 783c f611 6fbe d9f0 5f3e d3d0 593e
00000030: ddf3 853c be78 223d bebb 00be 8a45 bb3d
00000040: 1f21 ac3b 3736 a03c ae74 71be ba3d 5f3d
00000050: 8016 e23e f2ee 163d a40d b03e f52c 75bd
00000060: 63ff 65bb 229c 32be b214 3c3d b25e f13e
00000070: d41d 923b 27ff dc3e b470 0dbd 1af2 00be
00000080: 812f 81be 86bc abbe 7eb8 693d 2795 a03e
00000090: f65f cc3e b897 6f3e d90b 043e 1bdf 90bd
000000a0: a2e0 d43c d635 213d 0430 a63d 20ed 6e3e
000000b0: fcd1 873d 0fb3 fa3d 9a59 b43d b744 9a3e
000000c0: cf7e d23d 390a 29be f85a b13e 1ea1 f5bd
000000d0: b15b f23d ff8b 623e 0a81 68be 264f 8e3d
000000e0: f4cf f1bd 2232 3d3e 9760 a4bd b8bc 033e
000000f0: c9fc d8bd 7665 ac3e 6dfb 0b3e 08dc 4f3d
0.086929515 0.24881892 -0.13693115 0.13221474 -0.061762083 -0.11294577 0.48558113 -0.00909689
0.015181707 -0.23346695 0.2186922 0.21271066 0.016351635 0.03966593 -0.12571618 0.09144123
0.005252972 0.019557102 -0.23579666 0.054502226 0.4415779 0.03684897 0.34385407 -0.059857327
-0.003509485 -0.17442372 0.045918174 0.4714256 0.004459122 0.43163416 -0.03453131 -0.12592354
-0.25231555 -0.3354227 0.05706071 0.31363794 0.39916962 0.2339772 0.12895145 -0.07073804
0.02598602 0.039357983 0.08114627 0.23332644 0.06631848 0.12241184 0.08806153 0.3013055
0.10278093 -0.16507806 0.34639716 -0.11993621 0.11833895 0.22123717 -0.22705474 0.0694869
-0.11807242 0.18476155 -0.080262356 0.12864959 -0.1059509 0.3367116 0.1367013 0.050746948

fc3.weight f4 [64, 64]
00000000: 6b19 60be 71c9 4d3d abca 813e 70a1 54bd
00000010: 127c 80bd 9288 fa3d fea6 ddbd edbd b2bc
00000020: ab3b 4b3d 6c95 ebbd 4f10 88be 11ba 89be
00000030: 2c07 eb3d 6405 0f3d 29f2 8dbf d842 98bd
00000040: 124e bcbc e55d 0dbf 292a 463d e4c9 a73e
00000050: 9679 ef3d da6b 6abf fa2f cb3d 1429 3e3d
00000060: b65a b43e 0be1 5f3e 6927 debd a30b 2dbe
00000070: df2b 95bf 405e 523e ac8d 56bd 3fd2 113d
00000080: 3d11 10be 7801 333e 8c50 41bc 4a12 e3bd
00000090: ab54 cb3d 2cfb c03d f16c 80be 2e73 3abc
000000a0: 3cc9 9f3c bf2c 5bbf 80dd e53d 06ef 573e
000000b0: 7b7e b0bd ab97 233e 280f 9ebe 9798 193e
000000c0: 998c b3bf 6129 f8be 4851 75be e0e7 58bd
000000d0: 252d 543f 37a8 c8be 83d0 913e a364 20bd
000000e0: 1ca4 01bd 5758 2e3e 9c7b b83d 0000 343e
000000f0: 112e 4bbd 4b69 a9bc b52e e8be 6111 803e
00000100: 542a 2dbf 1c04 f73d 5fba b13e fa31 193c
00000110: d443 bcbd 5bf0 9c3e df60 d8bd a80c 98bd
00000120: 4d8e 5e3d 622a 51be 7ea4 5cbe 7af7 5dbd
00000130: d762 9f3d 8348 ce3d 2240 74bf a04a f6bd
00000140: 9587 b03e 8383 6cbf 2f2e 49be 633b 5c3e
00000150: 0c42 0a3e e57b 58bf e6c1 00bd ffe1 a93d
00000160: 44de e03e d1f5 8e3e 909b f63c a6ef 49bd
00000170: d1c5 02c0 4948 423d 903c 5c3d 3baa ad3d
00000180: 26e3 44be 4f65 ed3d 10f3 c73e 2739 3b3e
00000190: 9a9b aa3d 461b a23e 013a a4be e5fd bebd
000001a0: 9b03 9b3e df80 433e d135 c13a fcd9 233e
000001b0: 1a73 74bc 1f11 33be bf5b bfbd c007 463d
000001c0: 9014 243e 8a6f 1d3f 91be 99be 8647 8fbc
000001d0: 6df5 ee3e 9579 55bf 6210 143e 0377 db3d
000001e0: 8fc1 b23c 9cc4 0b3e cb68 663d 576f e1bc
000001f0: 351a a0ba 8cfc 113d 4efe 23bf 7597 29be
00000200: ec42 b6bc 14d9 093d 886f f63d 0ddf 64bd
00000210: dc18 36bd ec3a b63c 7ab7 153d b41c c3bd
00000220: 2a76 30bd 437a 70bd fb9a 40be 7ff5 603e
00000230: 264d 88bd 98e6 62bd 9d2a 04be b430 b93c
00000240: e027 3fbd 056a f4bd 70a3 c0bd bb6d 4b3d
00000250: e613 a23c e3de 3cbd 3991 8a3d ebde 473d
00000260: 78e9 883d 7435 9cbe ba1f 5cbc 294c a03d
00000270: 1eec 67bd ec1d 44bd c0ca 943c 2ad1 29bd
00000280: 95dd 7ebe 5f35 c5bc 2a9e 70be 6a46 353c
00000290: 9089 153d 388a 4d3e e303 85bd cfba 693d
000002a0: f8a0 0bbe 72d2 e2be 05c7 db3d 4cf0 f23d
000002b0: bac6 d7bd 8475 213c 5c3e 74bc 88c4 663e
000002c0: 3426 72bf eeb6 62be 595a e63d c51a f6bd
000002d0: 8401 043b 0ef5 fabc ef13 563e 76d3 babd
000002e0: 9d16 31be 851e 9c3d 0992 55bd a0ae 373e
000002f0: 0c52 933e 14e9 da3d 8b4b 713d e2b6 4f3e
00000300: 7cb7 a3bd 8844 87ba a5c8 b8be 8210 cebd
00000310: 5ef3 9a3d a249 923d c329 ca3d 08d9 aa3d
00000320: a091 9a39 0723 ba3d bf70 a63d 7b7a 263b
00000330: 703e 57bd 0f5e f83d 2654 a03c 4b7e dabd
00000340: e67c 4ebe 88ea 3ebd 9b40 3bbd 6b24 673d
00000350: ef6d c53d b155 f43c a375 7e3d 82df cf3d
00000360: 9256 77bb 3aa6 19bd 8340 9a3c 0ff8 ff3b
00000370: 1ae6 7f3e 1c51 f03c 40ab 0e3d 1560 053d
00000380: a1c8 c0bd 635f 78bd fb7e a03e a2c5 2dbe
00000390: c13b b33d f027 87bd 233d ab3d 2a4f 2ebc
000003a0: a0d3 863c 466f eebd 4267 a33d 28bb b03a
000003b0: 1250 033e 92d6 023d 1480 73bd a1de bbbc
000003c0: ca3c fa3d e050 90be 0743 233e e5de 98bd
000003d0: 79d7 64be 64b0 213e b87b 5e3c d0fd e83b
000003e0: d689 c13d a53d 8a3d 246a 4d3c bd70 73be
000003f0: 11d2 7abf 9fba e5bc 7e7b 55bd d63e 223e
-0.21884696 0.050240938 0.25349936 -0.05191177 -0.062736645 0.1223308 -0.10822867 -0.02181908
0.04961745 -0.11503109 -0.26574942 -0.2689977 0.11475977 0.03491725 -1.1089526 -0.074346244
-0.022986446 -0.55221397 0.04838005 0.32771218 0.116931126 -0.9157082 0.0992126 0.046425894
0.35225457 0.21863191 -0.10847361 -0.1689897 -1.1654013 0.20543766 -0.052381203 0.035600897
-0.14069076 0.17481029 -0.011798989 -0.11087473 0.099282585 0.09422907 -0.25083116 -0.01138
0.019505136 -0.8561515 0.112238884 0.21087274 -0.08617874 0.15975825 -0.30870938 0.14999615
-1.4027282 -0.4846907 -0.23956788 -0.05295551 0.82881385 -0.39190838 0.28479394 -0.039158475
-0.031650648 0.17025886 0.090079516 0.17578125 -0.04960448 -0.02068009 -0.45348135 0.2501326
-0.6764271 0.12061331 0.34712502 0.009350294 -0.09192625 0.30652127 -0.10565352 -0.07424289
0.054334927 -0.20426324 -0.21547124 -0.05419109 0.07782524 0.10072424 -0.9541036 -0.12025952
0.3447844 -0.9238817 -0.19646524 0.21507029 0.13501757 -0.8456405 -0.031434916 0.082950585
0.43919575 0.27921918 0.030103475 -0.049300812 -2.0433238 0.047432218 0.053768694 0.084797345
-0.19227275 0.11591589 0.3905263 0.1828352 0.0833046 0.31661433 -0.32075503 -0.0932577
0.30276188 0.19092129 0.001474077 0.16001123 -0.0149200205 -0.17487 -0.09343671 0.048347235
0.16023469 0.6149832 -0.30028203 -0.01749016 0.4667162 -0.83388644 0.14459375 0.10716059
0.021820812 0.1364922 0.056252282 -0.027518911 -0.0012214842 0.035641238 -0.64059913 -0.16561683
-0.022248708 0.033654287 0.12032992 -0.05587678 -0.0444573 0.022244893 0.03655193 -0.09526959
-0.04308144 -0.058710348 -0.1880912 0.2196865 -0.0665534 -0.055395693 -0.1290688 0.022606231
-0.046668887 -0.11934284 -0.09406173 0.049665194 0.019784879 -0.046111 0.0676598 0.048796576
0.06685156 -0.30509531 -0.013435299 0.078270264 -0.056621663 -0.0478801 0.018163085 -0.04145924
-0.24889214 -0.0240733 -0.23497835 0.011064151 0.036508143 0.20072258 -0.06494882 0.05706292
-0.13635623 -0.44301182 0.10731319 0.11862239 -0.10535951 0.009854678 -0.014907446 0.22535908
-0.94589543 -0.22140095 0.11247701 -0.12016825 0.0020142505 -0.03063443 0.20906042 -0.09122364
-0.17293783 0.07623009 -0.052141223 0.17937708 0.28773534 0.106889874 0.058909934 0.20284608
-0.07993981 -0.0010320107 -0.3609058 -0.10061742 0.0756595 0.071429506 0.09871247 0.08342177
0.00029481668 0.09088712 0.08126973 0.0025402594 -0.05254978 0.12127315 0.019571375 -0.1066862
-0.20164832 -0.046610385 -0.04571591 0.056431215 0.09640109 0.029826017 0.062123906 0.101500526
-0.003774081 -0.03751204 0.01882959 0.0078115533 0.2499012 0.029335551 0.034831285 0.032562334
-0.09413267 -0.060637843 0.31346878 -0.16969922 0.087516315 -0.06599414 0.0836127 -0.010638991
0.016458333 -0.116423175 0.07978679 0.0013483511 0.12823513 0.03194291 -0.059448317 -0.022933306
0.12218626 -0.28186703 0.15943538 -0.07464389 -0.22347821 0.15789944 0.013579302 0.007110335
0.09450118 0.06750039 0.012537513 -0.23773475 -0.97976786 -0.02804309 -0.052119724 0.15844283

fc3.bias f4 [64]
00000000: 71ee a13d 0046 933c 6ea5 083d d4e3 f03d
00000010: dba9 55bc b0f1 f7bc 4d6f c7bd 17fd 793d
00000020: 0042 87bd 8594 a33e ddcc a63e 8257 12be
00000030: d2e1 03be c9ce 09bd 2c51 0ebe 099d ac3e
00000040: 7f65 183d d901 8a3e f488 013e ada9 c63e
00000050: e956 9f3e 6a29 55be d6ea 2dbd a02c 0c3d
00000060: 4d87 89bd fa41 0fbe 9021 583c e326 33be
00000070: ae13 063e a8c0 74bd ef16 2dbe 24aa 8d3d
00000080: 116b 583d 4405 a33e 7843 ccbd d24f c53d
00000090: e9dc 4d3e 0e90 033d 04eb 36be 1197 ce3c
000000a0: fe41 7fbc 1fbd fdbd 9832 89bd 451e 933d
000000b0: e802 123f dce3 97bd d695 01be 8126 e6bc
000000c0: 8cc9 ccbd f0e5 dabd 7f4b babd a99b df3e
000000d0: 2907 f13d 59a4 7a3b ec62 c8bd 4a1e a53d
000000e0: 7687 cfbd 1fa6 ab3c 840e 6c3d 1c70 dfbd
000000f0: 77e4 a03e ac06 4ebc ebb0 1ebd 1a0f f6bc
0.07906807 0.017977715 0.03336089 0.11762205 -0.013040985 -0.030266613 -0.09738026 0.06103238
-0.066043854 0.3194925 0.32578173 -0.14291194 -0.12879112 -0.03364447 -0.13898152 0.33713558
0.03720617 0.26954535 0.126499 0.38801327 0.31120995 -0.2081658 -0.042460285 0.034222245
-0.0671526 -0.13990012 0.013191596 -0.17495303 0.13093445 -0.059754044 -0.1690328 0.069172174
0.05283648 0.31839955 -0.09973806 0.09634365 0.20103802 0.032119803 -0.17863089 0.025218518
-0.015579699 -0.123895876 -0.06699103 0.07183508 0.57035685 -0.074165076 -0.12654814 -0.028094532
-0.099993795 -0.10688388 -0.09096431 0.43673447 0.11768944 0.0038244931 -0.09784493 0.08062418
-0.10133259 0.020953236 0.05763103 -0.10910055 0.31424305 -0.012574833 -0.03874294 -0.030036498

q_out.weight f4 [1, 64]
00000000: 5327 d0be abb9 8abe b750 b4bd 34c8 9d3d
00000010: 80a8 f0bd 0932 973f a11e aabe 7f68 a3be
00000020: 83ae 85be cb73 e53e 8065 1c3f 037c cebe
00000030: 1ad3 9abd 7ce5 a33e 87eb eabd 1ef8 3e3f
00000040: 8b6c f1bd 9502 e33e 9eea 093f fe94 823f
00000050: 219a c23f 9184 64bf a0bc db3e ca9b 803e
00000060: be52 a0bf 9734 afbd ac00 b9be eb4c d43e
00000070: 3ff8 cb3e 8ce4 5a3d 1047 bfbc 2bb9 8eba
00000080: c4a7 3dbe 2a1f a33e ea90 813b ccdd 483f
00000090: 16bd 413f 953c dbbc d410 5e3f af04 d2bd
000000a0: c8ae 55bf 85bc 963d fb9d a03e 4434 c13e
000000b0: de3a 973f 7b60 1ebf 07e3 8e3c 3c4d aa3e
000000c0: f49a f63c 66d5 f2bd 2e72 933b a942 fd3e
000000d0: 3e9e 463e 8848 b5be e0ef f0bd 731e 52be
000000e0: 55d6 993e 0d8b 11be 73be 82bf 6276 1ebe
000000f0: c3a1 f43e bed8 36bd dc41 713e ee7e 633e
-0.40655002 -0.27094778 -0.08804458 0.07704201 -0.11750889 1.1812145 -0.33226493 -0.31915662
-0.26109704 0.44814906 0.61092377 -0.40328988 -0.07559796 0.3201102 -0.114707045 0.74597347
-0.11788281 0.44337907 0.5387362 1.0201719 1.5203286 -0.8926478 0.42917347 0.25118858
-1.2525251 -0.085549526 -0.36133325 0.41464934 0.39837834 0.053440616 -0.023349315 -0.0010888925
-0.18521029 0.31859714 0.0039540427 0.78463435 0.7567915 -0.026762286 0.8674443 -0.102547996
-0.8346982 0.07360176 0.3137053 0.37735188 1.181484 -0.6186597 0.01744224 0.3326205
0.030103184 -0.11857109 0.0044996953 0.4946492 0.19396302 -0.354069 -0.117645025 -0.20519428
0.30046335 -0.142132 -1.021437 -0.15474847 0.47779664 -0.044640295 0.2356028 0.22216389
