model_flock/flock/agent_0/22_actor_params.pkl (torch, 39031 bytes, 8 tensors)

fc1.weight f4 [64, 8]
00000000: 7ec3 db3d 9f4f 63be c82b 1fbe c448 8bbe
00000010: 6f04 a0bc 6c73 613d a55b cc3e c04d eb3d
00000020: 8bb6 c43d 2f56 3fbe 10f7 2fbe b4b6 4dbd
00000030: dac3 da3d 8ced 9cbd 45f2 883e 543b 31be
00000040: a8e0 25bd d9c7 b5bc 0fc6 acbe b18e 6bbe
00000050: d341 74be c342 b43e c3de 173f 36f2 983e
00000060: 94c9 38be 89ce 6dbe 4111 9ebe c78f 673e
00000070: 5bc6 9d3d 58db 94be 5666 9e3d 5b08 82be
00000080: b85c 5f3c 7c14 a6bd d231 57be bf6f b03e
00000090: e2f8 e3bc 51d9 57bd 3e3e 233e 62d5 4fbe
000000a0: 88f2 103f bebf bf3d 00e4 483e 2a71 8bbd
000000b0: c7e1 89be 1002 c53e ef5d b03e 56df 80be
000000c0: f6b7 b7be 4f63 b1bc b6c3 773e 11eb 0f3e
000000d0: f772 efbb 98bb 903e 8f74 b33c a8d5 5c3e
000000e0: 17b3 b23e c690 f5bd cb79 29be 280d 7ebe
000000f0: c419 a4bd c29c 823e 123e 323e 43e6 043d
00000100: e505 ba3e 4920 71bd 4aee 1cbd a40e 883d
00000110: 9156 98be d5d0 983e 5a14 d63e d524 0c3f
00000120: 8e5f 9e3d 1372 173f 0a21 b1be 5cbf fc3d
00000130: 4d73 d3bd d94e 97be facd f7be 6591 7cbe
00000140: 948e 723d a639 67be ef7a 90be a8b8 09be
00000150: d543 7f3e a2f4 45be 6266 87be 70ad e83c
00000160: 5f8e b83e 7221 2ebe 1471 283e be09 66be
00000170: 5bc7 9fbe a16e 6ebd bc41 923e c5db 58be
00000180: 0f48 a73e a358 c13e 6fe5 bdbc c85e b3be
00000190: 1c04 a2be 1993 993e 24e0 34bd 02a0 68bf
000001a0: b270 4bbe 6371 443c 9ec5 4fbe 21cc fd3e
000001b0: c736 513e 1c6a fabe 7896 973e 1f8d 1e3f
000001c0: 52bc e9be bbf8 a63e b2e2 153e 27bb 73be
000001d0: dc8e 743d 188d f7bd 54a2 d2bd eecd e73e
000001e0: 36f6 c6bd 9f9a b83d 8627 7c3e ae85 8e3e
000001f0: a840 5b3e 0bc1 a3be 8e25 b5be 8135 433e
00000200: 47b1 63be 4bff e6bd 9e1f 8d3e 20f9 b1bd
00000210: 830c 1fbe 8c8d a73e 7a61 bebe f909 97bd
00000220: dbe4 13be d0be 5a3e bcc7 6cbe d14b 753e
00000230: 3859 8a3e ff2c 683b 5b8c 453e d8a5 54be
00000240: 92b1 b1be 878b 5c3e 57ff 853e 30e2 64be
00000250: 7641 c23e a021 383e 4af6 1abe 40a0 233d
00000260: 0cd7 a4bd e2ca 263e 4110 66bb 6fa6 cb3e
00000270: 890d ab3d 5f87 84be fc35 2abf d6ca dbbd
00000280: d489 1cbe 79f7 f6bd 6567 8a3e 1d25 143e
00000290: 0f71 9fbe 1a92 bfbe e832 0fbf d9c5 c83d
000002a0: 220f c5be 4b1e d1bd a8a7 7b3d 3a77 87bd
000002b0: 388f 293d 1588 b3be a59c c13e d1ca 6a3e
000002c0: 34f0 5cbe 2ef3 713b d2a8 fcbd 6be7 5abe
000002d0: ba5f 54be 3c4a 843e 6787 9d3e 322e 14bc
000002e0: 77fa d5bd 4640 e5bd 9a7b c13d f926 a8be
000002f0: 03c1 b33e efb3 ba3d 481d 9c3e 96c5 f2bb
00000300: ea38 673c c761 e63d 568a ef3d f57e aabe
00000310: 5d33 2a3b 530e 363c b0ae b83e 239e 233e
00000320: d872 adbe 0f39 b53e f473 68be ac2a 523e
00000330: 6730 703e 8ef1 3a3e cdb1 25be ac7d b3bd
00000340: 0bb1 debe b4e0 283e 1e1d 943e 7d16 90bd
00000350: bdeb 193e 105a dc3c 80a7 823e a417 963e
00000360: 3dcc 3a3e 136a 47be 1adc e8bd 6291 cebd
00000370: b7c7 c9be 0f4c 493e 8ba7 05bd 784a 543e
00000380: 38f7 99bd d19c dd3c 35cd 7f3e 9c14 c9bd
00000390: 259d bc3d 949b 27bd 81c5 db3e bae4 803d
000003a0: 21e2 9fbe 731d c0be 7069 d33d d71d 43be
000003b0: cd42 c53e c420 bd3d 94bc dfbd f2cb c03e
000003c0: 8765 6dbe 42c1 9f3d 4aca 293e eeed 8d3e
000003d0: 8b52 b03e b759 a73e 7615 1bbe 6033 c53e
000003e0: f0bc cbbe 824b fdbe e4fe b8bd bc77 b7be
000003f0: 2427 423e 6273 af3e 3a75 083e 5598 ce3c
0.107306466 -0.22198342 -0.15544045 -0.27203953 -0.019533364 0.055041716 0.3991367 0.11489439
0.0960513 -0.1868522 -0.1718409 -0.050223067 0.10681887 -0.07662496 0.26747337 -0.17307788
-0.040497452 -0.022190021 -0.33744857 -0.23003651 -0.23853235 0.35207185 0.5932428 0.29872292
-0.18045646 -0.23223318 -0.3087254 0.2261344 0.07703849 -0.29073596 0.07734363 -0.25397
0.013632946 -0.08109376 -0.21015099 0.34460256 -0.027828638 -0.052697483 0.15941712 -0.20296243
0.56620073 0.09362744 0.19618225 -0.06808694 -0.26930067 0.38478136 0.34446666 -0.25170392
-0.3588254 -0.0216538 0.24195752 0.14054514 -0.007307406 0.28268123 0.021906165 0.21565878
0.3490226 -0.11990504 -0.16550367 -0.24809706 -0.08012727 0.25510222 0.1740649 0.032446157
0.36332622 -0.05886868 -0.038313188 0.066434175 -0.29753545 0.29846826 0.41812402 0.547437
0.07733069 0.5915844 -0.3459552 0.123411864 -0.10324726 -0.29552343 -0.48399335 -0.24664839
0.059218004 -0.22580585 -0.2821879 -0.13449347 0.2492822 -0.19331601 -0.264453 0.028403014
0.3604612 -0.17004946 0.16449386 -0.22464654 -0.31206784 -0.058210973 0.28565776 -0.21177585
0.32672164 0.37762937 -0.023180692 -0.3503325 -0.3164376 0.2999504 -0.04415907 -0.9086915
-0.19867209 0.011989924 -0.20290229 0.495698 0.20431052 -0.4890908 0.29606986 0.61934084
-0.4565149 0.3261164 0.14637259 -0.23801862 0.059706554 -0.12087458 -0.10284868 0.452743
-0.0971493 0.09013867 0.24624452 0.27836365 0.21411383 -0.31983218 -0.35380214 0.19063379
-0.22235595 -0.11279162 0.27563184 -0.08690095 -0.15532117 0.3272518 -0.37183744 -0.07374949
-0.1444277 0.21361852 -0.23123068 0.23954703 0.27021194 0.003542721 0.19291823 -0.2076639
-0.34705788 0.215376 0.2617137 -0.22351909 0.37940568 0.17981577 -0.15133014 0.03994775
-0.080488294 0.16288331 -0.0035104903 0.39775416 0.08352191 -0.2588453 -0.66488624 -0.10732047
-0.15286952 -0.120589204 0.2703201 0.14467283 -0.31140944 -0.37416154 -0.5593705 0.098033614
-0.38488108 -0.10210856 0.061439186 -0.066145375 0.04139635 -0.3506476 0.37814823 0.22928931
-0.21576005 0.0036918628 -0.123368874 -0.21377341 -0.20739642 0.25837886 0.30767366 -0.009044217
-0.10448163 -0.111939 0.09447403 -0.32842234 0.35108194 0.09116351 0.3049109 -0.007408808
0.01411269 0.11249118 0.11696307 -0.33299986 0.0025970556 0.011111814 0.36070776 0.15978293
-0.3387668 0.35395095 -0.22700483 0.2052409 0.23455964 0.18256208 -0.16181107 -0.087642044
-0.43494448 0.16491967 0.28928465 -0.07035539 0.15031333 0.026898414 0.25518417 0.2931491
0.18241973 -0.19474058 -0.11370106 -0.10086323 -0.39410183 0.1965792 -0.032630485 0.20731533
-0.07517856 0.027052315 0.24980624 -0.09818384 0.092096604 -0.040919855 0.4292412 0.06293626
-0.3122721 -0.37522468 0.10322845 -0.19054352 0.38527527 0.09234765 -0.1092464 0.37655598
-0.23183261 0.07800533 0.16581073 0.27720588 0.34437975 0.32685634 -0.15144905 0.3851576
-0.39792585 -0.4947167 -0.090329915 -0.35833538 0.18960243 0.34267718 0.13325968 0.025219122

fc1.bias f4 [64]
00000000: 500f 4f3e 509f 023f bad4 c63e 7458 8f3d
00000010: 8233 a13e ae8c 8d3e b1a0 99be bfa6 543c
00000020: 91cc b33d 8218 20be 7f55 bd3d e106 bfbb
00000030: c426 83be 94a6 273e d02e 4f3e b813 2bbe
00000040: 4257 04bc 6446 7a3e cd32 2c3d 4950 0d3e
00000050: 0fd4 43be 5ab7 a1be 4a2f 8c3d a594 2abc
00000060: 5085 d83e 6f49 8d3e 579a 8fbe 7d12 a13e
00000070: 1958 0e3d 773e 6f3d ed63 57bd 3306 f63c
00000080: e3f1 883e 9839 2cbc 88b7 a93e d61c 123d
00000090: 68c9 473e 3698 ab3d 2238 ba3e 6210 273e
000000a0: 3e24 ed3d 3069 b5be 7bce ca3e 1604 0dbe
000000b0: 03d5 963e e0e1 603e 728f 5f3e e1dd 27be
000000c0: 91e8 9cbe 5691 37bd 10ce 223e 274a 893c
000000d0: 4a42 0ebe 9952 bbbe d115 c6bd 5960 a53e
000000e0: d88c 133e 49f7 5ebd f1bb a3be a58e 04bd
000000f0: cfb7 70be 2588 c4bd 0927 d4be 2037 f43e
0.20220685 0.5102434 0.38834172 0.06999293 0.3148461 0.27646393 -0.3000541 0.0129792085
0.08779252 -0.15634349 0.09244823 -0.0058296775 -0.25615513 0.16372138 0.20232701 -0.16706741
-0.0080774445 0.24440914 0.042040635 0.13800158 -0.19123863 -0.315852 0.06844957 -0.010411416
0.4228921 0.27595088 -0.2804744 0.31459418 0.034751985 0.05840918 -0.05258553 0.030032253
0.26747045 -0.010511778 0.33147836 0.03567203 0.19510424 0.08378641 0.3637095 0.16314843
0.11579178 -0.35431814 0.39610657 -0.1377109 0.2945939 0.21961164 0.21832064 -0.16393234
-0.30646184 -0.044816338 0.15898919 0.016758991 -0.13892475 -0.36586455 -0.0967213 0.3230007
0.14409196 -0.05443505 -0.31979325 -0.0323626 -0.23507617 -0.0959628 -0.4143603 0.47698307

fc2.weight f4 [64, 64]
00000000: 88b1 6c3c da5c 093e dc69 6dbd c3ac 16bd
00000010: f540 423d 5efa 0b3d 48bb 423e b151 223d
00000020: e450 8d3d b1b6 05be 0501 8c3c 71a9 2cbe
00000030: 1cbc 33be cb32 0bbd ea28 2f3a a60c ddbc
00000040: 7198 83bd d8f9 b6bc c65d e13d 7dbb ffbd
00000050: 4a40 0b3d 5ab1 433d c627 ad3d 32e8 063e
00000060: 41da fa3c a1aa 6e3d 42a2 013e ca0e fe3d
00000070: 0718 ccbd c258 cb3d 5ec5 0c3e 438d 533c
00000080: 179d 7e3d f10a 41bd a6a3 863b e02b 05be
00000090: c773 57bb 67b1 22bc 326f 453c 788c a2bc
000000a0: 3303 063e 65ce 18bd ab02 003e 6b76 d5bc
000000b0: 037c c0bd 271e 8dbe 424a fbbd 60be f03b
000000c0: 398c f2bd 58ff 663c 7517 cdbd c9a1 373e
000000d0: 45f1 1ebe 9459 36be 8339 e13d ac16 32be
000000e0: 1b4d 7abd 8ea2 b43d 529e c43d 7094 f0bd
000000f0: 82ec bf3d 43ec d33d 3dac b33d 876a 043e
00000100: c2e8 6a3d be23 823b 8cef ce3c 0dd3 67bd
00000110: 2b32 dcbd f976 7fbc 8adc 143e 549f 1b3c
00000120: 0a68 35bd 92c2 ac3b 7fc8 cfbc 916f 293d
00000130: 2413 e4bd f016 9abd 4f19 be3d c29c 81bb
00000140: 369b 943d 017b 44bb 4948 d03d 543e aa3c
00000150: 315e 8e3d ba70 a6bd a641 18be e5a8 6fbd
00000160: 98a3 c13d 6c68 83bb fee0 ecbc b8e4 933d
00000170: 7e3d cabd faac 70bd c92f 8bbd 5d97 8abd
00000180: 1f49 fe3d c5f1 06bd 3fa3 bd3b a49d 0fbd
00000190: e2a3 eb3d be28 913e eda3 013d 852e 01bd
000001a0: 4b5e 66bd 2bd1 2a3e e158 2ebe 7cff 01bd
000001b0: af25 a33d 023c 0f3c b3f2 753d e465 8c3d
000001c0: 5622 d43d 706f 853c faf2 453c ee9d 083d
000001d0: 114d 8d3d 0c8d 573e 7b3c b63d 1e78 3f3d
000001e0: 0d2b a83d a77a 5e3c 7d8b 9b3d c92b 013e
000001f0: eef0 313d c4eb d5bd cec7 dc3b 7f08 06bd
00000200: 5d69 c6bd 9d60 853d 96f8 5d3d de4f 02bd
00000210: d797 313d 750e 35be 7d97 6fbd 8fb5 92bd
00000220: 25ea 4d3e 57b5 f5bd 50f2 be3c 0d1b c2bd
00000230: 9e3d 433e 1951 9a3d ad31 e5b9 6ca5 de3d
00000240: 0ec2 213d 7f66 1f3d 113c 09be dbdb 0fbd
00000250: 9f7e 4e3e 61fc 0b3e fc65 913d fffa 33be
00000260: a71c 25be 4adf 8f3d 29f3 c4bd 95a3 0f3d
00000270: 5645 213d ca31 8b3c b510 a2bd fc71 75bd
00000280: e656 00bd dada 89bd ee9a 453e db27 4b3e
00000290: 3fd2 1e3d 8816 d8bd 869e 3c3e 30dd 583e
000002a0: 741e 973d 1eeb 253d 696d 493d a9f9 3d3d
000002b0: beb1 563b f032 a8bd a4cf 193e 77b2 8d3d
000002c0: 0910 20be 5426 d93d f9da 933d b236 15bd
000002d0: c3bc cdbd 2bd5 35be b5e0 4c3b 9180 733d
000002e0: ce36 bb3d fb59 33bd 9153 8fbb 2042 693d
000002f0: 06d6 10be d5c9 83b9 3131 6b3d 91a9 85bd
00000300: 1b49 b8bd 4e24 3e3d 7119 d5bd a325 a4bd
00000310: db7a a43d d365 09bc 678f e0bc a016 39bd
00000320: d1f3 943c cb97 203e 943e 65bc e6e0 f03d
00000330: d269 513d 5f49 14bd 0f4e 933d 6bdb 57bd
00000340: fa61 b7b8 0a25 04be f526 2abc b870 793d
00000350: 587b 553c 870a 0ebe 7232 273c f4a6 153d
00000360: 42aa 563d f801 1c3d 38ca b6bd 1c6b 283e
00000370: a61a 883d ec8a acbd 1c2c c53b 50b8 d93c
00000380: 8aa2 8e3d 4fca 8b3d 5624 a93d 0d4f 3b3e
00000390: 822e 8bbd 6909 3c3e b5d9 d3bd 5a70 403d
000003a0: e7e8 f33d fe84 cfbd b020 1a3e 5a80 da3d
000003b0: e52e a13c 774b bfbd af81 d93d 4b05 a63d
000003c0: 2aa3 fd3d fef9 513d 70ba 1ebd d19d 973e
000003d0: 0627 1ebe 270f 253c 740d 0abd 2c37 063d
000003e0: 71ee 9cbd 299e 06bd c7ec 143e 984f 19bd
000003f0: dabd 17be f58a ffbd 5abc 493c 43bf 1f3e
0.014446624 0.13414326 -0.057962283 -0.036785852 0.04742523 0.034174316 0.19016755 0.03962869
0.06900194 -0.13057972 0.01709033 -0.16861512 -0.17552227 -0.033983987 0.0006681817 -0.02698357
-0.0642556 -0.022335932 0.11004214 -0.124869324 0.033996858 0.047776558 0.08454852 0.13174513
0.03062165 0.058268193 0.12659553 0.124051645 -0.0996552 0.099290386 0.13747165 0.012912097
0.06216153 -0.047129575 0.004108864 -0.13005018 -0.0032875405 -0.009929991 0.012050437 -0.019842371
0.13087158 -0.03730621 0.12501018 -0.026057443 -0.09398653 -0.27562067 -0.12270023 0.007346913
-0.118431516 0.014098965 -0.1001424 0.1793281 -0.15521725 -0.17807609 0.109972976 -0.17391461
-0.06110869 0.08820067 0.0960051 -0.11747062 0.09371282 0.10347798 0.08773086 0.12931262
0.05735088 0.003971546 0.02526071 -0.056597758 -0.10751756 -0.01559233 0.14537254 0.009498436
-0.044288673 0.005272218 -0.025364159 0.041366164 -0.11136463 -0.07523906 0.09282171 -0.0039554546
0.07256167 -0.0029980543 0.10170037 0.020781673 0.06951559 -0.0812697 -0.14868793 -0.05851068
0.09455031 -0.004010251 -0.028915878 0.07221359 -0.0987501 -0.058758713 -0.06796224 -0.067671515
0.124162905 -0.032945413 0.0057872827 -0.035062447 0.115058675 0.28351396 0.031650472 -0.031538505
-0.05624227 0.16681354 -0.17026092 -0.03173779 0.07966172 0.008742334 0.06004591 0.068553716
0.103581116 0.01628849 0.012081856 0.03335374 0.06899465 0.21049899 0.088982545 0.046745412
0.08211336 0.013579047 0.07594965 0.12614359 0.04344266 -0.10445359 0.0067376858 -0.032722946
-0.09688065 0.06512568 0.05419215 -0.03181445 0.043357696 -0.17681296 -0.05849408 -0.07163536
0.2010885 -0.119974785 0.023308903 -0.09477816 0.19066474 0.075349994 -0.00043715295 0.108713955
0.039491706 0.038916107 -0.1340182 -0.03512178 0.2016549 0.13670494 0.0709953 -0.17576216
-0.16124211 0.07025011 -0.096166916 0.035068113 0.039372765 0.016991515 -0.07913343 -0.059923157
-0.031332873 -0.06731196 0.19297382 0.19839422 0.038774725 -0.105511725 0.18419847 0.21178126
0.07378855 0.04050743 0.049176607 0.046380673 0.0032759751 -0.082128406 0.15020615 0.06918805
-0.15631117 0.10603014 0.072195 -0.036429115 -0.10045769 -0.17757098 0.0031261866 0.059448782
0.091413125 -0.043786984 -0.0043739756 0.056947827 -0.14144143 -0.00025136644 0.05741996 -0.06526483
-0.08998319 0.04642134 -0.10405243 -0.08014991 0.08031245 -0.008386093 -0.02741213 -0.045187593
0.018182667 0.15682904 -0.013991971 0.11761646 0.05112631 -0.036202785 0.07192623 -0.052699488
-8.7443696e-05 -0.12904754 -0.010385265 0.060898513 0.013029896 -0.13871203 0.010204898 0.036536172
0.052408464 0.038087815 -0.08925289 0.16447109 0.06645708 -0.08424935 0.006017221 0.026577145
0.069645956 0.06825697 0.08258884 0.18291874 -0.0679598 0.18362965 -0.10344259 0.046982147
0.11909657 -0.10132788 0.15051532 0.10669012 0.019675681 -0.09340566 0.10620438 0.08106478
0.12384637 0.0512638 -0.03875202 0.29612592 -0.15444574 0.010074413 -0.033704236 0.03276746
-0.076626666 -0.032865677 0.14543448 -0.037429422 -0.14818516 -0.12477676 0.012312973 0.15600304

fc2.bias f4 [64]
00000000: c4aa bc3d 680e d8bd ea4b 9a3d 7743 c33d
00000010: 350c ccbc 469d 2fbe a4da 073d 638b 4cbd
00000020: b9a2 0cbe c111 493e b032 773d 9266 a7bd
00000030: 30a0 fe3d a2d2 4d3e 50f3 f8bd 374f 963d
00000040: 2252 4d3d 66d8 143e 8d8e 6abe d466 873e
00000050: 0f61 d9bc daec 85be 221e 0f3e afd2 b8bd
00000060: 6062 7cbd dab9 2fbe 1f0f ccbd e8b1 aa3d
00000070: c11a 83bd 4d4d 4b3d 79db ecbd 869c 97bd
00000080: bc17 d53d ca15 5f3e c074 8338 3573 afbd
00000090: 7205 793d 510d a23d 190a 3dbe d8a5 3bbd
000000a0: 03d3 2cbe e3e9 a93d 90c8 443e b7c3 d8bd
000000b0: a693 9cbc 8697 cc3d 45fa 193b 5f16 a4bd
000000c0: 48ef b23c 9187 903d efcf fd3d a531 2a3e
000000d0: 11cf 26be 7193 543d 2a58 3abe 4ad6 0ebe
000000e0: 686d 063e 6734 8cba 9357 f9bd 6905 c2bd
000000f0: 2069 c23c 5f58 6cbd cb48 8fbd 3d6c 30bd
0.092122585 -0.10549623 0.07534011 0.09534352 -0.024908165 -0.17149839 0.033167496 -0.049937617
-0.13733949 0.19635679 0.060351074 -0.081738606 0.12432897 0.20099881 -0.12155783 0.07339328
0.050127156 0.14535674 -0.22905941 0.2644564 -0.026535539 -0.26157266 0.13976339 -0.0902456
-0.061617255 -0.1716074 -0.099638216 0.08334714 -0.06401587 0.049634267 -0.115652986 -0.07402901
0.104049176 0.21785656 6.268313e-05 -0.08566896 0.06079621 0.07912696 -0.18460883 -0.045812458
-0.1687737 0.082965635 0.19217134 -0.10584205 -0.019113373 0.09989838 0.002349512 -0.080120794
0.021842614 0.07057107 0.12393176 0.166205 -0.16289927 0.051898424 -0.18197694 -0.13948932
0.13127673 -0.001069677 -0.121749066 -0.09473688 0.023731768 -0.057701465 -0.06996306 -0.043071974

fc3.weight f4 [64, 64]
00000000: c29b 0ebe 61c3 0dbc ad70 0abe e524 b0be
00000010: 8943 823d 757f dd3d 877f c53d 7fbc f23d
00000020: 042b 393e 0ddd c23c 04ba 72bd e985 5138
00000030: 3f1a acbe 2f53 edbd 3c38 3c3e 21d0 1b3e
00000040: 3ec9 ca3b 4637 3bbe cc44 f83d 56e7 07be
00000050: 8561 b33e bd72 8d3e 3ac8 c1bb e1e9 013e
00000060: 4377 85bd 6ea7 ea3d a3c6 5e3d 7cfb 1ebe
00000070: d45c a93d 3c22 433d e621 f13d cd94 b83d
00000080: a69c c4bd e68b 15be aac8 a7bc b88d 673e
00000090: 7815 8fbc 9cda 153e 140f 293e 93bf 433d
000000a0: c8a8 f33d b2f2 bebd a75f 493d 9f73 183d
000000b0: 9d9d 673e 64ad 89bb 0ad2 8abd 002d 2f3e
000000c0: 56b1 eebd 82ee febc ac9d 6ebd 6b3f cdbd
000000d0: 1d03 103e 35d3 7d3c 2133 173e e541 d2bd
000000e0: a67e bcbc f64c 33bd ce21 293e 8fd5 6a3d
000000f0: 0aef 68be 2326 a93d 7b2b af3d 17d2 5ebe
00000100: e727 3b3d 8483 bb3d 30f4 8fbe 5881 ed3d
00000110: 821b 3f3d e8bb 703d fee7 1abe 85fb 283e
00000120: 9774 b2bd ea1e 6a3d 2ef8 c33d c8d0 cebd
00000130: db86 2cbe 16cb f23c ef3d ba3d 3273 22be
00000140: 8f96 333e bbd3 963d 1bd5 fcbc 1c79 16be
00000150: 17d8 0ebe a662 6b3d cb8c bd3a 1529 abbd
00000160: 7936 df3d 77a6 4ebd 128d 843c 4031 f13d
00000170: 73e6 fb3d f2be de3d 0dd0 363d 49be c83d
00000180: c898 0dbe 57d9 9bbd 7eb6 2ebb 60f1 333d
00000190: cdcc 853c f0f7 01be f996 173e ac4f 5dbb
000001a0: cbab 2c3c 4cd1 413e f584 22be 30a4 02bd
000001b0: 9c1c 3ebd 7e4d 273c c86e 38bd 384f 073e
000001c0: dd74 efbd 640d f33d 1d6c e23d 1edc 9ebd
000001d0: 9cff 253e d754 b23c 0fb4 efbc 3465 223d
000001e0: 3105 c9ba 541c c8bd bf1c b4bd 3670 813d
000001f0: 7b20 023e 8ce0 9a3d ca97 04be f49c 233d
00000200: d8df 06bd 772a a13c f992 92bd 6503 babe
00000210: f9f7 a6bc 682c 5c3e 4c2f 2a3e e344 133e
00000220: 47f3 313d bddd 95bd 43d2 08bd 4833 1a3d
00000230: 4892 bfbe f8ba 433d c0a5 063e 379c 923a
00000240: 8f0a ff3d ef7e 21be b368 363e 7ccf 06be
00000250: 5915 663e 0dda bd3e c3f0 e6bd c75a 7a3e
00000260: 41e4 01bd db25 6b3e 8745 fdbd 3716 59be
00000270: 7319 1a3e 0e03 84bc e185 1ebd 7aeb 6cbb
00000280: 12d1 55bd ff59 81be 3364 99bd 7786 763e
00000290: 47f2 cb3c 73ca 173d 0821 673e 57be 2c3d
000002a0: bfa4 733e a59b 33be 744f d5bd 1faf b23d
000002b0: 0bb7 8e3e 7416 ac3d fda1 ccbd 43fd af3d
000002c0: 95ad dbbd a5c5 5fbc 5918 9dbd a712 dbbd
000002d0: af05 283e d15a 0abe 6f9e b43c b6a9 adbc
000002e0: 6e55 493d 65d5 1e3e 8869 983d 2ffc 92bd
000002f0: beb1 c9bd ff47 283e 395c 803e 0c03 25be
00000300: 9468 f93c 0a0e 903c f33a 913e 642d 35bf
00000310: 51d0 493d b294 7cbb db3d dc3d 1780 333e
00000320: 68c5 57bc 8e3a 4cbd e023 cbbc 30b8 a33d
00000330: 7d96 cdbd 082d 483d 0f97 b0be 1ac6 cbbc
00000340: f7f3 f13c b5fc f6bd 8e52 8f3d 1eed acbc
00000350: 0933 e03d bdf9 84bc 6ff2 58be aa96 4cbc
00000360: ed7b d4bc f2eb 76bd 194b dbbd ec66 e6be
00000370: 18a1 3dbe a8e0 023d a39f 47bd b5e6 0e3e
00000380: 957a f53d e39c 3cbe 0d16 dbbd 9849 b73d
00000390: 735d 9dbd 67cb 3b3e 63bb b03d b31d 5dbd
000003a0: a153 013e 0648 943c b378 bf3d e642 2e3d
000003b0: 660a bbbd 362f e1bd 6d12 a1be c747 0a3e
000003c0: fb97 24bd 1351 19bd 720c 573d fa18 36bd
000003d0: a345 adbe 8c8a be3d da0a 86be c461 24be
000003e0: 2449 61be 51bf aa3d a671 12be e7e4 24be
000003f0: b1fa d6bc 1266 b7bd ded7 3d3c b967 3dbe
-0.13926604 -0.008652539 -0.13519545 -0.34403148 0.063605376 0.10815326 0.096434645 0.11852359
0.18082815 0.023787046 -0.05925943 4.9954197e-05 -0.33613774 -0.11588132 0.18380827 0.15216114
0.0061885407 -0.18282804 0.12122497 -0.13271841 0.3503534 0.276266 -0.0059137614 0.12686874
-0.06516888 0.11457716 0.054388653 -0.15525621 0.08269659 0.04764007 0.11774044 0.090127565
-0.09600191 -0.14604148 -0.020481426 0.22612655 -0.017466292 0.14634174 0.16509658 0.04779012
0.11897427 -0.09323634 0.049163487 0.03721964 0.22618718 -0.004201578 -0.06778343 0.1710701
-0.11654918 -0.031119589 -0.058255836 -0.10021862 0.14063688 0.01549225 0.14765598 -0.10266475
-0.02300961 -0.043774568 0.16516802 0.05733257 -0.22747436 0.08259227 0.08553215 -0.2175983
0.04569235 0.09155944 -0.28115988 0.11596936 0.046657093 0.05877295 -0.1512756 0.16502197
-0.08713644 0.05715839 0.09568821 -0.100984156 -0.16848318 0.029637855 0.09093844 -0.15864256
0.17537902 0.07364603 -0.030863335 -0.14694637 -0.13949619 0.057467125 0.0014461515 -0.08357445
0.10899062 -0.050451722 0.016180549 0.11776972 0.12299814 0.10876264 0.044632006 0.09801919
-0.13827813 -0.07609814 -0.0026659067 0.043931365 0.016333008 -0.12692237 0.14803685 -0.0033769412
0.0105390055 0.18927497 -0.15871032 -0.031894863 -0.046414003 0.010211347 -0.045027524 0.13213813
-0.11692212 0.118677884 0.11055777 -0.07756828 0.16210788 0.02176897 -0.029260663 0.039647296
-0.001533663 -0.09771028 -0.087945454 0.06320231 0.12707703 0.0756236 -0.12948528 0.039944604
-0.032928318 0.01967357 -0.07156939 -0.36330715 -0.020381914 0.21501315 0.16619605 0.14381747
0.043444898 -0.07317684 -0.033403646 0.03764656 -0.3741629 0.04778573 0.13149166 0.0011185472
0.12453186 -0.15771078 0.17813377 -0.13165087 0.22469081 0.37080422 -0.112763904 0.24448691
-0.03171182 0.2296366 -0.12366777 -0.2119988 0.1504877 -0.016114738 -0.038701896 -0.0036151097
-0.052201338 -0.25263974 -0.074898146 0.24074732 0.0248958 0.037058305 0.22571194 0.04217371
0.23793314 -0.17539842 -0.10415545 0.08724808 0.27874026 0.0840272 -0.09991834 0.08593228
-0.107264675 -0.013657962 -0.076706596 -0.10696917 0.16408418 -0.13511206 0.022048203 -0.021199089
0.049153738 0.15511091 0.074420035 -0.071770065 -0.09848355 0.16433714 0.2507036 -0.16114444
0.030445375 0.01758482 0.28365287 -0.70772386 0.04927093 -0.0038540778 0.107539855 0.17529331
-0.013169624 -0.04986053 -0.02479738 0.07994115 -0.10038469 0.04887107 -0.3449025 -0.024874736
0.029535277 -0.12059919 0.06998168 -0.02110916 0.10947234 -0.016232366 -0.21186231 -0.012487093
-0.025937999 -0.06028361 -0.10707683 -0.45000398 -0.18518484 0.03195253 -0.048736226 0.13955195
0.11986271 -0.18419223 -0.10697565 0.08949584 -0.0768384 0.1833931 0.08629491 -0.0539834
0.12629558 0.01810075 0.093491934 0.042544268 -0.09132843 -0.10995333 -0.3145937 0.13503943
-0.040184002 -0.037430834 0.052502103 -0.044457413 -0.3384219 0.093037695 -0.26180154 -0.1605292
-0.22000557 0.08337272 -0.14301166 -0.16102944 -0.026242586 -0.08955015 0.011587111 -0.18496598

fc3.bias f4 [64]
00000000: 6ef8 4dbe 2ecb dbbd f572 bcbd 166d 003c
00000010: c787 f5bc 0b50 dfbc 31e7 e33d b76e febc
00000020: 7a88 65be 246f 3dbe d837 59bd a2bc 193d
00000030: dcd1 10be 556c 9abd 5d6b bebc 2477 26bd
00000040: e139 84bd 5901 2abd 94a3 23be 32fc fbbd
00000050: df7f 87bd 499f b13b 133d e3bd 33c0 44be
00000060: d02c f4bd 1b37 b9bd e40f a73d f814 85bd
00000070: a252 943d a979 0e3e 0b44 21bd f8d7 16be
00000080: 61c7 e4bd f79b ac3d 4a38 34be 46dd 4a3d
00000090: e02d 41bd d013 d6bc 1567 c43c 307e 78bb
000000a0: c1ff 053d 12bb 9b3d e519 6c3d c7d4 423d
000000b0: 101c 00bc 69b3 8e3d cc07 8ebd 7ea1 41be
000000c0: 2cc2 853d 0223 90bd 36e9 25bc 00fa ccbc
000000d0: 808b 133d e9b5 f23d e2ba d9bd 4d93 133e
000000e0: c9a7 6cbe c2ea b7bd 1f50 e23c 42c1 7ebd
000000f0: 4db4 0abd eba4 eebc c41e 07bd e902 9c3d
-0.201143 -0.10732113 -0.09201614 0.007838508 -0.02997197 -0.027259847 0.11128081 -0.031058652
-0.22415343 -0.18499428 -0.053031772 0.03753341 -0.14142555 -0.07540194 -0.023244554 -0.040640965
-0.06456352 -0.04150519 -0.15980369 -0.12303962 -0.06616186 0.0054205996 -0.11095633 -0.19213943
-0.1192261 -0.09043714 0.08157328 -0.0649814 0.072423235 0.13913597 -0.03937153 -0.14730823
-0.11170841 0.084281854 -0.17599598 0.04952743 -0.04716289 -0.026132494 0.023974935 -0.003791701
0.03271461 0.0760404 0.057641882 0.0475662 -0.007819191 0.069678135 -0.06935081 -0.1890926
0.06531176 -0.07037927 -0.010126403 -0.025021553 0.03602171 0.11851103 -0.10631348 0.1441166
-0.2311088 -0.089803234 0.027626095 -0.062196024 -0.033863354 -0.029131373 -0.032988325 0.076177426

action_out.weight f4 [2, 64]
00000000: c8ec f33f 0f8a e0bd efc2 e33f b2d9 603e
00000010: f590 063e b401 393e b837 36be 9dea a13f
00000020: be07 843f 63ea c63f 7029 173e 5111 fcbc
00000030: 5f31 df3f 485e 703e 0e5b ea3d a676 16be
00000040: 3ad2 03be 45d7 c53d eb4d 2a3e 2869 0840
00000050: f711 0b40 e553 c7bd b000 7c3f 37d9 9a3e
00000060: 6e42 ceb9 2b05 943d 640a 9dbd ca59 85be
00000070: cec2 f7ba 8dfc 79bd 4e9e 043d 276e b73c
00000080: 1447 16bf f416 11bd 42f9 023f f1c6 193e
00000090: fad1 2cbe 07c6 86bd c87d 903d 1a81 0e3e
000000a0: fc00 fb3d 0250 8f3e 0402 d03d 9463 cdbc
000000b0: 44a2 763d b342 983e 7b15 483d c50d 2d3f
000000c0: 3a43 58bd f710 023e 692e bbbc 44b9 fabd
000000d0: 748d c13d f6b4 8f3e f14e 9dbd bf8a 38be
000000e0: a4a2 35bb 40ab aabd 73d1 0dbe 8e63 e83c
000000f0: f6f2 28be cc8d d3bd 923b 943e 6905 e43d
00000100: 466c 39be b064 933e 4694 75be 75f2 19bf
00000110: 0bcb 0c3d e838 22be 86b0 24be ab62 93bd
00000120: dcf2 943c 8ac7 f6bd 4c2e 5ebc 172a 253e
00000130: f27d d13e 20b0 83bd 5572 6cbd d0fc c1bd
00000140: c1f2 d13d 0668 173e 943c 86be a06e 8d3d
00000150: 1c4b d93d 154e 43bd b4f5 ca3e 1d29 0abf
00000160: d0e2 0c3e eac7 863b 1f5f 3d3d 5ef8 89be
00000170: cc3a 11bf cef7 1dbe 3681 fdbe d471 a93d
00000180: 2f5e 843e 48ff c5bd 12d2 49be 40d3 0e3e
00000190: 91ce 313d 5a75 93be 1ef2 66bd 6a46 36be
000001a0: 9896 1c3d 8275 01be cc0d e73d 5afe 7f3e
000001b0: 22a0 0f3e 71fa 003e 3b3f 61be 3411 52be
000001c0: 387b 9fbd c202 a3bd 72cd 6a3e 404b 6abd
000001d0: 1c57 9abd 7a0f 63be e5d5 0a3e aad0 92bd
000001e0: 4db2 723f 0486 c93d 45ad 07bd 2ecd a73d
000001f0: 470e 2abe e213 61bf adf1 a6be 4ca6 193e
1.9056635 -0.109638326 1.7793864 0.21958044 0.13141234 0.18067056 -0.17794693 1.2649723
1.0314863 1.5540279 0.14761901 -0.030769976 1.7436942 0.23473465 0.114431486 -0.14693698
-0.12873164 0.096602 0.16631286 2.1314182 2.1729715 -0.097327985 0.9843855 0.30243847
-0.00039340876 0.07227548 -0.076679975 -0.26045066 -0.0018902661 -0.061031867 0.032377534 0.022391392
-0.58702207 -0.03542228 0.5116159 0.15017296 -0.16876975 -0.065807395 0.07055241 0.13916436
0.12256047 0.2799073 0.101566344 -0.025071897 0.060213342 0.29738387 0.04884861 0.67599136
-0.052798487 0.12701784 -0.022849279 -0.12242368 0.09450808 0.2806775 -0.076810725 -0.18021677
-0.002771535 -0.083334446 -0.1384943 0.028367784 -0.16498932 -0.1032978 0.289517 0.111338444
-0.1810771 0.28787756 -0.23982343 -0.60135585 0.034373324 -0.1584202 -0.16082963 -0.07196554
0.01818221 -0.12049778 -0.013560843 0.16129337 0.409164 -0.064300776 -0.057726223 -0.09472048
0.1025138 0.14785776 -0.26218092 0.06905866 0.10610029 -0.047681887 0.39640582 -0.53968984
0.13758397 0.004113187 0.046233293 -0.26947302 -0.5673034 -0.15426561 -0.49512643 0.08273664
0.25853106 -0.09667832 -0.19709042 0.13947773 0.043409888 -0.2880047 -0.056383245 -0.17800298
0.038229555 -0.12642482 0.112819284 0.24999371 0.1402593 0.12595536 -0.21996777 -0.20514375
-0.07787174 -0.079595104 0.22929934 -0.05720067 -0.07536146 -0.22173873 0.13558157 -0.07168706
0.94803315 0.098400146 -0.033124227 0.08193432 -0.16607009 -0.87920964 -0.3260626 0.15004843

action_out.bias f4 [2]
00000000: 5dbf 893c b2f3 b03c
0.016814882 0.021600578
