model_flock/flock/agent_0/5_critic_params.pkl (torch, 39287 bytes, 7 tensors)

fc1.weight f4 [64, 10]
0	0xbeec169c	-0.46111
1	0xbd6b5252	-0.057451554
2	0xbe3a8c87	-0.1821767
3	0x3cde7ce3	0.02715916
4	0x3ec46dfb	0.38365158
5	0x3dfce3d5	0.12348143
6	0xbe473d62	-0.1945701
7	0x3e9903d1	0.29885724
8	0xbc15d817	-0.009145758
9	0xbd9fa8ad	-0.07795844
10	0xbdf232a8	-0.11826068
11	0xbd8a7ebf	-0.06762456
12	0x3d777425	0.0604135
13	0xbe4f7eac	-0.20263165
14	0x3cd398dc	0.025829725
15	0x3e81f6f1	0.25383714
16	0x3ebc2dc9	0.3675368
17	0x3f5e1153	0.86745185
18	0x3ec4ae40	0.38414192
19	0xbd31dfeb	-0.043426435
20	0xbe4d38ea	-0.20041242
21	0x3ea5c5f1	0.3237758
22	0x3d3988a1	0.045296315
23	0x3e8aea43	0.27131853
24	0x3dcd7ec7	0.100339465
25	0xbd68719f	-0.056748983
26	0x3ec8ca83	0.39217004
27	0xbe7cc52e	-0.24684593
28	0xbf13bb93	-0.5770809
29	0x3f14780f	0.57995695
30	0x3d0fba27	0.035089638
31	0x3e065bcc	0.13120955
32	0xbe2041b5	-0.15650065
33	0xbd84f764	-0.064924985
34	0xbf004690	-0.5010767
35	0xbc45dee3	-0.012077066
36	0x3df49865	0.119431295
37	0xbcfce053	-0.030868685
38	0xbbd2c803	-0.0064325347
39	0xbed352a8	-0.41274
40	0x3eda055b	0.4258221
41	0x3eddc76f	0.43316218
42	0x3d1d4e15	0.038404543
43	0x3eec7602	0.46183783
44	0xbe93cee5	-0.28868786
45	0xbf07b78a	-0.53014433
46	0x3e4e3526	0.20137462
47	0x3d4b3ded	0.049619604
48	0x3d5f2c12	0.054485388
49	0x3e00d9a9	0.12583031
50	0xbe6915ef	-0.22762273
51	0xbf3853e6	-0.7200302
52	0xbe265c36	-0.16246113
53	0x3e28436f	0.16431974
54	0xbecc89f0	-0.39948988
55	0x3e5f743e	0.21821687
56	0x3db27d95	0.08715359
57	0xbf944274	-1.158278
58	0xbea70a1b	-0.32624897
59	0xbd896418	-0.067085445
60	0x3e9396ec	0.28826082
61	0x3ddb73b4	0.10715428
62	0x3ea0a8d7	0.31378815
63	0x3e003f69	0.12524189
64	0x3e809cf7	0.25119755
65	0xbe7bb287	-0.24579822
66	0x3f284102	0.65724194
67	0xbeb90fc1	-0.36144832
68	0x3e24b112	0.16083172
69	0x3d5bd222	0.053667195
70	0x3eaa6902	0.3328324
71	0x3e3dc356	0.18531546
72	0x3e2eaab6	0.17057309
73	0xbe253daa	-0.16136804
74	0x3e3d6cd3	0.18498544
75	0x3e1d48ce	0.15359804
76	0x3e82c9c9	0.25544575
77	0x3ee68f15	0.45031038
78	0x3e3ac269	0.18238224
79	0xbe83c87a	-0.2573889
80	0x3c85c434	0.016328909
81	0xbd42ea78	-0.047586888
82	0x3e87bfaf	0.2651343
83	0xbe0852a8	-0.13312781
84	0xbdc0e935	-0.09419481
85	0x3e5baacb	0.21451871
86	0xbe2b446f	-0.16725324
87	0x3ede9e86	0.4348032
88	0x3db153ff	0.08658599
89	0xbe093f7d	-0.13403125
90	0xbd1c53ab	-0.03816573
91	0x3e80dfb8	0.25170684
92	0x3bab31d3	0.0052244454
93	0xbde19ca2	-0.110162035
94	0xbd83b18c	-0.06430349
95	0xbdc5f72e	-0.096662864
96	0x3f15b481	0.5847855
97	0xbf057720	-0.52134895
98	0xbf0e6610	-0.55624485
99	0x3e865282	0.26234823
100	0x3ee636c5	0.4496366
101	0xbdf5bbab	-0.119986854
102	0x3e6dff3f	0.232419
103	0xbe1501fd	-0.1455154
104	0xbda6922a	-0.08133347
105	0x3d9c287d	0.0762491
106	0x3db83aa8	0.08995563
107	0x3f4d5cf0	0.80219936
108	0xbddee979	-0.10884375
109	0x3ce5e992	0.028065477
110	0x3dcc02b4	0.09961453
111	0x3d957905	0.07298473
112	0x3d79ba97	0.06096896
113	0xbcf730d4	-0.03017465
114	0x3d57c4f9	0.052678082
115	0xbe541761	-0.20712043
116	0xbd296c26	-0.041362904
117	0x3e1a7811	0.15084864
118	0x3cb032aa	0.021508534
119	0x3d269b80	0.04067564
120	0x3dbeab08	0.09309965
121	0xbde68294	-0.112553746
122	0x3d8a7e9a	0.067624286
123	0xbcd1bfd5	-0.025604168
124	0xbf28010a	-0.65626585
125	0x3e6f1252	0.23346832
126	0xbe2e1e78	-0.1700381
127	0x3eef143a	0.4669512
128	0x3e4efdcc	0.20214003
129	0x3d07be33	0.033140372
130	0x3ecc75de	0.39933676
131	0x3eab4e63	0.33458242
132	0x3e9f35e9	0.31095818
133	0x3db30fb6	0.08743231
134	0xbdedcbfa	-0.11611171
135	0xbc1ea917	-0.009683869
136	0xbef5ed4b	-0.48032603
137	0x3e5c94f0	0.2154119
138	0x3db9176a	0.09037669
139	0x3e53e1bc	0.2069158
140	0x3e6bf194	0.23041373
141	0xbe950250	-0.29103327
142	0xbd48afef	-0.04899591
143	0xbe355211	-0.17707087
144	0xbef1d389	-0.472317
145	0xbd3f1137	-0.046647277
146	0x3e569736	0.2095612
147	0x3e1577c7	0.14596473
148	0x3e92171b	0.28533253
149	0xbe88aa6a	-0.26692516
150	0x3eddb574	0.433025
151	0xbe0e2b26	-0.13883647
152	0x3e567d8b	0.20946328
153	0xbd28c7b6	-0.041206084
154	0x3e7330df	0.23749112
155	0xbe81592d	-0.25263348
156	0xbed23ea2	-0.4106341
157	0x3f11866e	0.5684575
158	0x3ee56f2b	0.44811377
159	0x3ebdff10	0.3710866
160	0xbec2e3bd	-0.38064376
161	0xbe880f9e	-0.26574415
162	0xbea0c032	-0.31396633
163	0xbe32f065	-0.17474516
164	0x3e6ecb00	0.23319626
165	0x3eb36195	0.35035387
166	0x3e2e4713	0.170193
167	0x3f6cdc2c	0.92523456
168	0xbe41a2d7	-0.18909775
169	0xbdb63897	-0.088975124
170	0xbe655abd	-0.22397895
171	0xbdcfc4fc	-0.10144994
172	0x3e326064	0.17419583
173	0xbbe3a486	-0.006947103
174	0x3f12bf07	0.57322735
175	0xbe5640d4	-0.20923167
176	0x3e4d6948	0.20059693
177	0x3f2d97b2	0.67809594
178	0xbdf6c37a	-0.12049003
179	0xbe014036	-0.12622151
180	0xbed36f7e	-0.41296
181	0xbc8e3d67	-0.017363263
182	0x3d0d04b6	0.03442832
183	0x3dd3faea	0.103505924
184	0x3ee0f36c	0.43935716
185	0x3ddc79aa	0.10765393
186	0xbd1ca28c	-0.038240954
187	0x3eae8133	0.34082946
188	0xbe08b45a	-0.13350049
189	0x3cf54633	0.0299407
190	0xbf459136	-0.771747
191	0xbecbbade	-0.39791006
192	0xbe46081f	-0.19339035
193	0x3a9ebcad	0.0012110673
194	0xbd3adbd0	-0.045619786
195	0xbe1562d3	-0.1458848
196	0x3ed27cbc	0.4111079
197	0x3f1ab9d2	0.6043979
198	0xbe9a37f8	-0.30120826
199	0x3ed30c01	0.41220096
200	0xbdb65d1d	-0.08904479
201	0x3d39efa7	0.045394566
202	0xbe6277e7	-0.22116052
203	0x3e5a82ac	0.2133891
204	0x3e8d00d8	0.27539706
205	0xbe33101e	-0.17486617
206	0x3d6d0504	0.05786611
207	0xbe363833	-0.17794876
208	0xbe9f8a2e	-0.3116011
209	0xbe30e59d	-0.1727509
210	0x3dda743b	0.106667005
211	0xbd8b6317	-0.06806009
212	0x3e7aa2b5	0.2447613
213	0xbdb030ad	-0.08603034
214	0xbe5b2bf7	-0.2140349
215	0xbe76a217	-0.2408527
216	0xbf869eb3	-1.0517181
217	0x3e4f8a2e	0.20267555
218	0x3d975488	0.0738917
219	0x3de10861	0.10987926
220	0xbcbc92b3	-0.02301917
221	0xbe1459c7	-0.14487372
222	0x3e8ace95	0.27110735
223	0xbe725003	-0.23663335
224	0x3dbc96c2	0.09208442
225	0xbd093fc9	-0.033508096
226	0x3e98cc1d	0.29843226
227	0x3f797dae	0.97457397
228	0x3e77a539	0.24184121
229	0xbbbb8023	-0.005722062
230	0xbe2c80d1	-0.16846015
231	0xbdf64b71	-0.12026108
232	0x3d075305	0.033038158
233	0x3e0b2acd	0.13590546
234	0x3f093ec4	0.536114
235	0x3d355964	0.044274703
236	0xbdcca3d3	-0.099921845
237	0xbe22087d	-0.1582355
238	0x3cd92c81	0.026510479
239	0x3e699a45	0.22812755
240	0x3e832df3	0.25620994
241	0xbd6c07eb	-0.05762474
242	0x3e05e636	0.130761
243	0xbe28fbff	-0.16502379
244	0x3efbdfd4	0.49194205
245	0xbe843033	-0.25818023
246	0x3d224e4e	0.03962546
247	0xbe4c8e9e	-0.19976279
248	0x3e44ce62	0.19219354
249	0xbd03012d	-0.031983543
250	0xbf3071d7	-0.68923706
251	0xbe99fdcd	-0.30076447
252	0xbe2645af	-0.1623752
253	0xbe17afe9	-0.14813198
254	0x3e8275ee	0.25480598
255	0xbe96611a	-0.29370958

fc1.bias f4 [64]
0	0xbea336c3	-0.31877717
1	0x3e1a7170	0.15082335
2	0xbd9ac601	-0.075572975
3	0xbd2ce0e4	-0.04220666
4	0x3e0b9235	0.13629992
5	0x3e52365a	0.20528546
6	0x3debaab8	0.115071714
7	0x3ead8e85	0.33897796
8	0xbe80c142	-0.25147444
9	0x3f2fa797	0.68615097
10	0x3e1b6c06	0.15177926
11	0x3f01b4c4	0.5066645
12	0xbeb04178	-0.3442495
13	0xbc2fc979	-0.010729187
14	0x3de7211c	0.11285612
15	0xbdd20754	-0.10255304
16	0xbe788b37	-0.24271856
17	0x3dc606f4	0.09669295
18	0xbdc858c2	-0.09782554
19	0xbcbb6606	-0.022875797
20	0xbf02f5fa	-0.5115658
21	0xbd7965c3	-0.060888063
22	0xbef80f26	-0.48449057
23	0xbe9f4608	-0.31108117
24	0xbe95939e	-0.29214185
25	0x3e45ddae	0.19322845
26	0x3f085794	0.53258634
27	0x3f2a2129	0.6645685
28	0x3edc3e4d	0.43016282
29	0xbea75e9d	-0.32689372
30	0x3e2e80f1	0.17041375
31	0xbeea8995	-0.45808092
32	0xbe688e35	-0.22710498
33	0xbf009b15	-0.50236636
34	0x3f0a12f2	0.5393516
35	0xbd10a63b	-0.03531478
36	0x3de27fe8	0.110595524
37	0xbdc02137	-0.09381335
38	0x3ed0d1d7	0.40785095
39	0xbc3d3ace	-0.011549665
40	0x3ef396d4	0.4757601
41	0xbe57e756	-0.21084341
42	0x3d4b4f78	0.049636334
43	0xbe24559d	-0.16048284
44	0x3f0fc48b	0.56159276
45	0xbe85da62	-0.26143175
46	0xbe9478ab	-0.28998312
47	0xbe3b0d7e	-0.18266866
48	0x3e4d6036	0.20056233
49	0x3ee1f602	0.44133002
50	0x3c47b415	0.012188931
51	0x3dc1a308	0.09454924
52	0xbe7016d0	-0.23446202
53	0x3d3c8caf	0.046032604
54	0x3ec59aab	0.38594565
55	0x3eafa1e9	0.34303215
56	0x3d866e3e	0.06563996
57	0x3d8c7b2a	0.06859429
58	0x3d9932b2	0.074803725
59	0x3e79d1e4	0.24396473
60	0x3ccda387	0.02510239
61	0x3f3ff049	0.7497602
62	0x3df8c4cb	0.1214691
63	0x3ebbb869	0.3666413

fc2.weight f4 [64, 64]
0	0xbd1408c2	-0.036141165
1	0xbd9d3a38	-0.0767712
2	0xbefc3750	-0.4926095
3	0x3e5de7f5	0.21670516
4	0x3d6e2019	0.05813608
5	0x3c842698	0.016131684
6	0x3da52398	0.080634296
7	0xbf9a5fea	-1.2060521
8	0xbbc4b8c0	-0.006003469
9	0xbe82e1b6	-0.2556283
10	0xbe260d2c	-0.16215962
11	0x3d518bbe	0.05115866
12	0x3ca8e498	0.020616814
13	0x3dc99e08	0.09844595
14	0xbde8cc41	-0.11367083
15	0x3b2d6740	0.0026459247
16	0xbbbfc916	-0.0058528287
17	0x3d3d52a1	0.04622138
18	0xbf29ec8f	-0.66376585
19	0x3d79d6ee	0.06099599
20	0xbd0879f5	-0.033319432
21	0x3ce8c1f8	0.028412804
22	0xbd7cc452	-0.061710663
23	0xbecfb7aa	-0.40569812
24	0xbf89f530	-1.077795
25	0x3de0b89a	0.1097271
26	0x3b9e06b5	0.004822577
27	0x3e3cdb3d	0.18443008
28	0xbdf3321a	-0.118747905
29	0xbeae6dd6	-0.34068173
30	0xbf1647e4	-0.58703446
31	0xbdd91c56	-0.10601108
32	0xbe06404f	-0.1311047
33	0x3dfe4ab6	0.12416594
34	0x3cd3dac6	0.025861155
35	0xbccc9aa3	-0.02497608
36	0xbf672c12	-0.9030162
37	0xbe19fbac	-0.15037411
38	0xbed5d85f	-0.4176664
39	0xbdc9b0aa	-0.09848149
40	0x3d82e0b6	0.063905165
41	0x3e654d26	0.22392711
42	0xbd30fe8b	-0.0432115
43	0x3e16f374	0.14741307
44	0x3ea9f490	0.331944
45	0x3da33db1	0.07970751
46	0xbe0e31eb	-0.1388623
47	0x3cbe8331	0.023255916
48	0x3d386132	0.045014568
49	0x3f1327b8	0.5748248
50	0xbe206a2b	-0.156655
51	0x3e1230b9	0.14276399
52	0x3daf5b8d	0.08562384
53	0x3dca3e15	0.098751225
54	0xbf510404	-0.8164675
55	0x3c1625d3	0.009164291
56	0x3d099bca	0.033595838
57	0xbe165057	-0.14679085
58	0x3e30acae	0.17253372
59	0xbd067d52	-0.03283436
60	0x3dc74160	0.09729266
61	0xbe888285	-0.26662078
62	0x3f00e619	0.503511
63	0x3d0816f7	0.033225026
64	0x3e0bad0b	0.1364023
65	0xbbdc6059	-0.0067253527
66	0x3ddefde7	0.10888272
67	0xbd9e4bc4	-0.07729295
68	0x3cb72105	0.022354612
69	0xbd5d19cd	-0.053979684
70	0x3c6c8a75	0.014437308
71	0xbdc4d26d	-0.09610448
72	0x3c1fcdc8	0.009753652
73	0x3dbeb3bf	0.093116276
74	0x3ccd9a62	0.02509803
75	0x3da84b87	0.08217531
76	0x3e2d7fb5	0.16943248
77	0xbeb13a75	-0.34614912
78	0x3e601ad6	0.21885237
79	0xbd22b8ca	-0.03972701
80	0x3e073668	0.13204348
81	0x3d879100	0.066194534
82	0x3d8df038	0.06930584
83	0x3dca5165	0.09878806
84	0x3e1205dd	0.14260049
85	0xbdd6d78e	-0.104903325
86	0x3d88f814	0.06687942
87	0xbd9f6284	-0.07782462
88	0xbdaa496a	-0.08314784
89	0x3d299cb5	0.041409213
90	0x3e2e31ad	0.17011137
91	0x3e4cd0cf	0.20001529
92	0x3c32f03f	0.010921537
93	0x3d49de7e	0.04928445
94	0x3d94af8d	0.07260046
95	0xbd9bd2eb	-0.07608589
96	0xbd86b371	-0.065771945
97	0xbe174ea7	-0.14776097
98	0x3e8541d8	0.26026797
99	0xbdff9d1e	-0.124811396
100	0x3da385b3	0.079844855
101	0xbcd16810	-0.025562316
102	0x3e09d798	0.13461149
103	0x3eaebc34	0.34127963
104	0xbd8f87d8	-0.07008332
105	0xbda3c6f0	-0.07996929
106	0x3dee7cdb	0.11644908
107	0xbc0c3631	-0.008557842
108	0xbd46487b	-0.048408967
109	0x3db88ea9	0.09011585
110	0xbc86aaad	-0.016438806
111	0xbd9c2499	-0.07624168
112	0x3e16103a	0.14654627
113	0x3ddc01b5	0.10742513
114	0x3d327a91	0.04357392
115	0xbdd90ed7	-0.105985336
116	0xbd220b36	-0.039561473
117	0xbd98f0a7	-0.07467776
118	0xbd84acaf	-0.06478249
119	0x3bf7df7e	0.007564484
120	0x3d1d3c5d	0.038387645
121	0x3c695553	0.014241534
122	0xbc615ecb	-0.013755511
123	0xbd226eb7	-0.039656367
124	0x3e0b12ca	0.13581386
125	0x3e8f9120	0.2804041
126	0xbe39ae17	-0.18132816
127	0x3de6c771	0.11268509
128	0x3de6a54f	0.11261999
129	0x3e1381f4	0.14405042
130	0x3cd3727f	0.025811432
131	0x3e05326b	0.13007514
132	0x3ee8dd67	0.45481417
133	0xbd3de878	-0.046364278
134	0x3d097dce	0.033567242
135	0xbd9e320b	-0.07724389
136	0x3e4bb055	0.19891484
137	0xbd7a1ab5	-0.061060626
138	0xba710bba	-0.0009195168
139	0x3d2f7baf	0.042842563
140	0x3eadc643	0.33940324
141	0xbdd24a78	-0.1026811
142	0x3eb152c0	0.34633446
143	0xbda74ddd	-0.08169148
144	0xbde3512f	-0.11099469
145	0xbceb8c2b	-0.02875336
146	0xbdc1a876	-0.094559595
147	0xbc4c06fd	-0.012452838
148	0x3d9243a5	0.071418084
149	0xbe270721	-0.16311313
150	0x3e2c6fe0	0.16839552
151	0xbdae69f4	-0.08516303
152	0xbd99e494	-0.07514301
153	0xbcbb513b	-0.022865882
154	0xbd5f5f2e	-0.05453413
155	0xbdfa69ce	-0.12227212
156	0xbeb8e0c8	-0.36108994
157	0x3dcfa838	0.10139507
158	0x3e999aef	0.30001017
159	0xbcbf8b20	-0.02338177
160	0x3b34d5a6	0.0027593165
161	0x3e8b0b13	0.27156886
162	0x3d4e1cf7	0.05032059
163	0xbf5f2cce	-0.8717774
164	0xbdd5ed24	-0.104456216
165	0xbe6aae19	-0.22917975
166	0xbde57ee1	-0.11205841
167	0x3e55a2e2	0.20862916
168	0x3dcf9d9d	0.10137484
169	0xbe5607d1	-0.20901419
170	0xbcdb26d5	-0.026751915
171	0x3cafcd44	0.021460183
172	0xbd9c331e	-0.07626937
173	0x3d463053	0.04838593
174	0x3e582f00	0.21111679
175	0x3cd13047	0.025535716
176	0xbd1ad3ea	-0.037799753
177	0x3dab33d0	0.08359492
178	0x3d6b6131	0.057465736
179	0xbe92748a	-0.28604537
180	0xbd4be52a	-0.049779095
181	0x3defb33d	0.11704109
182	0x3e6f3e73	0.23363666
183	0xbdc91f93	-0.098204754
184	0x3d750002	0.05981446
185	0x3d89537c	0.067053765
186	0x3e1d0f2e	0.15337822
187	0xbdcc1649	-0.09965188
188	0x3c644954	0.013933498
189	0x3e42c0ae	0.19018814
190	0xbebfdee3	-0.37474737
191	0x3d4062fd	0.046969403
192	0xbdfdfd8f	-0.12401878
193	0x3d1e33b3	0.038623523
194	0x3d6d9ef3	0.058012914
195	0xbefee180	-0.49781418
196	0x3cabc5fa	0.020968426
197	0xbdc02d6e	-0.09383665
198	0x3be29de3	0.006915794
199	0xbd0fb1de	-0.035081737
200	0xbe5d640b	-0.21620195
201	0xbe094faf	-0.13409303
202	0xbef8ca7b	-0.4859198
203	0x3e41a0ec	0.18909043
204	0xbddac487	-0.10682016
205	0xbe95bada	-0.2924412
206	0xbccd883c	-0.025089376
207	0xbdda8d60	-0.106714964
208	0x3da89e05	0.08233265
209	0x3dd42ea9	0.10360462
210	0x3e3a89fa	0.18216696
211	0xbe79beca	-0.24389187
212	0xbe73cc54	-0.23808414
213	0xbf588cf9	-0.8459011
214	0x3dde6329	0.10858757
215	0x3e1207e8	0.14260828
216	0x3e3a670c	0.18203372
217	0xbd6f5d0d	-0.05843835
218	0x3c60535c	0.013691749
219	0x3d8576a0	0.065167665
220	0x3c7a5460	0.015278906
221	0x3d835318	0.06412333
222	0xbe2db45c	-0.16963333
223	0x3dfa35b4	0.12217274
224	0x3c9ea20b	0.019364377
225	0x3ed508df	0.4160833
226	0x3c1c15d6	0.0095266905
227	0x3df0cf0e	0.117582425
228	0x3c057652	0.008145886
229	0x3e626c90	0.22111726
230	0x3e179679	0.14803495
231	0x3e18eeb6	0.14934811
232	0xbeb992d4	-0.36244833
233	0x3d0a9388	0.033832103
234	0xbdfb390b	-0.122667395
235	0xbe9ba66d	-0.3040041
236	0xbf853611	-1.0407125
237	0xbe2fa5ab	-0.17153041
238	0xbe4b67b7	-0.19863783
239	0x3dd60b69	0.10451395
240	0x3d9aa101	0.0755024
241	0xbbad6cea	-0.0052925246
242	0x3e99a16c	0.30005968
243	0xbf4eee0d	-0.80831987
244	0xbdb08327	-0.08618765
245	0xbf1313f9	-0.5745235
246	0xbf488c47	-0.78339046
247	0xbce865c0	-0.02836883
248	0x3dc185f1	0.094493754
249	0x3e123e6c	0.14281625
250	0x3e16dd14	0.14732772
251	0x3d94d2e5	0.072667874
252	0x3e82eb3c	0.25570095
253	0xbca84682	-0.020541433
254	0x3e9bd68d	0.30437127
255	0x3cf72e0d	0.030173326

fc2.bias f4 [64]
0	0x3d91d092	0.0711986
1	0x3e510364	0.2041145
2	0xbd899461	-0.06717754
3	0x3dff0fd7	0.12454193
4	0xbd7cfa3d	-0.061762083
5	0xbe022edd	-0.1271319
6	0x3edeedef	0.43540904
7	0xbc150b1f	-0.00909689
8	0x3c8617c9	0.016368764
9	0xbe66d68e	-0.22542784
10	0x3e38cff3	0.18048076
11	0x3e273fc8	0.16332924
12	0x3c85f3dd	0.016351635
13	0x3d7da2b6	0.06192275
14	0xbdffbf52	-0.12487663
15	0x3dbb458a	0.09144123
16	0xbd780378	-0.060550183
17	0x3cd2f619	0.025752114
18	0xbe098690	-0.13430238
19	0x3dfd5ae7	0.12370854
20	0x3ec3d31b	0.38246998
21	0x3d89942b	0.06717714
22	0x3e98dc66	0.2985565
23	0xbcea88ac	-0.028629623
24	0xbcf9926d	-0.030465329
25	0xbd9acf04	-0.07559016
26	0x3d3c14b2	0.045918174
27	0x3ed5b0c7	0.41736433
28	0xbc9d8942	-0.019230489
29	0x3eb3ea1b	0.35139546
30	0xbd0d70b4	-0.03453131
31	0xbdc0d7e4	-0.09416178
32	0xbe84ff62	-0.25976092
33	0xbe84b322	-0.25917917
34	0x3c4ea4b1	0.012612508
35	0x3e83b3ae	0.25723022
36	0x3eb9c971	0.362865
37	0x3e41ff6f	0.18945096
38	0x3e247422	0.16059926
39	0xbd90df1b	-0.07073804
40	0x3dcaf30c	0.09909639
41	0x3d0db7e4	0.0345992
42	0x3da63004	0.08114627
43	0x3dadce8b	0.084866606
44	0x3d87d1fc	0.06631848
45	0x3e222f52	0.15838364
46	0x3d70b57d	0.05876683
47	0x3e7fc165	0.24976118
48	0x3c9b8226	0.018982958
49	0xbe34e34c	-0.17664832
50	0x3e968d4f	0.29404685
51	0xbdc93dff	-0.09826278
52	0x3e5334a6	0.20625553
53	0x3e374b89	0.17899908
54	0xbe30547e	-0.17219731
55	0x3d8e4f26	0.0694869
56	0xbe58f7e5	-0.21188314
57	0x3e1f4b64	0.15556103
58	0xbda46097	-0.080262356
59	0x3d9f7192	0.07785334
60	0xbc9cfc82	-0.019163374
61	0x3e93f6ed	0.28899327
62	0x3db4a3a3	0.08820274
63	0x3d47386d	0.048637796

fc3.weight f4 [64, 64]
0	0xbdd79403	-0.10526278
1	0xbcbc7dd1	-0.023009213
2	0x3e643334	0.22285157
3	0x3e114e44	0.14190012
4	0xbd807c12	-0.062736645
5	0x3dbe50c5	0.09292749
6	0xbe01d40b	-0.12678544
7	0xbcb2bded	-0.02181908
8	0x3c8cd3d3	0.01719085
9	0xbdefbfb0	-0.11706483
10	0xbe71a6aa	-0.23598734
11	0x3dd09a06	0.10185628
12	0x3deb072c	0.11475977
13	0x3c3494ae	0.011021776
14	0xbf36be44	-0.7138407
15	0xbd9842d8	-0.074346244
16	0x3e0f4116	0.13989672
17	0xbf1d663b	-0.61484116
18	0x3ca7c8cd	0.020481491
19	0x3e308ed9	0.17241992
20	0x3da32048	0.079651415
21	0xbeeab2dd	-0.45839587
22	0x3d986a42	0.07442142
23	0x3d3e2914	0.046425894
24	0x3e64b42f	0.2233436
25	0xbcc2a28d	-0.02375915
26	0xbdde2769	-0.10847361
27	0xbdfc4930	-0.12318647
28	0xbf0e7590	-0.55648136
29	0x3e174310	0.14771676
30	0xbd568dac	-0.052381203
31	0x3d898f6c	0.06716809
32	0xbe830afc	-0.25594318
33	0x3e111180	0.14166832
34	0x3e0b1505	0.13582237
35	0x3d230222	0.039796956
36	0x3db53779	0.08848471
37	0xbd1e4845	-0.03864314
38	0xbe8017e1	-0.25018218
39	0xbc3a732e	-0.01138
40	0xbe1ed655	-0.15511449
41	0xbe384c14	-0.17997772
42	0x3de5dd80	0.112238884
43	0x3e68643d	0.22694488
44	0xbdb07e7b	-0.08617874
45	0x3e30f31f	0.17280243
46	0xbec62032	-0.38696438
47	0x3e39f4d7	0.18159805
48	0xbec7e346	-0.39040583
49	0x3d85c369	0.06531412
50	0xbe076b4a	-0.13224521
51	0xbdc07ab0	-0.09398401
52	0x3eb95176	0.36194962
53	0xbeb5e5fd	-0.3552703
54	0x3db780c4	0.08960107
55	0xbd2064a3	-0.039158475
56	0xbdeacf75	-0.114653505
57	0x3dcbaa35	0.09944574
58	0x3db87b9c	0.090079516
59	0x3e0b9a83	0.1363316
60	0x3e3781ac	0.1792056
61	0xbd443987	-0.047906425
62	0xbed41dd0	-0.41428995
63	0x3e1387da	0.14407292
64	0xbeecd414	-0.46255553
65	0x3dcc8660	0.099865675
66	0x3e3c1771	0.18368317
67	0x3e409bcc	0.18809432
68	0xbdbc43d4	-0.09192625
69	0x3e7f80e8	0.24951518
70	0xbdb4b82b	-0.0882419
71	0xbd980ca8	-0.07424289
72	0x3d7202e1	0.059084777
73	0xbe06a000	-0.13146973
74	0xbe831c16	-0.25607365
75	0x3e1570a3	0.14593749
76	0x3d9f62d7	0.07782524
77	0x3d7c115e	0.06154
78	0xbf334995	-0.7003415
79	0xbdf64aa0	-0.12025952
80	0x3ea6cdc2	0.32578856
81	0xbe983102	-0.2972489
82	0xbddab70d	-0.106794454
83	0x3e0fb8ef	0.1403539
84	0x3ddcab3a	0.107748464
85	0xbef2f792	-0.47454506
86	0xbcde6c5e	-0.027151283
87	0x3dbada25	0.09123639
88	0x3e83c6c0	0.25737572
89	0xbcbafacd	-0.02282467
90	0x3cf69b90	0.030103475
91	0x3ca930cf	0.020653157
92	0xbf2a3c1b	-0.66497964
93	0x3c05747a	0.008145446
94	0x3d5c3c90	0.053768694
95	0x3dee1f1f	0.1162703
96	0xbe9be309	-0.30446652
97	0x3e12eecc	0.14348906
98	0x39e8c08b	0.00044393944
99	0x3da632ac	0.08115134
100	0x3d280399	0.041019056
101	0x3e197934	0.14987642
102	0xbeabd398	-0.3355987
103	0xbdbefde5	-0.0932577
104	0xbda9abfb	-0.08284756
105	0x3dbf55d8	0.09342545
106	0x3ac135d1	0.001474077
107	0x3e1aba22	0.15110067
108	0xbc74731a	-0.0149200205
109	0xbdb86b1d	-0.09004805
110	0xbe71390e	-0.23556921
111	0xbcf7df31	-0.030257793
112	0x3d187b91	0.037227217
113	0x3eb33f85	0.350094
114	0xbddb8dc4	-0.10720399
115	0x3cfdb11b	0.03096824
116	0x3ea21332	0.3165527
117	0xbf17e072	-0.5932685
118	0x3e66083b	0.22464077
119	0x3ddb7703	0.10716059
120	0x3d90ab78	0.07063955
121	0x3e179739	0.1480378
122	0x3d6668cb	0.056252282
123	0xbb8fb87c	-0.004386006
124	0x3dc07b3b	0.09398504
125	0x3cd5cefb	0.026099673
126	0xbf1e7f9f	-0.61913484
127	0xbe222f15	-0.15838273
128	0xbc47c778	-0.012193553
129	0x3ce8ec0a	0.028432865
130	0x3e0e2b55	0.13883717
131	0xbaf0c70b	-0.0018369866
132	0xbd3618dc	-0.0444573
133	0x3dd24ff6	0.102691576
134	0x3d574d96	0.052564226
135	0xbdc31cb4	-0.09526959
136	0xbc52fda5	-0.012877856
137	0xbda6ca46	-0.08144049
138	0xbe28a622	-0.16469625
139	0x3dc7c065	0.09753493
140	0xbd884d26	-0.0665534
141	0xbd50323d	-0.05082916
142	0xbdc8b6fe	-0.09800528
143	0x3cb930b4	0.022606231
144	0x3d118ee5	0.035536665
145	0xbdeb47ec	-0.114883274
146	0xbd106a7f	-0.035257813
147	0x3dcf64a3	0.10126617
148	0x3d2b645c	0.041843757
149	0x3cbd577f	0.02311301
150	0x3d8e39fe	0.06944655
151	0x3d47deeb	0.048796576
152	0x3cf572fc	0.029962055
153	0xbead092a	-0.33796054
154	0xbc5c1fba	-0.013435299
155	0x3db42032	0.08795203
156	0xbe61b60b	-0.220421
157	0xbd6342d8	-0.05548367
158	0x3c94cac0	0.018163085
159	0xbc2d7764	-0.010587547
160	0xbeb5b4f1	-0.3548961
161	0xbd2f0455	-0.04272874
162	0x3d6ee2a4	0.05832161
163	0xbc96ac3e	-0.018392678
164	0x3d84c091	0.064820416
165	0x3e1e95bf	0.15486811
166	0xbe0362e5	-0.12830694
167	0x3d69bacf	0.05706292
168	0xbb940f25	-0.004518407
169	0xbecf6b40	-0.40511513
170	0x3ddbc705	0.10731319
171	0xbc095cc3	-0.0083839325
172	0xbdd7c6ba	-0.10535951
173	0x3c87feda	0.016601015
174	0xbe102881	-0.14077951
175	0x3e404a4b	0.1877834
176	0xbf1c5d9d	-0.6108034
177	0xbde9371d	-0.11387465
178	0x3dd3afd4	0.10336271
179	0xbccdc70f	-0.025119333
180	0x3dddfc05	0.108390845
181	0xbd8308df	-0.063981764
182	0x3e7b6d39	0.24553384
183	0xbdbad376	-0.09122364
184	0xbdf97a33	-0.12181511
185	0x3dec6784	0.115431815
186	0xbd559209	-0.052141223
187	0x3e169906	0.14706811
188	0x3e8f1cbb	0.27951607
189	0x3e116eda	0.14202443
190	0x3cd3a9c5	0.025837788
191	0x3e489105	0.1958657
192	0xbd95c9a5	-0.07313851
193	0x3cac5b53	0.02103964
194	0xbe4f2dde	-0.2023234
195	0xbdd7deae	-0.1054052
196	0x3d9af35e	0.0756595
197	0x3daeedff	0.08541488
198	0x3dd355e5	0.103191175
199	0x3daad908	0.08342177
200	0x3cb1a969	0.021687226
201	0x3d9ff55f	0.07810473
202	0x3db1496f	0.086565845
203	0x3da0182a	0.07817109
204	0xbd573e70	-0.05254978
205	0x3dfd29eb	0.12361511
206	0x3c016438	0.007897429
207	0xbdda7e4b	-0.1066862
208	0xbe3147ab	-0.17312495
209	0x3d0b4f28	0.034011036
210	0xbd48e306	-0.04904463
211	0x3d29eefb	0.041487675
212	0x3de6ffdf	0.11279272
213	0xbcf35977	-0.029705746
214	0x3d9c44f0	0.07630336
215	0x3dcfdf82	0.101500526
216	0x3dc4c057	0.096069984
217	0xbd10999c	-0.035302743
218	0x3c9a4083	0.01882959
219	0x3c320439	0.010865265
220	0x3eba29e7	0.36360094
221	0x3d8bafab	0.068206154
222	0x3d0eab40	0.034831285
223	0x3aed530e	0.0018106417
224	0x3e943104	0.28943646
225	0x3c695893	0.014242309
226	0x3d73f7cc	0.05956249
227	0xbdd65038	-0.10464519
228	0x3dc0b937	0.09410327
229	0xbd93e014	-0.07220474
230	0x3e4dde90	0.20104432
231	0xbc2e4f2a	-0.010638991
232	0xbd8488bd	-0.06471393
233	0xbe387107	-0.18011867
234	0x3da36742	0.07978679
235	0x3d995913	0.07487693
236	0x3e035012	0.12823513
237	0x3b958cd4	0.004563907
238	0x3dadb712	0.084821835
239	0x3d196e75	0.037458856
240	0xbda345af	-0.079722755
241	0xbead846d	-0.33890095
242	0x3e2e1510	0.17000222
243	0xbdc46ac2	-0.09590675
244	0xbebac67e	-0.36479563
245	0x3e5cf4b7	0.21577726
246	0xbcc7c997	-0.024388118
247	0x3be8fdd0	0.007110335
248	0x3e105b2e	0.14097282
249	0x3d961e35	0.0732998
250	0x3c4d6a24	0.012537513
251	0xbe31dc6c	-0.1736924
252	0xbe1c6e6a	-0.15276495
253	0xbca14617	-0.019686742
254	0xb891db08	-6.9549365e-05
255	0x3e2c789e	0.16842887

fc3.bias f4 [64]
0	0x3dbb9410	0.091591
1	0x3d859081	0.065217026
2	0x3ddbe890	0.10737717
3	0x3d820a55	0.06349627
4	0x3d08ef60	0.03343141
5	0xbb54a0ea	-0.0032444545
6	0xbd8a05ed	-0.067394115
7	0x3db8277a	0.089919046
8	0xbd325545	-0.04353835
9	0x3e725762	0.23666146
10	0x3e75d6f0	0.24007773
11	0xbde22c5b	-0.110436164
12	0xbe03e1d2	-0.12879112
13	0xbd90155b	-0.07035323
14	0xbd96bb30	-0.07359922
15	0x3e7388e2	0.23782685
16	0x3db18b08	0.08669096
17	0x3e317aa7	0.17331944
18	0x3cc7c7ef	0.024387328
19	0x3ea22110	0.3166585
20	0x3e71f8d7	0.23630081
21	0xbdfffa70	-0.12498939
22	0xbd815a3c	-0.06316039
23	0xbd12ff7e	-0.035888188
24	0xbd820a73	-0.06349649
25	0xbdbe56d3	-0.09293904
26	0x3cdf49ee	0.027256932
27	0xbde9ac01	-0.1140976
28	0x3d48c375	0.049014527
29	0xbd74c0a8	-0.059754044
30	0xbdd7ac51	-0.105309136
31	0x3d8daa24	0.069172174
32	0x3dcc7364	0.099829465
33	0x3e72d726	0.23714885
34	0xbdcc4378	-0.09973806
35	0x3cb2c417	0.021822019
36	0x3e221a1a	0.1583027
37	0x3dd55f26	0.10418539
38	0xbe2c200f	-0.16809104
39	0x3da36c05	0.079795875
40	0xbd84e93c	-0.064897984
41	0xbdfdbd1f	-0.123895876
42	0xbe1310e5	-0.14361914
43	0xbab9ccea	-0.0014175449
44	0x3ef386b7	0.47563717
45	0xbd7c00a8	-0.061524063
46	0xbe0195d6	-0.12654814
47	0xbc1745e6	-0.009232974
48	0xbdccc98c	-0.099993795
49	0xbddae5f0	-0.10688388
50	0xbdba4b7f	-0.09096431
51	0x3eaf9fe0	0.34301662
52	0x3d103a28	0.035211712
53	0x3d2f4035	0.042785842
54	0xbd8747a6	-0.06605463
55	0x3ddd126d	0.1079453
56	0xbe10a927	-0.14127026
57	0x3d812748	0.063063204
58	0x3ca80cb1	0.020513864
59	0xbd9b87a3	-0.0759423
60	0x3e6c9b71	0.23106171
61	0xbc4e06ac	-0.012574833
62	0xbdecd627	-0.11564284
63	0xbde76004	-0.112976104

q_out.weight f4 [1, 64]
0	0xbe8ee5ff	-0.27909848
1	0xbe70526a	-0.23468938
2	0xbe139586	-0.14412507
3	0x3e133202	0.14374545
4	0xbe214d5f	-0.15752171
5	0x3fa777ce	1.3083436
6	0xbe9e589d	-0.30926982
7	0xbe802d34	-0.25034487
8	0xbe93497b	-0.28767
9	0x3ee0cc1c	0.43905723
10	0x3f19a3af	0.60015386
11	0xbe902aef	-0.28157756
12	0xbd9ad31a	-0.07559796
13	0x3e3abc1a	0.18235818
14	0xbe1caba2	-0.15299848
15	0x3f3c976e	0.73668563
16	0xbe58647f	-0.21132086
17	0x3edc22b3	0.42995223
18	0x3f077b17	0.52922195
19	0x3f822645	1.0167929
20	0x3f754f02	0.9582368
21	0xbee0bac0	-0.4389248
22	0x3e133c5b	0.14378493
23	0x3e31e8cf	0.17373966
24	0xbf9a55bc	-1.2057414
25	0xbe066776	-0.13125405
26	0xbe7b48a7	-0.24539433
27	0xbd0f7a3a	-0.035028674
28	0x3ec8208e	0.39087337
29	0x3d5ae48c	0.053440616
30	0xbdd71c47	-0.1050344
31	0xba8eb92b	-0.0010888925
32	0xbe52cf1c	-0.20586818
33	0x3e9a5184	0.30140316
34	0x3b8190ea	0.0039540427
35	0x3ede7364	0.4344741
36	0x3f42219e	0.75832546
37	0xbda7d3e5	-0.081947125
38	0x3ec6e6b5	0.3884789
39	0xbe2a296e	-0.16617367
40	0xbeb3db6e	-0.3512835
41	0x3d96bc85	0.07360176
42	0x3e95227d	0.29127875
43	0x3eb47469	0.35245064
44	0x3f9b1947	1.2117089
45	0xbeef3519	-0.46720198
46	0x3c8ee307	0.01744224
47	0x3e625c3d	0.22105499
48	0x3cf69af4	0.030103184
49	0xbdf2d566	-0.11857109
50	0x3b93722e	0.0044996953
51	0x3ef2a553	0.47391757
52	0x3e408487	0.18800555
53	0xbe7a5135	-0.2444504
54	0xbe25486d	-0.1614091
55	0xbe1d5a27	-0.15366422
56	0x3e4928ca	0.19644466
57	0xbd6cd9a4	-0.057824746
58	0xbeb7d768	-0.3590653
59	0xbe204d16	-0.15654406
60	0x3f060edc	0.52366424
61	0xbd36d8be	-0.044640295
62	0x3e76fb88	0.24119389
63	0x3e804d79	0.25059107
