model_flock/flock/agent_0/7_actor_params.pkl (torch, 39031 bytes, 8 tensors)

fc1.weight f4 [64, 8]
00000000: e135 fa3d 049a 0bbe 3355 30be 9a52 91be
00000010: 2149 8abb 842e 893d 1ba7 bd3e 8dde 0c3f
00000020: 774a 1c3e 9601 5dbe 347c 3bbe 4a59 66bd
00000030: b386 013e cc60 8dbd fb46 613e d893 61bd
00000040: 9b44 30bc 24b6 efbc fae0 afbe 2ad3 84be
00000050: d65e 5bbe 389d c33e 75b9 0e3f 0593 5ebe
00000060: e97e 0cbe c65e aebe d647 a3be c1a5 823e
00000070: dc3b 943d bcb3 a3be 8c5a 883d 6931 74be
00000080: 6cf1 b13c e072 0fbe 6073 66be 3e15 a73e
00000090: e678 e0b9 ec5c 0dbd 089c 483e be8c 9fbe
000000a0: f422 153f 34a8 da3d 6522 483e cc6c bcbd
000000b0: 2995 81be d608 d23e 5c18 b23e 64b1 8b3e
000000c0: 8a1b a1be 30d7 debd ca4d 8c3e 7a4d 213e
000000d0: 2ac2 163d db51 863e 1602 6f3d 1a2d 383e
000000e0: e2fb a93e ef2b 83bd 61d0 3ebe fc58 75be
000000f0: b84e a4bd 2997 7d3e f7f7 333e d813 163e
00000100: 5a4d c63e d346 22bd 8d20 78bc 28fc 653d
00000110: f056 94be 6fa0 9e3e 867d c83e a1d8 9d3d
00000120: bdf3 1e3e 8a28 f73e 4897 babe 8429 ea3d
00000130: c175 70bd 579e 92be 286c d0be 3597 a0be
00000140: 842d 853d 30c6 88be 4b53 91be adfb 18be
00000150: f17a 7d3e 26b1 36be c9cd 71be 5bd2 863e
00000160: 20b8 ca3e 5fac cabd 88a0 253e 62e3 81be
00000170: 29ea 97be 538f dcbc 36f6 963e 8223 14be
00000180: baa1 833e 7f15 ce3e 21c1 3ebd 3933 9dbe
00000190: 45ce bfbe d9b7 833e 4439 94bd f2cc b7be
000001a0: ec3a c4bd c300 60be 7239 6abe 812b ed3e
000001b0: fd9c 733e 39bd e9be 218f 963e 3e63 ca3e
000001c0: 58bc c2be 97c4 9e3e 0728 2c3e 66e2 7bbe
000001d0: 8122 893d a27d edbd f37a 82bd 286f 133f
000001e0: 67f7 51be abbd d13d 1983 693e 4520 853e
000001f0: 7769 963e fe1e 9abe 771e 41be 8b2a 963e
00000200: 48ea 27be 4e55 6fbe f7d8 993e 82c9 c9bd
00000210: 2ca3 e0bd 859f ae3e d66b 97be 1717 d7be
00000220: d450 e3bd 4fcf 03bd 3fc8 87be 36b6 7e3e
00000230: e162 973e db3f cabb 9981 6e3e d7a4 323d
00000240: 9cda b0be efd0 643e 3215 a23e 7e29 67be
00000250: 8dea bc3e 2698 373e ff7b 42be fb04 83be
00000260: a38a 8ebe 265d d13e 9abf 5bbc b9f8 cd3e
00000270: 5421 8b3d 77df 86be 2505 fbbe 7076 ffbc
00000280: 205d 15be 380b acbd 2ab6 933e 09e4 313e
00000290: c54d 91be eb77 cebe cbab dcbe 87bd a93d
000002a0: ea91 98be 7390 60be ecf7 773d e116 82bd
000002b0: 1dd7 4a3d 2246 b5be bca0 cd3e 3a2b b33e
000002c0: 7fd8 5cbe 35fb c33d 8264 14be 7631 68be
000002d0: 4340 55be d1e9 8a3e 69e5 863e de87 dcbe
000002e0: e0f8 d1bd 1a0b 00bc e30c da3d e496 adbe
000002f0: 8bcb b43e 2071 cc3d 21cb 963e d3d3 e3be
00000300: 4161 6f3c 2b15 793d 3655 f23d 7d06 b0be
00000310: 963f 823c 7f1e b73c bf49 ad3e cf83 f23e
00000320: e48c a1be 0559 9a3e 6912 79be 912b 543e
00000330: 257a 513e 5ed7 383e 0641 3dbe 1663 76be
00000340: 7434 e5be 3f0c 203e 8a5e 993e 5ad2 c2bd
00000350: fa55 233e 2a37 483d 3bf8 863e 2835 113f
00000360: 66c4 1c3e d1fa 4fbe e6cd f1bd 719e d4bd
00000370: 1f2c c7be e426 4c3e 2ae0 19bd 5922 0abe
00000380: 259b cbbc 4522 eabd 61cb 8e3e bd22 c3bc
00000390: b394 073e a37f efbd 9e16 df3e 1827 cd3e
000003a0: f615 97be 299f bdbe 0404 de3d db1e 4cbe
000003b0: 54d1 c53e d21b cc3d ddcd d8bd 8512 7b3c
000003c0: 698d 8abe b534 ee3d cbe5 3d3e 106b 8e3e
000003d0: 0c95 ae3e 0de0 a53e e07b 11be 803c e93e
000003e0: 906d bdbe dfa9 abbe e0e5 b2bd 1da5 bfbe
000003f0: 0ade 433e c603 b73e 55d3 103e 6154 26be
0.12217308 -0.13632971 -0.17220001 -0.28383332 -0.0042201434 0.06698325 0.37041554 0.55027086
0.15262781 -0.21582636 -0.18309098 -0.056237496 0.1264904 -0.06903228 0.21999733 -0.055072635
-0.010758544 -0.029261656 -0.3435133 -0.25942355 -0.21422896 0.38205886 0.55751735 -0.21735771
-0.13720287 -0.3405668 -0.31890744 0.25517085 0.0723798 -0.31973064 0.066578954 -0.23846973
0.021721564 -0.14008665 -0.2250495 0.32633394 -0.00042814686 -0.034512445 0.19590771 -0.31162065
0.5825646 0.106766135 0.1954437 -0.09200439 -0.25309113 0.41022366 0.3478421 0.27283776
-0.31466323 -0.108808875 0.27403098 0.15752211 0.036806263 0.26234326 0.0583516 0.17985955
0.33199984 -0.06404864 -0.18634178 -0.23959726 -0.08022827 0.24764694 0.1757506 0.14656007
0.3873089 -0.039618324 -0.015144479 0.056148678 -0.28972578 0.30981776 0.39158267 0.07707334
0.15522666 0.48273116 -0.36443543 0.114337 -0.05870605 -0.2863643 -0.40707517 -0.31365362
0.06502822 -0.26713705 -0.2838386 -0.14939757 0.2475393 -0.17841014 -0.23613657 0.26332363
0.395936 -0.098961584 0.16174519 -0.25368792 -0.29670838 -0.026923811 0.2948472 -0.1446667
0.25709325 0.40250775 -0.0465709 -0.30703142 -0.3746206 0.25726202 -0.07237485 -0.35898548
-0.09581551 -0.2187529 -0.22873476 0.46322253 0.23790355 -0.45652178 0.29406074 0.3952884
-0.3803432 0.3100936 0.16812144 -0.24598083 0.06696034 -0.11596228 -0.06371107 0.57591486
-0.20504533 0.102412544 0.22803916 0.26001182 0.29377338 -0.3010177 -0.18859278 0.29329333
-0.16397965 -0.23372385 0.30048344 -0.09852888 -0.109686226 0.3410608 -0.2957446 -0.42009804
-0.11099401 -0.032180127 -0.26519963 0.24874195 0.29567626 -0.006172163 0.23291625 0.043614235
-0.34541786 0.22345327 0.31656796 -0.22574422 0.36897698 0.17929134 -0.18992613 -0.25589737
-0.27840146 0.4089138 -0.013412381 0.40228823 0.06793466 -0.26342365 -0.49027362 -0.031184405
-0.14586306 -0.08400577 0.28849918 0.17372145 -0.28379646 -0.40325865 -0.43099818 0.082881026
-0.29798824 -0.21930103 0.06053917 -0.0635202 0.049521554 -0.3540507 0.40161693 0.34993917
-0.21566962 0.09569398 -0.14491466 -0.22675118 -0.20825295 0.27131513 0.263469 -0.43072408
-0.10252547 -0.007815147 0.10646989 -0.33904183 0.3531154 0.099825144 0.2945185 -0.44497547
0.0146105895 0.060811203 0.11832659 -0.3437995 0.01589946 0.022353409 0.33845326 0.47366187
-0.31552804 0.30146042 -0.24323429 0.20719744 0.2045675 0.18050906 -0.18481836 -0.24061236
-0.4476658 0.15629672 0.2995494 -0.095127776 0.15950766 0.048880734 0.2636126 0.56721735
0.15309295 -0.20310523 -0.1180685 -0.10381783 -0.3890085 0.1993671 -0.037567295 -0.13489665
-0.024854252 -0.11432318 0.2788954 -0.023820275 0.13240318 -0.11694267 0.43571943 0.4006889
-0.29508942 -0.37035492 0.1084061 -0.19933645 0.38636267 0.09966244 -0.1058614 0.01532424
-0.27061012 0.11631147 0.1854469 0.27816057 0.3409809 0.323975 -0.14207411 0.4555397
-0.36997652 -0.3352804 -0.087352514 -0.3743066 0.1912767 0.35745066 0.14143117 -0.16243125

fc1.bias f4 [64]
00000000: 998e 373e ba12 ec3e 50c5 b83e a98c a13d
00000010: 2cde aa3e ea4a 893e 40ab 7ebe 0b2f 433c
00000020: 69ed 723d aef3 d6bd f1d3 fe3d 0aa8 88bb
00000030: 05d6 90be 0df8 323e 2738 5f3e c60f 20bd
00000040: 6e33 ef3c 9aa8 933e 1147 803d 85a1 ec3d
00000050: bf1c 21be a0c5 9dbe af8c 2e3d 2955 333b
00000060: 48a6 ce3e 7d46 893e d818 81be a1c0 993e
00000070: 391a 7c3d d2f4 9f3d b56f c6bc 4b8b 6c3d
00000080: fd22 853e db91 9f3c afc0 9a3e 7959 f53c
00000090: c557 3a3e 1e8e f33d ca36 b03e 3c69 3d3e
000000a0: 4b04 f93d 7ab9 83be d0cd ae3e dae5 05be
000000b0: e7ac 8f3e f54a 553e 161f 6e3e c72f 08be
000000c0: 023c 92be db4f b3bc 434a 113e 89c1 c8b9
000000d0: 75ef e2bd 53fc b2be 9dc4 9cbd 97dc b73e
000000e0: f1b2 013e 98d2 48bd cc1c 8ebe ada1 5aba
000000f0: 66f4 5cbe 8e5d 0cbe 9965 d4be 487c f03e
0.1792549 0.46108037 0.36088037 0.07888157 0.3337263 0.26814967 -0.24870014 0.011913071
0.059308443 -0.10495697 0.12442768 -0.0041704224 -0.28288284 0.17477436 0.21798764 -0.039077543
0.029199328 0.2883957 0.06263555 0.11554245 -0.15733622 -0.30814838 0.042614635 0.0027363992
0.40361238 0.2681159 -0.25214267 0.30029777 0.061548445 0.07810368 -0.024223188 0.057750028
0.26003256 0.019478729 0.3022513 0.02994989 0.18197544 0.11892341 0.344168 0.18497175
0.12159022 -0.25727445 0.34141397 -0.13075963 0.28061602 0.20829375 0.23254046 -0.13299476
-0.28561407 -0.021888664 0.14188485 -0.00038291168 -0.11080829 -0.34958133 -0.076546885 0.35910484
0.12665917 -0.049028963 -0.27756345 -0.00083401316 -0.21577606 -0.13707563 -0.41483763 0.4696982

fc2.weight f4 [64, 64]
00000000: 7039 45bb 66cf e33d d75d 90bd 701e bcbc
00000010: de43 fa3c 16b3 a53d 79ff 433e 7eca 583d
00000020: 57fc 3d3d d796 acbd 2c52 153d 68fd 5dbd
00000030: 1254 05be bbd4 3fbd 90c9 6fbc 817e 0ebc
00000040: 4381 4ebd 6916 06bd 38f6 ea3d c413 d5bd
00000050: 4e1a 113d 6565 8d3d 3bdc b93d 8c6b 0b3e
00000060: e41f c53a e0bc 9d3d 6f70 053e 165e d93d
00000070: 1630 babd 56d5 ac3d 1350 0a3e 7290 0ebc
00000080: add5 9c3d 68fb 7dbc 38ec 6cbd 3adb fcbd
00000090: cafb a83c 2473 aa3d bf14 663b 8d4d b8bc
000000a0: 655a ce3d 9767 953b 2df5 ab3d e966 ebbb
000000b0: 8d07 aabd af1d 7fbe 2449 debd 1d63 583c
000000c0: ed2d 83bd b412 533d 1a61 94bd 34c4 3d3e
000000d0: 740f a6bd a6dc 01bd f2c0 0b3e 5f07 1cbe
000000e0: 1ef1 a1bd dff4 c43d d939 b93d 3e80 d2bd
000000f0: a4d0 d73d 5301 bd3d 5629 f33d 160e ff3d
00000100: 3bd6 ac3d 5f19 ae3c 32ff 443d 2cf3 34bd
00000110: 6866 94bd bd9e dfbb 52db 203e 1cc4 2c3c
00000120: 7499 7d3b f948 dabc cadc b6bc 51b2 1e3d
00000130: e975 1dbe 5c61 89bd 7481 c03d 2e0e a23b
00000140: 3c97 b73d cd25 503b f39e d33d 74cc d93c
00000150: 6ffa 973d f7b5 cebd ef28 e9bd e15f 6ebd
00000160: ff3f dd3d bd6e 85bc 125a c3bc beb0 d63d
00000170: d225 c8bd d8c8 1bbd d074 92bd c1fa 2ebd
00000180: 6b51 0f3e 4128 6cbd e963 883d 7c8f a1bc
00000190: f496 033e a251 4f3e 898f cc3c ba86 87bc
000001a0: 1e3a 0dbd dfe6 373e 12b0 12be 90c4 42bd
000001b0: ce7a 8a3d 8f79 32bd 316d 9a3d 1f7d 903d
000001c0: be58 923d 2f59 15bb 2681 de3c e63b 74bb
000001d0: 0f92 2a3d a328 fb3d 728e d03d b276 333d
000001e0: 5bf1 ec3d ba44 653c 532f 803d 922e e93d
000001f0: 9b84 0b3d 9577 5cbd fdde 9a3c 454b a7bb
00000200: 3754 debd 7856 703d de3b 363d 2bf5 10bd
00000210: 97e0 db3c 2395 39be 97a1 93bd ad62 90bd
00000220: 6004 143e deed d7bd d75e 0a3d 2f29 b7bd
00000230: 6923 453e 5456 933d 380f 91bc 0cfa c83d
00000240: 8429 533c fe5a 143d e147 1abe eecb 8cbd
00000250: 046f 3a3e 14c0 2a3e c868 833d 8127 37be
00000260: 2b5c 2fbe 7779 9f3d c3fd d9bd 91e8 983b
00000270: ce3f 173d 3e63 883a fc91 bfbd d16d 3cbd
00000280: cba2 07bd e8a7 43bd 5b82 1e3e 1d03 3e3e
00000290: 4bc4 2e3d c69c 92bd 545f 3f3e fa38 533e
000002a0: e5ac 60bb 0502 d43c ee1b fd3c 2611 1b3d
000002b0: c8cd 043b 2f5a 97bd cc35 083e 2ed5 1e3d
000002c0: e28b 00be a63e ed3d 6091 6a3d eff4 41bd
000002d0: a709 debd a2d2 e7bd abbb 5fbc 1619 693d
000002e0: c78d 993d 0095 06bd ac7c 1abd f620 903d
000002f0: 571f 00be e5d8 18bd 7773 9f3d eb09 a9bd
00000300: b593 acbd 1944 5bba a53b 5cbd eddd 83bd
00000310: b2fa e73d 863c 2b3a 9d64 9bbc 55c6 a6bc
00000320: 8d24 b63d 114b 1b3e d8c1 4abc 2ff7 073e
00000330: 8ed1 00bd 6ab5 18bc f88d 903d e3c8 34bd
00000340: 58d1 963b 0888 f6bd 660a a3bb d2c6 8c3d
00000350: 0655 813c 5c9d 07be 1b36 5b3d 397d 493d
00000360: 9a03 663d 866c 623d 2555 a9bd fa3e 1d3e
00000370: 7e50 933d 6b3b a5bd 6ee7 4b3c c017 afbb
00000380: cff3 823d 590f 923d 5f64 043e 2aec 3b3e
00000390: 9db9 9abd 4dbe 203e 10a6 9cbd 70b8 483d
000003a0: 877c 223e 030c b2bd a96e 083e 1070 c63d
000003b0: 90c1 0e3d fc52 bbbd d9f8 de3d 8ee2 943d
000003c0: 605b ae3d 9bad 143d e9dc 16bd 0cc3 5e3e
000003d0: a7c6 00be c948 773d ff4a a5bc 32e2 3c3d
000003e0: 23b0 19bd d74b e3bc 87d4 db3d e481 88bc
000003f0: 734b 12be 6b36 87bd aba2 863c 2565 233e
-0.003009405 0.111235425 -0.070491485 -0.022963732 0.03054994 0.080907986 0.19140424 0.052927487
0.04638323 -0.08427208 0.03645532 -0.054196745 -0.13020352 -0.046833735 -0.014635459 -0.008697153
-0.050416242 -0.032736216 0.11472744 -0.104041606 0.035425477 0.06904105 0.09075209 0.13615245
0.0015039411 0.07702041 0.13031171 0.106136486 -0.09091203 0.08439128 0.13507108 -0.008701431
0.07657943 -0.015501834 -0.057842463 -0.12346502 0.020627875 0.083227426 0.003510758 -0.022497917
0.10075835 0.004559468 0.08396373 -0.0071838987 -0.083022214 -0.24913667 -0.10853794 0.013207224
-0.06405244 0.05153151 -0.07245083 0.18531877 -0.08108416 -0.031704567 0.13647822 -0.15237187
-0.079073176 0.09617018 0.09044237 -0.102783665 0.10537842 0.09228768 0.118731186 0.124538586
0.08439299 0.021252332 0.048094936 -0.04417722 -0.07246095 -0.006824343 0.15708664 0.010544803
0.0038696202 -0.026646124 -0.022322077 0.038744275 -0.1537701 -0.06708023 0.09399691 0.004945538
0.089643925 0.0031760812 0.103330515 0.026586749 0.07420813 -0.10093301 -0.113847606 -0.058196906
0.10803222 -0.016288156 -0.02384666 0.1048293 -0.09772839 -0.038033336 -0.071511865 -0.042719606
0.13995902 -0.057655577 0.06659681 -0.019721739 0.12850553 0.20245984 0.024970787 -0.016543735
-0.034479253 0.17959164 -0.14324978 -0.047550738 0.067617044 -0.04357296 0.07540358 0.07055115
0.071458325 -0.0022788753 0.027161192 -0.0037267148 0.0416432 0.1226361 0.10183419 0.04381437
0.115694724 0.0139934365 0.062590264 0.11385836 0.03406201 -0.05382498 0.018905157 -0.0051054084
-0.108559065 0.058676213 0.044490688 -0.03539006 0.026840491 -0.18123297 -0.07208555 -0.07050071
0.14454794 -0.105434164 0.033781853 -0.08943402 0.19251789 0.071942 -0.017707452 0.09813318
0.012888316 0.03621959 -0.15066482 -0.06874834 0.18206412 0.16674834 0.0641647 -0.17886163
-0.17125003 0.077868395 -0.10644104 0.004666396 0.036926083 0.0010405553 -0.09354016 -0.046003167
-0.033114236 -0.04776755 0.15479414 0.18555875 0.04266767 -0.071588084 0.18688709 0.20627204
-0.003428274 0.02587987 0.030897107 0.03785815 0.0020264257 -0.07390248 0.13301772 0.038777523
-0.12553361 0.11584215 0.057267547 -0.047352728 -0.10841685 -0.11319472 -0.013655583 0.05690869
0.07497745 -0.03285694 -0.037716553 0.07037537 -0.12511955 -0.03731622 0.07785695 -0.08253845
-0.084266104 -0.00083643344 -0.05376782 -0.06438813 0.11327113 0.0006532151 -0.018968875 -0.020358244
0.0889369 0.15165354 -0.0123753175 0.13277887 -0.031449847 -0.009320596 0.070583284 -0.044136893
0.0046025924 -0.12037665 -0.004975605 0.068738595 0.015787613 -0.13243622 0.053518396 0.049191687
0.05615578 0.055279277 -0.08268193 0.15356055 0.07193087 -0.08067974 0.012445314 -0.0053434074
0.06394159 0.071318336 0.12928914 0.18351808 -0.07554934 0.15697594 -0.076488614 0.04900402
0.15867816 -0.08693697 0.13323463 0.09689343 0.034852564 -0.091466874 0.10887308 0.072697744
0.08513522 0.036298376 -0.03683177 0.21754092 -0.1257578 0.060372148 -0.020177362 0.046114154
-0.037521493 -0.027746124 0.10733896 -0.0166635 -0.14286594 -0.06602176 0.016434988 0.15956552

fc2.bias f4 [64]
00000000: 7190 333d 517a 84bd 0107 693d ab44 c53d
00000010: 4ec2 bfbc bb55 fdbd f618 733d 6f07 95bd
00000020: 7fef c1bd c2e9 3c3e 0fb7 cc3d 9266 a7bd
00000030: f1c7 b93d fd28 3d3e 3faa e3bd d7db c93d
00000040: f8a1 743d f59e 0a3e e29e 4bbe f5ae 1e3e
00000050: c168 27bc 5413 6abe c4fb f33d c40d a5bd
00000060: 9238 8bbd 613b 18be a03c adbd 74d4 a33d
00000070: 969c 0c3a 4c9f a43d c6f6 e3bd 129f 52bd
00000080: 9813 a73d e28b 4a3e 1936 793b 2b09 7ebd
00000090: 4f85 0b3d a4f9 c63d 2d3d 31be d693 c83c
000000a0: 47e3 06be 5fde 993d e33e 283e 9c86 9fbd
000000b0: fc10 a8bb e6fa 0c3e 097d b6bc 6ebc 4ebd
000000c0: e1c0 c73c 6f29 533d 45f1 ef3d e673 ed3d
000000d0: 241e e7bd e344 9c3d a383 30be abff 0dbe
000000e0: a948 1f3e daea 783c 07bb d3bd 7734 cfbd
000000f0: e8b2 3c3c 11b9 19bd e49b 6ebd 411e 41bd
0.043838922 -0.064686425 0.056891445 0.09632238 -0.023408081 -0.123698674 0.059349976 -0.072768085
-0.094695084 0.18448547 0.09995853 -0.081738606 0.09071339 0.18472667 -0.11116456 0.09856384
0.059724778 0.135372 -0.19884828 0.15496428 -0.010217846 -0.22858936 0.11913255 -0.08059266
-0.06797899 -0.14866401 -0.08458829 0.079995066 0.00053639093 0.08038196 -0.11131053 -0.051421233
0.08158034 0.19779924 0.003802663 -0.062020462 0.03406268 0.09715584 -0.17308493 0.024484556
-0.13172637 0.07513117 0.1643024 -0.077893466 -0.005128978 0.13767585 -0.022276418 -0.05047267
0.024383964 0.051553186 0.117159404 0.115943715 -0.11285046 0.076303266 -0.17237715 -0.13867061
0.15555061 0.015192712 -0.10338407 -0.10117429 0.011517264 -0.03753001 -0.058254138 -0.047147993

fc3.weight f4 [64, 64]
00000000: 2efc eebd 51ab f1bc 35dc e5bd 5caa a7be
00000010: 221c a23d 10a6 913d a837 693d 334d 12bc
00000020: 018f 093e 9ae6 2c3d 13c8 40bd e985 5138
00000030: 5882 6cbe 9a0b a2bd 6516 d43d da05 1a3e
00000040: 40dc 03bd f1d4 20be 5119 9d3d ffec c3bd
00000050: d688 953e ad14 303e 2f1e aa3b 09ec fb3d
00000060: 81db f7bc 4d33 b73d fbfc d33c 85b2 f7bd
00000070: affe 7f3d 9886 1b3d e621 f13d e4ff e43d
00000080: 8230 9cbd 8ed8 edbd cca8 0f3c f8c5 5d3e
00000090: bcfc 0c3c d01d 323e 0cb0 bfbd 1691 4e3d
000000a0: 9d88 3b3d aaf6 dcbd 7e1f 923d 6856 1cbc
000000b0: 7f7a 443e 6e54 7d3b c316 02bd a71e f63d
000000c0: 69ee c4bd 5bab a2bc 52f4 2ebd 6bde 89bd
000000d0: e106 be3d ce02 a23c 85c6 533c dc30 94bd
000000e0: efc1 08bd 32ee e5bc 9f94 2c3e 1458 8d3d
000000f0: 8729 46be ffdb b03d 0f65 a13d 1806 58be
00000100: 2671 773d eb03 e53d 8f04 77be 5cdc 063e
00000110: 4d1c 603d 44f2 8d3d 5d70 03be 546c 073d
00000120: 0685 9abd 41a0 913d 349e d43d c8d0 cebd
00000130: a1b3 67bd 1535 203d 88e8 273e 8ff4 c2bd
00000140: 3e43 1f3e 3f0d a73d fd24 e6bd 77f1 a5bd
00000150: 61ef a2bd a650 1d3d 2946 3b3d 5be7 b4bd
00000160: ad56 d23d e9fd ccbb c88a 2b3d 9e14 043e
00000170: 11da 0b3e 0bee c23d 1fef 0d3d 1529 9a3d
00000180: 79ed 18be c689 74bd 213a ee3d c9ea 883d
00000190: 7663 e43b 5f1d f8bd 7473 e13d c1aa ee3b
000001a0: 6d4e 953c a314 4c3e 950c 2dbe 5495 c03c
000001b0: 4409 fdbc c687 2b3c c66e d9bc b5cd 013e
000001c0: 0c88 d2bd fde9 063e b698 e63d aea8 97bd
000001d0: fb34 243e ea6f 0b3c 67f5 583d 6dbe 213c
000001e0: f3f9 243d 0a1e bdbd 0b29 bebd cc2b 8c3d
000001f0: e989 023e 18b3 8b3d 4886 e4bd 7129 693d
00000200: 8f2d adbc 5a8f 26bb c379 34bc e6fc acbe
00000210: 016f a2bc 8bcb 373e 844d 143e 56d1 eb3d
00000220: 6344 eb3b 4583 5bbd feb7 85ba 4833 1a3d
00000230: 53f5 8cbe e351 9f3d fed8 833d f365 c6bb
00000240: 9a21 f93d 79f8 02be ebef 1f3e b558 d0bd
00000250: 0e74 373e f038 7c3e 2453 d4bd 99a6 6e3e
00000260: 36f4 a6bc d0c7 443e a550 1fbe e79e 32be
00000270: 0567 023e 821f 04bd e185 1ebd b317 b8ba
00000280: 6802 1ebd 595f 5abe 8bb7 a1bd a447 6b3e
00000290: 8572 3e3d 2248 4d3d 0037 aebd a919 3d3d
000002a0: d810 203e 0517 39be 42a8 bfbd 7e9c 4d3d
000002b0: a5c9 823e 67cc cc3d 1e2d 8ebd c815 163d
000002c0: 138f a7bd 0e1f ffbb cf47 81bd b09a a1bd
000002d0: b715 053e 9599 cabd fee0 adbd 635c bebb
000002e0: 7424 443d d84e 1c3e 80d0 8a3d 323e 98bd
000002f0: 4049 92bd e730 253e 7f18 703e 6c33 1ebe
00000300: 2d5f 993d 0515 3d3d 97e0 293e b797 adbe
00000310: 8bd6 d73d 654a 1a3d fcc9 aabc 4097 ad3d
00000320: 6013 92bc 5104 acbc f5dc 333c 30b8 a33d
00000330: 9c8b f4bd e8ae 7f3d 97ee 42bd 8434 8239
00000340: 26f9 123d 28b8 e8bd 7293 2a3d a844 2dbd
00000350: 91bb 9e3e b383 34bd 982b 12be af19 bf3c
00000360: dfd7 36bc 9957 9bbc 3a60 abbd 7ed3 83be
00000370: 3ce8 1ebd 336a 373d 391c 1cbd a2d0 0b3e
00000380: 19a4 f53d bd27 0fbe 8bfb 1cbc f890 e43d
00000390: 1930 a6bd 4c56 293e a86b 5c3d 5181 44bd
000003a0: 9f09 1f3d d7ad 123d 157f c53d 55c8 b73a
000003b0: 73f9 26bd 52fd b03c 069e 51be bcd5 053e
000003c0: 2218 af3c ee1a b4bc c2a2 673d 6ad1 27bd
000003d0: 64df e8bd 6da6 933d 469b 4cbe ba9c c2bd
000003e0: 3b52 83bd 7a85 d33d 11b9 c8bd 478e 9abd
000003f0: ac0b 8f3b 2b45 8cbd f5db 5a3d 66fb 1abe
-0.11669193 -0.029500635 -0.11223642 -0.3274716 0.07915522 0.07111752 0.056937844 -0.008929539
0.13433458 0.042212106 -0.047065806 4.9954197e-05 -0.23096597 -0.07912369 0.10355834 0.15041295
-0.03219247 -0.1570623 0.07670844 -0.09566688 0.2920596 0.17195387 0.0051915864 0.123008795
-0.030256035 0.08945332 0.025877466 -0.12094597 0.062498745 0.037970155 0.11774044 0.1118162
-0.0762644 -0.1161357 0.008768272 0.2165755 0.008605178 0.17394185 -0.0935975 0.050431333
0.04578458 -0.10789235 0.07134913 -0.009542085 0.19187354 0.003865506 -0.03175999 0.12017565
-0.09615786 -0.0198571 -0.04271347 -0.06731876 0.09278656 0.019776728 0.012925749 -0.07235882
-0.033388074 -0.028067682 0.1685357 0.06901565 -0.19351779 0.08635711 0.078806035 -0.21096075
0.06041064 0.11182388 -0.24122833 0.13169998 0.05471449 0.06930974 -0.12835832 0.033062294
-0.075449035 0.07110644 0.10381737 -0.100984156 -0.05656779 0.039113123 0.16397297 -0.09519302
0.15552995 0.08156823 -0.11237524 -0.081026964 -0.07955814 0.03840699 0.045721207 -0.0883319
0.10270438 -0.0062558544 0.0418804 0.1289849 0.13657404 0.09518059 0.03465187 0.07527367
-0.14934339 -0.059701703 0.11632181 0.06685407 0.0069698645 -0.12114977 0.11008349 0.007283539
0.018225873 0.19929747 -0.16899331 0.023508705 -0.030888207 0.010469383 -0.026542079 0.12676127
-0.10279855 0.13175197 0.11259596 -0.0740522 0.16035835 0.008510569 0.05296841 0.009872061
0.040277433 -0.09234245 -0.09285172 0.06844291 0.12747921 0.06821269 -0.111584246 0.056924287
-0.021139888 -0.0025415034 -0.011015358 -0.33786696 -0.019828321 0.17948739 0.14482695 0.11514537
0.007179783 -0.053591985 -0.0010201929 0.03764656 -0.27530918 0.077792905 0.06437872 -0.0060546338
0.12164612 -0.12790097 0.15618865 -0.101731695 0.17915365 0.24631095 -0.1036742 0.2330574
-0.02038012 0.19216847 -0.15558107 -0.17443429 0.12734611 -0.03225661 -0.038701896 -0.0014045149
-0.038576514 -0.21325435 -0.07896336 0.22976547 0.046495933 0.05011762 -0.08506584 0.04616705
0.15631425 -0.18075188 -0.093582645 0.05019807 0.25544468 0.09999924 -0.06942199 0.036641866
-0.08181586 -0.0077856844 -0.063125245 -0.078908324 0.12996565 -0.09892575 -0.084901795 -0.005809353
0.047886327 0.15264452 0.067780495 -0.07433738 -0.071428776 0.16131936 0.23446845 -0.15449303
0.074888565 0.046162624 0.1658958 -0.33904812 0.10538968 0.037668604 -0.020848267 0.08476114
-0.017831504 -0.020998152 0.010977973 0.07994115 -0.11940691 0.062422663 -0.04759082 0.0002483466
0.035882138 -0.1136325 0.04164452 -0.042301804 0.31002477 -0.04407091 -0.14274442 0.023327677
-0.011159866 -0.018962668 -0.08367963 -0.25747293 -0.038795695 0.044779014 -0.038112853 0.13653806
0.1199419 -0.13980003 -0.009581457 0.11160463 -0.08114643 0.16536826 0.053813607 -0.04797489
0.038827535 0.035810318 0.096433796 0.0014021496 -0.040765237 0.021605168 -0.20470437 0.13069814
0.021373812 -0.021985497 0.056551702 -0.040971197 -0.113707334 0.072094776 -0.19981107 -0.095025495
-0.064121686 0.10328193 -0.098009236 -0.075466685 0.004365405 -0.0684913 0.053432424 -0.15134963

fc3.bias f4 [64]
00000000: 5a00 11be 86a8 9ebd 99b1 34bd 5e19 df3c
00000010: 11ef 53bd a9c3 2bbd 4994 0d3e 8cd5 2e3c
00000020: 6963 37be c6ec 00be 939d 8ebd 869c 0a3d
00000030: 45be ecbd 63f6 b9bd 25a4 04bd 13eb 1fbd
00000040: e139 84bd acee 85bd 209a 1cbe 98bb 72bd
00000050: 9157 16bc f24c 1d3d c9ef b8bd 75b8 27be
00000060: 1152 07be 7f6f debd d789 d03d c58b 9bbd
00000070: a5d8 993d 989f 2c3e 47ec e7bc 2a2c 2cbe
00000080: cc4d 85bd f489 df3d aacd 17be dde9 cf3c
00000090: 316a ddbc cd9f 50bc b7b1 ef3c bdbd 5bbb
000000a0: b3ad 683c 2b64 843d 3b03 063d 97a9 e53c
000000b0: 8090 e0bc 9ac4 0f3c 4d25 7ebd 9177 1fbe
000000c0: bdd2 c13d 229a a8bd e1b5 43bc 00fa ccbc
000000d0: 808b 133d 6abb 023e 70b0 b2bd 0b3f 2f3e
000000e0: 314a fcbd c2ea b7bd a091 3e3d 22d0 87bd
000000f0: ab1c 18bb 0d66 52bd 2af1 f9bc ca86 563d
-0.1416029 -0.07746987 -0.044114683 0.027233776 -0.051741663 -0.041934643 0.13826098 0.010671031
-0.17909016 -0.12590322 -0.06963649 0.03384068 -0.115597285 -0.09080198 -0.032383103 -0.039042544
-0.06456352 -0.06539664 -0.15293169 -0.059260935 -0.009176151 0.03840346 -0.090301104 -0.16378959
-0.132149 -0.1086111 0.10182541 -0.07595018 0.07512025 0.16857755 -0.028310908 -0.16813722
-0.06508979 0.10914984 -0.14824548 0.02538007 -0.027028175 -0.012733412 0.029259546 -0.003352984
0.014201569 0.06464418 0.032717925 0.028034968 -0.027412653 0.008774901 -0.06204729 -0.15572955
0.09464023 -0.082325235 -0.011945219 -0.025021553 0.03602171 0.12766805 -0.08725059 0.17113893
-0.123188384 -0.089803234 0.046525598 -0.06631495 -0.0023210447 -0.051366854 -0.030510504 0.05237464

action_out.weight f4 [2, 64]
00000000: e86a f13e 48ed 00be adc6 fd3e 77a0 343d
00000010: c000 2b3e dc63 4a3e 4030 4abe 7732 1a3f
00000020: a24d c03e 3e87 7f3e 5f17 343e 90b0 03bd
00000030: 37f4 703f 8f24 823e 8f51 183e 8dfa 0dbe
00000040: 3ad2 03be 8f15 ef3d a78f 6d3e 5367 2c3f
00000050: d832 253f a6a2 0cbe bebe fd3e 54a2 053e
00000060: 58d5 cc3a 2574 e13d 118a bdbd 7b07 b4bd
00000070: fdea a7bc 2a5c dcbd f26c 1dbe 8093 653d
00000080: b071 f9bd 0851 afbd 7ea4 0e3e d59a 313e
00000090: 4835 38be aab8 b7bd f1f9 b83d 95aa 263e
000000a0: 41e3 0a3e 4f45 533e c09a 003e b380 713c
000000b0: 6e92 b03d cce6 723d 7be8 e43d a6f2 a13e
000000c0: 83c3 92bd 04f7 193e 72ab e3bb 44b9 fabd
000000d0: 748d c13d 96e1 8d3e 060f b7bd 2dd7 52be
000000e0: a4a2 35bb 40ab aabd bf24 21be 9edc 833d
000000f0: 3df6 46be 20b8 9fbd 0133 463c 7300 043e
00000100: f125 2fbe 695b 353e f8bb 3bbe 418d 5dbe
00000110: 38b9 043d 760d 1fbe f0ab 2abe 85bf 8fbd
00000120: af4e 8a3a 3763 edbd c331 3bbc f288 383e
00000130: f730 9c3e 29f8 b7bd 4c92 90bd 576a 8bbd
00000140: c1f2 d13d 33c3 193e 1b73 4ebe 5976 613d
00000150: 9e1d c33d 5f93 cfbd 9e9c 943e b2ba 46be
00000160: 3190 173e c237 33bc 9150 293d 18f5 60be
00000170: a393 a1be f0ea 3cbe ffd8 82be b455 b63d
00000180: c2ce ee3e 4f1d 0ebe 460c c8bd 2c03 163e
00000190: a31f 3a3d 55a5 9abe 8426 01be 472f f3bd
000001a0: fa26 a23c 1b90 2dbd fec8 f03d 738d 353e
000001b0: 094a 1a3e b18c 7fbd e0e6 23be 4b2f 37be
000001c0: e0e4 f0bd 91a5 b4bd 38ab 073e 404b 6abd
000001d0: 1c57 9abd d933 9ebd 330c 083e bb5d d6bd
000001e0: f488 f33e 0486 c93d d60d 9abc 9fa7 e33d
000001f0: 8824 4ebe 3691 09bf 1afc 79be b461 113e
0.47151875 -0.12590516 0.4956564 0.044098344 0.16699505 0.19764656 -0.19744968 0.60233253
0.3755923 0.24953935 0.1758704 -0.032150805 0.9412264 0.25418517 0.14874862 -0.13865109
-0.12873164 0.11674034 0.2319933 0.6734516 0.64530706 -0.1373392 0.49559587 0.13050205
0.0015627546 0.11008481 -0.0925485 -0.08790489 -0.020497793 -0.107597664 -0.1537359 0.05604887
-0.12179887 -0.08560377 0.13929936 0.1734422 -0.17989075 -0.08970769 0.090320475 0.1627601
0.13563253 0.20631908 0.12559032 0.014740157 0.08621679 0.059302136 0.11177155 0.3163044
-0.07166197 0.15035635 -0.006947928 -0.12242368 0.09450808 0.2771117 -0.08938412 -0.20589896
-0.002771535 -0.083334446 -0.15736674 0.06438564 -0.1942987 -0.07798791 0.012097121 0.12890796
-0.17104317 0.17710651 -0.18333423 -0.21635915 0.0324032 -0.15532479 -0.16667151 -0.07018951
0.0010552014 -0.11591189 -0.011425438 0.1802099 0.30506107 -0.0898288 -0.07059154 -0.06807392
0.1025138 0.15015869 -0.20161097 0.055044506 0.095271334 -0.10135531 0.2902574 -0.19407156
0.14801098 -0.010938587 0.0413366 -0.21968496 -0.3155795 -0.18448997 -0.2555618 0.08903065
0.4664212 -0.13878368 -0.09767966 0.14649647 0.045440327 -0.30204263 -0.12612349 -0.11874252
0.019793976 -0.042373758 0.11757086 0.1772974 0.15067305 -0.062390033 -0.1600604 -0.17889135
-0.117624044 -0.08820642 0.13248909 -0.05720067 -0.07536146 -0.07724733 0.13285904 -0.104670964
0.47565424 0.098400146 -0.018805426 0.111159556 -0.20131123 -0.537372 -0.24412575 0.14197427

action_out.bias f4 [2]
00000000: c384 5ebb 460c ccb8
-0.0033953644 -9.729764e-05
