model_flock/flock/agent_0/9_actor_params.pkl (torch, 39031 bytes, 8 tensors)

fc1.weight f4 [64, 8]
000000 0f 3f 06 3e e5 98 29 be 95 af 27 be 6d d9 8f be
       0.13109992 -0.16562231 -0.16375573 -0.2809557
000010 94 9d ed ba 6e e6 82 3d d6 6f c3 3e 01 e5 fa 3e
       -0.0018128627 0.06391607 0.38171262 0.4900284
000020 e3 80 0e 3e 01 57 3c be ae 73 3d be 7c 81 5d bd
       0.13916354 -0.18392564 -0.1850116 -0.054078564
000030 33 5d f6 3d 56 25 93 bd 81 f4 6b 3e 81 79 d9 bd
       0.12029495 -0.07184856 0.2304249 -0.10618878
000040 18 96 90 bc 5d 33 11 bc 41 7e b2 be 65 41 7d be
       -0.017649695 -0.008862344 -0.3486195 -0.24731977
000050 e0 a8 60 be 96 46 bd 3e b0 4e 12 3f 18 d7 36 be
       -0.2193942 0.36967915 0.5715132 -0.17855489
000060 a9 43 0d be 97 cf 96 be 6e bb a0 be 48 8d 7e 3e
       -0.13795342 -0.29455253 -0.31392998 0.24858582
000070 3b be 84 3d 8d 56 a0 be ac 26 90 3d 3d ee 89 be
       0.06481596 -0.31316033 0.07038626 -0.26939574
000080 d8 44 11 3c 87 da 15 be 95 3c 64 be fc fc aa 3e
       0.008866511 -0.14634143 -0.22288735 0.33396137
000090 52 4d 0c bc 68 2a 2d bd 23 a4 35 3e ba 73 89 be
       -0.0085633565 -0.04227677 0.17738394 -0.26846105
0000a0 14 a4 15 3f 3b 1d fc 3d 3f cb 46 3e 69 84 bb bd
       0.5845349 0.12310263 0.1941347 -0.091561146
0000b0 76 c9 81 be b4 8e d1 3e 1a 16 b3 3e e2 0a 57 3e
       -0.25349015 0.40929186 0.349778 0.21000245
0000c0 42 e1 a5 be 00 61 02 be 5b 8a 8a 3e 0f 00 1f 3e
       -0.3239842 -0.12732315 0.27058682 0.15527366
0000d0 ed 2f fd 3c e6 fb 87 3e f1 f6 74 3d f6 03 40 3e
       0.030906642 0.2655937 0.059805814 0.18751511
0000e0 08 c7 a4 3e e6 45 bc bd ad 7b 3c be 62 98 73 be
       0.321831 -0.091930196 -0.18406554 -0.23788598
0000f0 0a a8 b2 bd e1 92 7b 3e 41 3b 27 3e 35 98 63 3e
       -0.08723457 0.24567749 0.16331197 0.22226031
000100 5f 0c be 3e 40 b7 48 bd f1 15 8b bc 69 2a 66 3d
       0.37118813 -0.049002886 -0.016978236 0.05619279
000110 28 01 98 be ac 62 9e 3e dd 7e c9 3e 0b d0 1e 3e
       -0.29688382 0.30934656 0.39354602 0.1550905
000120 9b 9c 04 3e 25 38 fa 3e 45 f5 bc be f3 db d3 3d
       0.12950365 0.4887096 -0.36905876 0.10344686
000130 1a ef 42 bd 20 0f 8d be 6f 6c d1 be e0 4c 91 be
       -0.047591306 -0.27550602 -0.4090304 -0.28378963
000140 ad 75 9f 3d 1b b7 83 be 4b 4d 91 be 06 c2 14 be
       0.07786117 -0.25725636 -0.28379282 -0.14527139
000150 c0 59 7f 3e bd e9 3a be e8 4d 76 be 1a b0 64 3e
       0.2493658 -0.18253227 -0.24053156 0.22332802
000160 e0 c1 c9 3e 97 66 d7 bd a8 ce 26 3e 2d de 7e be
       0.39405727 -0.10517614 0.1628977 -0.24889441
000170 fc ba 98 be 88 34 04 bd 55 85 96 3e d9 2a 9e bd
       -0.29830158 -0.03227666 0.293986 -0.07723016
000180 93 70 93 3e b9 c9 dc 3e cb e7 45 bd 5b 02 a2 be
       0.28796825 0.43122652 -0.048316758 -0.31642422
000190 49 11 b8 be 81 78 88 3e f3 9a 84 bd 45 6a e7 be
       -0.35950688 0.26654437 -0.06474867 -0.45198265
0001a0 c2 c3 d7 bd 32 38 26 be 44 ad 6e be 57 64 ea 3e
       -0.10535385 -0.16232374 -0.23308283 0.45779678
0001b0 97 2a 61 3e e1 06 e7 be 77 fc 90 3e 47 4d b4 3e
       0.21988903 -0.45122436 0.28317615 0.35215208
0001c0 73 f4 c7 be 4b 6a 90 3e 2f 62 28 3e 2a 17 7a be
       -0.39053687 0.28206095 0.16443704 -0.24422899
0001d0 ee e0 91 3d 13 54 ef bd a9 ae 8b bd 56 f9 04 3f
       0.0712298 -0.11685958 -0.06820423 0.51942956
0001e0 79 7f 17 be 3b 75 1e 3e c9 73 73 3e aa c3 57 3e
       -0.1479472 0.15474407 0.23774637 0.21070734
0001f0 32 04 96 3e c7 29 81 be f7 51 5a be 08 36 a9 3e
       0.29300076 -0.25227186 -0.2132033 0.33049035
000200 9a 4c 35 be be e7 67 be 4e e1 97 3e e9 42 d4 bd
       -0.17705002 -0.22646996 0.2966408 -0.103643246
000210 89 8f ed bd 14 03 b1 3e db 95 9e be 09 6b b9 be
       -0.11599643 0.3457266 -0.30973706 -0.36214474
000220 bc 2c bb bd 7a 41 88 3d f9 58 7f be 9f 92 75 3e
       -0.09139392 0.06653114 -0.24936284 0.23981713
000230 21 cd 9e 3e ab 44 3b 3b 9e 1a 76 3e 26 7f 2c 3d
       0.31015876 0.0028574865 0.24033591 0.042113446
000240 bf 2b b7 be b0 4d 43 3e 04 c8 9d 3e e6 52 63 be
       -0.35775563 0.19072604 0.30816662 -0.22199592
000250 fc 5c c1 3e 5f b9 34 3e b8 6b 36 be 8a 30 48 be
       0.37766254 0.17648838 -0.17814529 -0.19549766
000260 cc 09 36 be 7a 2e b2 3e 89 ae 64 bc b1 04 d0 3e
       -0.17777175 0.34801084 -0.013957628 0.4062858
000270 92 9e af 3d 53 e5 88 be 86 64 12 bf 38 04 b2 ba
       0.08575167 -0.2673746 -0.57184637 -0.001358158
000280 f0 c0 14 be 71 d1 b9 bd d3 2d 93 3e e5 67 30 3e
       -0.14526725 -0.09073151 0.287459 0.17227133
000290 6a 90 91 be 81 b6 cd be 1c c6 e6 be 0d 4b 98 3d
       -0.28430492 -0.40178302 -0.4507302 0.0743619
0002a0 be d8 9d be b0 0b 54 be eb 2c 85 3d a4 d8 80 bd
       -0.30829424 -0.20707583 0.06502708 -0.06291321
0002b0 66 52 4d 3d d8 7a b5 be 38 47 d3 3e 0e e9 97 3e
       0.05012741 -0.35445285 0.41265273 0.29669994
0002c0 9f 73 69 be 1a 12 6a 3d e4 20 12 be 14 cb 63 be
       -0.22798012 0.05714617 -0.1427036 -0.22245437
0002d0 a8 11 5a be 50 bd 88 3e 06 73 8d 3e 93 02 c3 be
       -0.21295798 0.26706934 0.27626818 -0.380879
0002e0 3f 97 d9 bd 46 3d 06 bd c3 c0 d9 3d 9a 7d ab be
       -0.10624551 -0.03277328 0.106324695 -0.33494264
0002f0 24 d9 b4 3e 57 57 c5 3d c3 83 9b 3e 52 5c c8 be
       0.35321915 0.096357994 0.30373964 -0.39132935
000300 d6 fe 3f 3c 1b bc be 3d ee d5 f2 3d c1 da b0 be
       0.0117184725 0.09313222 0.1185721 -0.34541896
000310 8b e6 5c 3c f9 a9 c2 3c 6a d1 b0 3e 66 bc eb 3e
       0.0134827 0.02376269 0.3453477 0.46042174
000320 2d bd a2 be 1e ee a0 3e fb 34 72 be 87 b9 48 3e
       -0.31784955 0.3143167 -0.23653023 0.19602023
000330 ba a9 64 3e 5b 49 44 3e 47 47 24 be e8 29 a3 be
       0.2233037 0.19168608 -0.16042815 -0.3186791
000340 17 b3 e5 be 0d 7a 09 3e e9 c3 98 3e 05 04 af bd
       -0.44863197 0.13425465 0.29836968 -0.085456885
000350 04 d8 22 3e 32 28 24 3d e3 f6 85 3e 9f d2 07 3f
       0.15902716 0.040077396 0.26164922 0.5305576
000360 db 08 16 3e 9a 35 63 be 81 17 f2 bd 05 04 d6 bd
       0.14651816 -0.22188416 -0.11820889 -0.104499854
000370 70 f1 c8 be d2 e6 4c 3e 1c dc 31 bd f4 bc 7a bd
       -0.39246702 0.20009926 -0.043422803 -0.061215356
000380 ec e6 0c bd 98 0a a5 bd 9d 78 8f 3e 4e 95 fd bc
       -0.03439991 -0.08058661 0.28021708 -0.030954983
000390 53 b9 f2 3d 9f 9d df bd 1f 2b d6 3e d4 24 b2 3e
       0.11851754 -0.10918736 0.41829774 0.34793723
0003a0 da 65 9c be fd 38 c2 be fe 55 ea 3d fd a2 45 be
       -0.30546457 -0.37934104 0.11442183 -0.19300456
0003b0 a1 e0 c3 3e 3c 2c c0 3d 09 d3 d4 bd 6b e5 9d 3d
       0.38257316 0.09383437 -0.10391814 0.07709774
0003c0 86 68 88 be ab af d1 3d 92 fb 3a 3e 6e 45 8c 3e
       -0.26642245 0.10238584 0.18260029 0.2739672
0003d0 53 79 af 3e 4a 5d a8 3e 59 48 10 be 60 bc f1 3e
       0.3427225 0.32883674 -0.14090098 0.4721403
0003e0 9a 5d bd be 3d 8b b4 be 7a 26 b7 bd f7 57 bc be
       -0.36985475 -0.3526248 -0.08942886 -0.36785862
0003f0 a5 64 43 3e 8a e7 b3 3e ac 7b 14 3e d4 33 6c be
       0.19081362 0.35137588 0.14500302 -0.23066646

fc1.bias f4 [64]
000000 df ac 42 3e 56 84 f1 3e 0f 5f bb 3e e5 b7 85 3d
       0.19011258 0.47171277 0.3659596 0.06529216
000010 36 d2 a7 3e 03 69 8c 3e 79 66 82 be e9 2e 0b 3c
       0.32777566 0.27423868 -0.25468805 0.008495071
000020 ca 87 6d 3d 51 f2 b2 bd 93 2e eb 3d 5a 8d d9 ba
       0.057990827 -0.087376244 0.11483493 -0.0016597912
000030 90 1a 8d be 27 09 1e 3e 15 49 5b 3e 65 60 54 bd
       -0.27559328 0.15433179 0.21414597 -0.05184974
000040 85 5e d3 3c 99 74 93 3e a9 d0 7f 3d 9f 0d 07 3e
       0.025801906 0.28799894 0.062454853 0.1318879
000050 5b d6 22 be 74 93 9c be e1 3d 3a 3d c5 c2 61 3b
       -0.15902083 -0.30581248 0.04546917 0.0034448367
000060 4b 96 d1 3e 67 59 8f 3e b9 a8 84 be 65 c1 9b 3e
       0.40934977 0.27997896 -0.25909975 0.30420986
000070 9e bc 39 3d 4b 60 95 3d ab 74 e5 bc 1b 8c 4e 3d
       0.045345895 0.07293757 -0.028009733 0.050426584
000080 da 87 88 3e d9 95 9a 3c da c6 9e 3e 1f 18 f8 3c
       0.26666147 0.018870281 0.31011087 0.03028494
000090 c7 47 4c 3e 4e 82 ee 3d f0 56 b1 3e d5 23 36 3e
       0.19949256 0.116459474 0.3463664 0.17787106
0000a0 24 bb fe 3d a8 75 8c be 4b 45 af 3e b6 c0 07 be
       0.12438038 -0.27433515 0.34232554 -0.13257107
0000b0 7f 39 92 3e 56 68 3d 3e d0 27 68 3e e5 7c 03 be
       0.2855949 0.18496832 0.22671437 -0.12840612
0000c0 71 41 98 be 5a 02 70 bb 4a 6f 12 3e 4d f2 e9 3b
       -0.29737428 -0.0036622495 0.14300266 0.00713948
0000d0 d6 96 ea bd 54 d2 b9 be 54 a4 a7 bd 92 e0 b4 3e
       -0.11454551 -0.3629328 -0.0818564 0.35327584
0000e0 d1 f7 02 3e 96 79 5e bd 9c 03 93 be 4b 4f a8 bb
       0.12789847 -0.054315172 -0.2871369 -0.0051364056
0000f0 92 7f 5e be ff 38 fd bd b9 90 d4 be 46 c2 f7 3e
       -0.21728352 -0.12364387 -0.41516665 0.48390406

fc2.weight f4 [64, 64]
000000 4a 81 9f 3a 68 96 ec 3d 44 af 81 bd 92 24 af bc
       0.0012169268 0.11552125 -0.063322574 -0.021379743
000010 e7 27 17 3d a6 10 87 3d ad e2 47 3e f7 c9 50 3d
       0.03690329 0.06594972 0.19520064 0.05097386
000020 a8 26 38 3d 16 54 c8 bd f7 8a 0b 3d 1c a6 8a bd
       0.04495874 -0.09781663 0.034068074 -0.06769964
000030 44 f6 3d be cf 50 1b bd 31 d4 6a bc b1 84 2a bc
       -0.18550974 -0.037918862 -0.014332817 -0.010407613
000040 52 46 55 bd 46 0a e7 bc d1 00 e1 3d 78 c1 f8 bd
       -0.052069016 -0.028203141 0.10986484 -0.12146276
000050 e7 99 08 3d b6 d0 b5 3d 27 0c ca 3d 98 62 0c 3e
       0.033349898 0.08877699 0.09865599 0.13709486
000060 b5 cc 1c 3c d0 0d a1 3d 61 95 05 3e fe 81 d9 3d
       0.00957029 0.07863963 0.13045265 0.10620497
000070 9b bb b8 bd ee b5 b7 3d 42 5a 09 3e 8b 94 80 ba
       -0.09020158 0.08970247 0.13413337 -0.0009809894
000080 78 6e 9a 3d 6d 46 b5 bc 21 cb 37 bd 2b f3 ef bd
       0.075406015 -0.022128308 -0.044871453 -0.117163025
000090 19 01 4d 3c 4d 6a 79 3d d7 4d 0e 3c 28 2d 93 bc
       0.012512469 0.060892392 0.008685551 -0.017965868
0000a0 75 15 f1 3d 49 86 c1 ba a5 3c b4 3d 2e 72 cb bc
       0.11771671 -0.0014764752 0.088006295 -0.024834719
0000b0 4b a5 9b bd 5f 46 80 be 2c 87 d9 bd d5 a9 e9 3b
       -0.075998865 -0.2505369 -0.10621485 0.0071308413
0000c0 6b a3 a6 bd f1 a2 38 3d 14 58 99 bd 38 d0 26 3e
       -0.08136638 0.045077268 -0.07487503 0.16290367
0000d0 50 50 d2 bd 31 49 8b bd 74 bc 03 3e 71 c2 24 be
       -0.10269225 -0.068010695 0.12864858 -0.16089799
0000e0 06 4c 92 bd 5c f5 c0 3d 84 a3 a5 3d da 95 d3 bd
       -0.071434066 0.094217986 0.08087829 -0.10331316
0000f0 da 52 d7 3d 95 e5 d0 3d 73 8b f0 3d 83 e2 ff 3d
       0.105138496 0.10200039 0.11745348 0.124943756
000100 df a5 a5 3d 55 cd 74 3c 69 71 3d 3d 5c ce 4a bd
       0.08088278 0.014941533 0.046250734 -0.049513206
000110 e7 8e a7 bd 74 43 62 bc 90 84 22 3e a3 d5 46 3c
       -0.08181553 -0.013810027 0.15870881 0.012135896
000120 dc e9 e1 bb 19 6d d4 bc d4 ee cc bc d4 7e fd 3c
       -0.0068943333 -0.025930928 -0.025016226 0.030944265
000130 6c c0 e7 bd 86 3c 90 bd 33 37 d0 3d 38 bd 93 3b
       -0.113159984 -0.07042794 0.101667784 0.0045086406
000140 22 58 b6 3d ac 2d e1 ba b8 e5 dc 3d df 6a 0b 3d
       0.08903529 -0.0017179749 0.10786003 0.034037467
000150 55 2f 99 3d a2 e6 ba bd ae 77 f8 bd 18 cf 5c bd
       0.07479731 -0.09126021 -0.12132202 -0.053908437
000160 c1 92 e2 3d 8f 27 81 bc ba f8 ae bc bc ef d5 3d
       0.11063147 -0.015765933 -0.021358836 0.10446116
000170 55 f9 c8 bd 7c d0 11 bd bb 30 84 bd c1 35 29 bd
       -0.09813181 -0.035599217 -0.06454607 -0.04131103
000180 64 50 0a 3e f2 24 61 bd fd 41 55 3d e2 9d b3 bc
       0.13507229 -0.054966874 0.052064884 -0.02192587
000190 b6 19 fc 3d 3f a0 5a 3e 2e eb 8a 3c a7 41 9a bc
       0.123095915 0.21350192 0.016957846 -0.018830134
0001a0 6b 28 3a bd ce 2a 32 3e 7b dc 0c be 02 ec 53 bd
       -0.0454487 0.17399141 -0.13755982 -0.051738746
0001b0 cc f6 92 3d 60 e4 80 bc 7e 21 96 3d 31 6f 82 3d
       0.07175979 -0.015733898 0.07330607 0.06368864
0001c0 e9 2f 91 3d 70 95 c0 39 f4 4e db 3c 5b f4 38 3c
       0.07089216 0.00036732433 0.026771046 0.011288728
0001d0 1f 4e 36 3d eb 27 09 3e d8 f7 d0 3d d5 d9 33 3d
       0.044508096 0.13394134 0.102035224 0.043908913
0001e0 ad 46 e2 3d 1b 50 38 3c 97 1c 78 3d fa c6 ea 3d
       0.110486366 0.011249567 0.06057414 0.11463733
0001f0 54 15 0b 3d 27 93 83 bd 2b 6c df 3b 59 d3 0a bc
       0.033955887 -0.064245515 0.0068183145 -0.008473241
000200 74 e3 db bd 31 5f 6b 3d 14 05 41 3d c2 00 13 bd
       -0.107367426 0.05746383 0.047123984 -0.035889395
000210 3e 28 e4 3c 2e de 3d be 37 73 86 bd ad b1 92 bd
       0.02785122 -0.18541786 -0.06564944 -0.07162795
000220 7e 0b 1c 3e 35 44 d8 bd 98 28 f3 3c f0 35 b1 bd
       0.15238759 -0.105598845 0.029682443 -0.08652866
000230 04 38 a6 3d 19 f0 90 3d 6a 78 41 bc 2f 73 cd 3d
       0.08116153 0.07077045 -0.011808494 0.10031735
000240 6a df c4 3c c9 89 15 3d 1b 36 17 be 07 6d 89 bd
       0.024032313 0.036508355 -0.14766733 -0.067102484
000250 f6 92 47 3e 4e 6f 27 3e 76 f1 8d 3d 5a 49 3f be
       0.19489655 0.16351053 0.06930821 -0.18680325
000260 0e 99 32 be f3 b3 9e 3d 0c 3b d2 bd b0 91 41 3b
       -0.17441198 0.07749166 -0.102651685 0.00295363
000270 bf 10 15 3d 0d af 51 3a 16 3e bb bd 3f 03 54 bd
       0.036392923 0.0007998802 -0.09142701 -0.05176091
000280 22 2d 0e bd 82 01 56 bd 7d ce 21 3e e3 29 4b 3e
       -0.03471101 -0.05224753 0.15801425 0.19840197
000290 7f 3d 22 3d b9 a9 9e bd 61 fe 3f 3e 67 c9 54 3e
       0.03960943 -0.07747216 0.18749382 0.20779954
0002a0 c7 2b 16 3c e1 95 ee 3c 3b c4 2e 3d 83 4e 1c 3d
       0.009165711 0.029124202 0.04266761 0.038160812
0002b0 1b 91 21 3b a6 12 c2 bd 47 5a 12 3e 33 e1 83 3d
       0.002465314 -0.09476213 0.1429225 0.06439438
0002c0 20 ce 06 be 92 35 e8 3d 6e 95 81 3d e3 35 64 bd
       -0.13164568 0.11338343 0.063273296 -0.055715453
0002d0 70 b6 f7 bd b6 13 16 be 9a 8c 89 bc d5 7e 46 3d
       -0.12095344 -0.14655957 -0.016790677 0.0484608
0002e0 54 6a 9f 3d 3e 43 16 bd 04 1a 4c bc 85 23 8f 3d
       0.07783952 -0.03668522 -0.0124573745 0.06989197
0002f0 03 27 01 be 6d 2f 92 bc 2c be a1 3d f8 3f a7 bd
       -0.12612538 -0.01784488 0.078976005 -0.08166498
000300 19 86 ad bd 1a 8d 78 ba 9f e3 5a bd c5 3f 85 bd
       -0.08472843 -0.0009481475 -0.053439733 -0.06506304
000310 85 64 e5 3d 4d fc fc 3b fa fb a8 bc 6b bd 9e bc
       0.11200813 0.0077205063 -0.020627964 -0.01937743
000320 49 24 bb 3d ec 6a 18 3e 46 8c 4c bc b6 8c 07 3e
       0.0913778 0.14884537 -0.012484616 0.1323727
000330 f6 d3 a2 bb 28 25 19 bc a5 7d 91 3d 66 b3 36 bd
       -0.0049691154 -0.009347238 0.07104043 -0.04460468
000340 dd 43 87 3b 97 90 fb bd 87 af 9f bb 80 52 95 3d
       0.004127963 -0.12283438 -0.0048732194 0.07291126
000350 59 30 74 3c dc ad 08 be be a7 53 3d da 49 43 3d
       0.014904105 -0.13347572 0.051673643 0.047677852
000360 44 79 7e 3d 01 15 59 3d 74 f8 ad bd db 40 23 3e
       0.062127367 0.052998547 -0.08494654 0.15942709
000370 45 f6 92 3d e9 40 a3 bd bc 31 3f 3c 97 74 a3 ba
       0.071758784 -0.07971365 0.011669572 -0.001247066
000380 b2 d1 86 3d c1 44 91 3d de e1 05 3e de bd 3d 3e
       0.06582965 0.07093192 0.13074443 0.1852946
000390 a8 15 9b bd e5 b0 1f 3e 2f b8 ad bd b6 10 49 3d
       -0.0757249 0.15594824 -0.08482396 0.049088202
0003a0 2b b7 31 3e 1a 9c b8 bd b9 12 10 3e 98 95 c4 3d
       0.1735503 -0.09014149 0.14069642 0.09598845
0003b0 7a 78 17 3d af 8a 80 bd d9 30 e3 3d d9 4d 89 3d
       0.03698013 -0.06276452 0.11093301 0.067043014
0003c0 b9 00 b0 3d c3 cb 1a 3d ef 89 0e bd df 8e 6c 3e
       0.08593888 0.03779198 -0.034799512 0.23101376
0003d0 fa bc 06 be 21 e7 64 3d 8d a2 bd bc 85 6c 37 3d
       -0.13158026 0.055884484 -0.0231488 0.044781227
0003e0 52 76 16 bd dd ed ef bc 10 43 dd 3d a7 12 9e bc
       -0.036733933 -0.029288227 0.10803807 -0.019296004
0003f0 46 54 15 be c2 92 95 bd 5e c0 5c 3c f7 c0 28 3e
       -0.14582929 -0.073033825 0.013473598 0.1647986

fc2.bias f4 [64]
000000 93 be 61 3d c5 60 8a bd d9 bf 63 3d 7d a4 cf 3d
       0.055113386 -0.067567386 0.055602882 0.101387955
000010 d3 99 c2 bc 61 de 0c be 8d 05 67 3d 26 02 a5 bd
       -0.02375499 -0.13756706 0.056401778 -0.080570504
000020 19 6c e3 bd a5 65 41 3e d1 36 b9 3d 92 66 a7 bd
       -0.11104602 0.1888643 0.090436585 -0.081738606
000030 70 8d c8 3d e6 ca 3c 3e d9 8f e1 bd c6 3e c3 3d
       0.09792602 0.18436775 -0.11013765 0.095334575
000040 4e 5d 67 3d aa 7d 0f 3e 26 dd 4f be 5e 42 3f 3e
       0.056485467 0.14012781 -0.20299205 0.18677661
000050 34 8f 81 bc 2a db 73 be 5d f1 02 3e a4 df a5 bd
       -0.015815355 -0.23814073 0.12787385 -0.08099297
000060 69 3b 92 bd 6e d1 21 be cc 9c a3 bd 3b f2 a2 3d
       -0.07140238 -0.15802547 -0.07988891 0.07956358
000070 37 b8 6f bc 6c 12 c7 3d 79 db ec bd a4 3c 82 bd
       -0.014631323 0.097203106 -0.115652986 -0.063592225
000080 e5 30 ac 3d 7a 03 50 3e aa e2 7f ba 20 6b 8a bd
       0.084077634 0.20313826 -0.00097612536 -0.06758714
000090 84 ed 0d 3d 63 6e bb 3d bd e4 36 be 64 7d 29 3c
       0.03465034 0.09151914 -0.17860694 0.010344837
0000a0 01 f7 13 be a0 32 a3 3d 30 f2 2a 3e bc 2a b7 bd
       -0.14449693 0.0796864 0.1669395 -0.08943698
0000b0 ce 43 3f bc 80 78 03 3e 9c 53 6b bc 4d 0a 70 bd
       -0.011673881 0.12838936 -0.014363196 -0.058603574
0000c0 2f be be 3c 41 c9 72 3d 1b 27 f9 3d af 2d 02 3e
       0.023284046 0.059273962 0.12165662 0.1271274
0000d0 a2 54 ef bd d3 c4 81 3d b3 a2 31 be f6 97 0e be
       -0.11686064 0.06336369 -0.17347221 -0.13925156
0000e0 a9 d6 19 3e 54 5e 81 3c 34 2a d9 bd 7b ef c8 bd
       0.15023293 0.01579205 -0.10603753 -0.09811302
0000f0 cf 6c 57 3c 42 3a 2d bd dd f4 79 bd 1b bc 2c bd
       0.013148501 -0.042291887 -0.061024535 -0.04217158

fc3.weight f4 [64, 64]
000000 73 6d f8 bd d4 24 d3 bc e4 de fb bd bf 4a a9 be
       -0.12130251 -0.025774397 -0.122983724 -0.3306484
000010 04 d3 93 3d a8 8b b8 3d 33 3c 88 3d d1 01 f1 3b
       0.072179824 0.09011012 0.06652107 0.007354953
000020 42 43 1d 3e cb e5 1a 3d eb 02 47 bd e9 85 51 38
       0.15357688 0.037816804 -0.048586767 4.9954197e-05
000030 9f e9 82 be b4 28 be bd 54 b7 05 3e 33 ae 23 3e
       -0.25568864 -0.09285107 0.13058215 0.1598442
000040 9b 0f 97 bc 87 b3 23 be e3 60 d2 3d 5b c2 ca bd
       -0.018440058 -0.15986453 0.10272386 -0.099003516
000050 fe ac 93 3e dc dc 63 3e ea 23 77 ba 36 1b fd 3d
       0.2884292 0.2225222 -0.0009427654 0.12358706
000060 3a 1d 0d bd 36 27 b5 3d c4 61 f4 3c bc f3 05 be
       -0.0344517 0.088453695 0.029831775 -0.13081259
000070 34 6c 7a 3d b0 d1 10 3d e6 21 f1 3d a3 16 fb 3d
       0.061138347 0.035356224 0.11774044 0.12260177
000080 4c c5 a4 bd d8 37 01 be c9 43 f4 bc 29 b2 62 3e
       -0.08045444 -0.12618959 -0.029817479 0.22138275
000090 f3 57 eb b9 f5 fa 25 3e 8e 42 02 be 17 18 58 3d
       -0.0004488822 0.16209014 -0.12720701 0.05275735
0000a0 3a 67 91 3d 1e 49 df bd 11 95 86 3d eb 22 04 3b
       0.07099767 -0.10902618 0.06571401 0.0020162414
0000b0 0b 7f 57 3e b9 49 09 bc 72 e2 2a bd 12 ac 0b 3e
       0.21044557 -0.008379393 -0.04171986 0.13639858
0000c0 92 2d e4 bd 2c 61 a7 bc 6e 9e 31 bd 24 48 93 bd
       -0.11141504 -0.020432077 -0.04336398 -0.07191494
0000d0 f9 f5 c6 3d b2 f1 e1 3c 68 51 fa 3c 48 91 94 bd
       0.09714884 0.02758107 0.030556396 -0.07254273
0000e0 7c 4a 0a bd 87 35 2d bd d2 7d 2c 3e 8c a0 83 3d
       -0.03376244 -0.042287376 0.16844872 0.06427106
0000f0 c4 88 46 be a0 ef af 3d 9d 17 a0 3d 0f 4a 5c be
       -0.1938811 0.08590627 0.07817004 -0.21512626
000100 08 d7 78 3d 2d 80 d3 3d 81 3b 95 be f3 66 0c 3e
       0.060751945 0.10327182 -0.2914696 0.13711147
000110 38 85 51 3d 67 7e 89 3d 45 50 0b be 20 46 4e 3d
       0.051152438 0.067135625 -0.13604839 0.050359845
000120 ce d4 92 bd 6b 4b 86 3d 3e c1 d3 3d c8 d0 ce bd
       -0.071694955 0.065573536 0.103395924 -0.100984156
000130 52 45 5d bd d4 4e 27 3d b2 b5 02 3e 03 11 d7 bd
       -0.054021187 0.04084666 0.12764624 -0.105012916
000140 aa 88 2a 3e 0d a9 9a 3d d6 b4 e7 bd 3c 08 a9 bd
       0.16653696 0.07551775 -0.113137886 -0.08253524
000150 2d 52 8d bd fc f0 0c 3d e8 d0 22 3d f1 0f ba bd
       -0.069004394 0.034409508 0.03975001 -0.09085072
000160 a3 43 cd 3d e4 14 aa bc 2f d3 15 3d 43 f2 00 3e
       0.10022666 -0.020761915 0.036578353 0.12592416
000170 af a2 07 3e d5 50 d0 3d 0d d0 36 3d ed c4 a4 3d
       0.13245653 0.101716675 0.044632006 0.08045373
000180 4f 47 16 be ec 76 79 bd 27 e5 1e 3e 5d a9 81 3d
       -0.1467564 -0.06090443 0.15517102 0.063311316
000190 ab 6e 07 3c 5e 0c f1 bd eb 25 f0 3d 04 af d2 3b
       0.008266131 -0.11769937 0.11725982 0.006429555
0001a0 71 0a 8d 3c 17 27 50 3e 1a 28 33 be 2c 35 5d 3c
       0.017216893 0.20327412 -0.17495766 0.013501447
0001b0 8d 9e c4 bc 80 63 51 3c 58 b3 dd bc 54 88 0b 3e
       -0.024001384 0.01278007 -0.027063057 0.13626224
0001c0 e9 7b e1 bd db be 05 3e 33 94 e1 3d 7a 3a 74 bd
       -0.11009962 0.13061087 0.11014595 -0.05962608
0001d0 41 34 1f 3e 92 f5 02 3c c9 88 db 3c 43 2e be 3c
       0.15547277 0.007993119 0.026798623 0.023215419
0001e0 5f 79 ec 3c 4d 95 a7 bd 36 96 c1 bd 24 e1 8b 3d
       0.028866468 -0.08182774 -0.094524786 0.068300515
0001f0 51 63 06 3e 34 a3 8a 3d a2 72 f5 bd ee 49 5c 3d
       0.13123824 0.0676941 -0.11984755 0.053781442
000200 c5 bc c2 bc b9 7f 90 3a e8 b9 49 bd 15 12 ae be
       -0.023771653 0.0011024392 -0.04924956 -0.3399817
000210 c3 0d c9 bc 26 00 49 3e 0f 3a 21 3e 81 bf 04 3e
       -0.024542695 0.19628963 0.15744804 0.12963678
000220 ee 47 c6 3c be 45 67 bd f0 3f 7d bb 48 33 1a 3d
       0.02420422 -0.056462996 -0.0038642846 0.03764656
000230 17 e5 97 be 03 9e 81 3d 25 1a cf 3d 5a 9a 1f 3a
       -0.2966697 0.063289665 0.101124085 0.0006088369
000240 0d ad 03 3e cd ae 04 be f2 a4 39 3e 1e 32 dc bd
       0.12858982 -0.12957306 0.18129328 -0.107517466
000250 28 1d 2f 3e c9 b3 a1 3e bc 3a da bd 9d e6 70 3e
       0.17100966 0.31582478 -0.10655734 0.23525472
000260 26 ec c2 bc 75 d2 43 3e 77 44 17 be 13 4e 3d be
       -0.023794245 0.19123252 -0.14772211 -0.18486814
000270 e6 58 05 3e 8c 36 0f bd e1 85 1e bd 47 3f ed 3b
       0.13022193 -0.03496413 -0.038701896 0.0072402093
000280 4c 48 30 bd b0 32 62 be e8 86 f4 bd 6b 2d 6f 3e
       -0.043037698 -0.22089648 -0.11939794 0.2335717
000290 e6 0f 15 3d cf 7f 1d 3d 98 35 f2 bd e4 10 40 3d
       0.036392115 0.038451966 -0.118266284 0.04689111
0002a0 57 69 49 3e 8d 9d 37 be ac 47 cb bd 71 36 72 3d
       0.1966909 -0.17931195 -0.0992578 0.05913395
0002b0 48 47 8d 3e b4 3e ac 3d 13 09 9a bd 4d 99 77 3d
       0.27593446 0.08410397 -0.07521262 0.060448933
0002c0 71 a6 c4 bd 03 1b ec bb 50 66 85 bd 4e dd ae bd
       -0.09602059 -0.0072053685 -0.06513655 -0.08538304
0002d0 33 50 13 3e 5c 30 be bd f4 5f 87 bd 0f 71 54 ba
       0.14386062 -0.092865676 -0.066100985 -0.0008104005
0002e0 63 6b 64 3d 5e 48 0e 3e f8 5c 8f 3d 67 08 9c bd
       0.055766474 0.13894793 0.07000154 -0.0761879
0002f0 56 8a 93 bd 80 49 25 3e 78 83 71 3e 67 4d 20 be
       -0.0720412 0.1614132 0.23585308 -0.15654527
000300 a7 02 88 3d d0 07 4f 3d 03 e2 0b 3e 5e c6 fc be
       0.06641131 0.05054456 0.13660435 -0.49370092
000310 60 51 df 3d 2b 12 65 3d e4 d4 b9 bc b2 b8 f0 3c
       0.10904193 0.05592553 -0.022684522 0.029384945
000320 99 7a c7 bc 3f 6c d8 bc 30 61 5a bb 30 b8 a3 3d
       -0.024350451 -0.026418803 -0.0033322088 0.07994115
000330 21 6b 14 be c0 15 6b 3d 8f f6 a0 bd 63 db 33 3c
       -0.14493991 0.05739379 -0.07859527 0.010977599
000340 c6 56 f5 3c 41 1e fd bd 51 44 72 3d 30 1e 50 bd
       0.029948603 -0.12359286 0.059147183 -0.05081004
000350 2c b2 af 3e f9 0b 35 bb 15 6b 10 be ce 22 d6 3c
       0.34315622 -0.0027625544 -0.14103349 0.026139643
000360 4e 9c 2a bc 26 1d 5f bb f8 44 91 bd 6d b0 b8 be
       -0.0104132425 -0.0034044473 -0.07093233 -0.36072102
000370 a9 93 ed bc 01 2e 28 3d a3 9f 47 bd ea dc 10 3e
       -0.029001074 0.041059498 -0.048736226 0.14146772
000380 28 61 e8 3d dc 53 28 be cb a4 30 bd 44 e2 ed 3d
       0.11346656 -0.1643824 -0.04312591 0.11615422
000390 06 85 b8 bd 99 2c 1f 3e 5f ae bf bd 36 93 41 bd
       -0.09009747 0.15544356 -0.093594305 -0.047259532
0003a0 0d f4 93 3d 86 94 9b 3c 61 24 c6 3d 6c 56 f1 3b
       0.07224283 0.01899172 0.096749075 0.0073650386
0003b0 8d 5a b3 bd 47 05 1c bd c3 20 80 be f8 30 fa 3d
       -0.087575056 -0.03809097 -0.25024995 0.12216371
0003c0 85 45 76 bc 89 74 d3 bc af 4e 53 3d 3a 69 72 bd
       -0.015031223 -0.025812404 0.05158871 -0.059182383
0003d0 fd 56 57 be 7e dd 8c 3d 12 01 51 be 7e 75 fd bd
       -0.21029277 0.06878184 -0.20410565 -0.123759255
0003e0 97 8a fe bd d5 fb c2 3d 5d a5 c2 bd 9c b1 93 bd
       -0.12428778 0.095206894 -0.09504197 -0.07211611
0003f0 79 39 0c bc 79 96 89 bd a9 95 75 3d 31 f3 1b be
       -0.008558624 -0.067181535 0.05995718 -0.15229489

fc3.bias f4 [64]
000000 e3 d9 21 be c1 af a2 bd 84 fc 6e bd 5b 5f 15 3c
       -0.15805773 -0.07943679 -0.058346286 0.009116973
000010 ca f7 41 bd 32 2a 2c bd d1 d8 06 3e 97 dd 97 bb
       -0.04735545 -0.042032428 0.13168646 -0.00463457
000020 95 ff 48 be ad 8a 12 be a3 c3 84 bd d3 87 22 3d
       -0.19628747 -0.14310713 -0.06482627 0.039680313
000030 17 78 f4 bd ea dc b7 bd c2 51 00 bd 3a b2 31 bd
       -0.11936968 -0.08977683 -0.03132797 -0.04338286
000040 e1 39 84 bd ff ad 6d bd 8a 54 18 be da 6b 99 bd
       -0.06456352 -0.058027264 -0.14875999 -0.07491274
000050 d5 f5 b8 bc 6a a8 09 3d eb 7c c3 bd 6a e5 37 be
       -0.02257816 0.033607878 -0.095453106 -0.17958608
000060 70 3d 00 be fb 1d d7 bd 66 e3 cd 3d ba 8b a0 bd
       -0.12523437 -0.10503765 0.100531384 -0.07839151
000070 c1 bf 84 3d a0 da 27 3e 49 ed f6 bc b0 bd 25 be
       0.06481887 0.16391993 -0.030142443 -0.16185641
000080 9d 37 7c bd 0c 89 d7 3d 0d ac 2a be 4f e3 02 3d
       -0.061576474 0.105241865 -0.16667195 0.03195506
000090 5d bd ee bc 7d b0 7b bc c3 17 d2 3c a6 fd a9 b8
       -0.02914303 -0.015361902 0.025646096 -8.105794e-05
0000a0 99 c1 8e 3c 04 c3 8d 3d 89 27 1f 3d ea 12 ef 3c
       0.017426299 0.06921962 0.038856063 0.029183824
0000b0 d4 05 a8 bc c7 6a fb 3b f7 3c 8f bd 9e 3c 2c be
       -0.020510592 0.007672641 -0.0699405 -0.16819999
0000c0 34 35 b2 3d c8 cd a8 bd 15 9c b1 bb 00 fa cc bc
       0.08701554 -0.08242375 -0.0054202178 -0.025021553
0000d0 80 8b 13 3d 6a 60 ef 3d 6c 91 ac bd 54 10 2a 3e
       0.03602171 0.116883114 -0.084261745 0.16607791
0000e0 34 cb 0c be c2 ea b7 bd 85 9f 2c 3d 09 81 73 bd
       -0.13749391 -0.089803234 0.042144317 -0.05944923
0000f0 3e 9d 0c bc d9 74 65 bd f6 3e 32 bd ba c4 70 3d
       -0.008582411 -0.056019638 -0.043517075 0.058781363

action_out.weight f4 [2, 64]
000000 4b 93 24 3f 2c 74 05 be 10 03 2b 3f 67 d8 d3 3c
       0.6428725 -0.13032597 0.6680155 0.025860025
000010 1b c7 28 3e 4b 34 45 3e 44 3f 46 be 60 f0 4d 3f
       0.16482203 0.1925823 -0.19360071 0.8044491
000020 0c a7 0c 3f c7 23 d5 3e 89 d6 2f 3e cc 8c 11 bd
       0.54942393 0.41628858 0.17171682 -0.035534665
000030 07 ac 92 3f 89 52 83 3e cf 68 10 3e 4a 3c 13 be
       1.1458749 0.25648907 0.14102481 -0.14378467
000040 3a d2 03 be 84 6f ec 3d 72 2f 56 3e f1 a8 62 3f
       -0.12873164 0.115447074 0.20916536 0.88539034
000050 36 bd 58 3f b9 b5 08 be d4 33 2d 3f 6f 74 0e 3e
       0.8466371 -0.13350572 0.6765721 0.13911603
000060 47 5e 6e ba d0 d9 d8 3d 22 38 c5 bd b3 06 f7 bd
       -0.0009093028 0.105884194 -0.09629847 -0.12061825
000070 ae 15 12 bc c7 78 d9 bd 2e d5 1a be fa b2 50 3d
       -0.008916302 -0.106187396 -0.15120384 0.050951935
000080 66 74 30 be 68 15 a3 bd 4e 1c 84 3e 2f d8 2b 3e
       -0.17231902 -0.07963067 0.25802845 0.16781686
000090 8f 29 3a be fb 46 ac bd 99 c5 c1 3d 9b ee 15 3e
       -0.18179916 -0.08411976 0.09461517 0.14641802
0000a0 e2 d5 0b 3e a4 e2 6d 3e a6 cf ff 3d db ae 32 bb
       0.13655809 0.23230988 0.12490778 -0.0027264867
0000b0 81 0b a5 3d 52 a1 6b 3d 01 70 e0 3d e0 b1 c2 3e
       0.08058835 0.057526894 0.10958863 0.38026333
0000c0 a6 8e 8c bd ff 37 17 3e 68 f4 8f bc 44 b9 fa bd
       -0.068631455 0.14767455 -0.017572597 -0.12242368
0000d0 74 8d c1 3d 16 2f 88 3e 30 7f c2 bd ec f1 50 be
       0.09450808 0.26598424 -0.09496915 -0.20404786
0000e0 a4 a2 35 bb 40 ab aa bd 32 d7 1c be ce da 78 3d
       -0.002771535 -0.083334446 -0.15316465 0.060755543
0000f0 61 36 43 be 8d 3d 0c be 3a e4 b6 3d 68 41 02 3e
       -0.19063713 -0.13695355 0.089302495 0.12720263
000100 79 9b 43 be de ee 30 3e a6 31 56 be a7 1e 94 be
       -0.19102277 0.1727862 -0.20917377 -0.28929636
000110 66 a0 0b 3d 18 b5 18 be ad c4 31 be 48 2a ab bd
       0.034088515 -0.14912832 -0.17360182 -0.08357674
000120 03 fe 88 bc 57 e5 02 be 7e 1a 37 bc c1 8b 36 3e
       -0.016722685 -0.12782799 -0.01117575 0.1782675
000130 cf 91 9e 3e ae 89 ac bd ce 6d 80 bd 5e b2 8f bd
       0.30970618 -0.08424698 -0.062709436 -0.07016443
000140 c1 f2 d1 3d f3 5b 1a 3e 6f 4b 6b be 04 c6 1d 3d
       0.1025138 0.15074138 -0.22977994 0.03851892
000150 c9 ba ad 3d 3c bd ba bd e6 15 a0 3e 12 b7 80 be
       0.08482892 -0.09118125 0.31266707 -0.25139672
000160 7e 23 13 3e 2a 10 13 bc 18 30 38 3d 8b d4 5e be
       0.14369008 -0.008976022 0.04496774 -0.21760766
000170 88 74 d4 be 96 34 34 be ed 42 97 be 51 8e b1 3d
       -0.41495156 -0.17598185 -0.29543248 0.08669723
000180 c9 a2 e5 3e 31 e7 08 be ac 25 09 be fc 0f 14 3e
       0.44850758 -0.13369443 -0.13393277 0.14459223
000190 ae db 4a 3d 80 fe 9a be 84 35 f8 bd be dd 14 be
       0.04952591 -0.30272293 -0.12119582 -0.14537713
0001a0 f4 5a b8 3c 9d 6a 2e bd 7b 02 eb 3d ff 73 2b 3e
       0.022504307 -0.042582143 0.114750825 0.16743468
0001b0 83 c0 19 3e 83 61 7f bd 0e 00 2e be a3 01 4d be
       0.15014844 -0.062348854 -0.16992208 -0.20020156
0001c0 db ea db bd f4 d6 b1 bd 1f a5 02 3e 40 4b 6a bd
       -0.107381545 -0.08683577 0.12758301 -0.05720067
0001d0 1c 57 9a bd 4b 56 8b bd fc 5c 06 3e d2 f9 c9 bd
       -0.07536146 -0.068035685 0.13121408 -0.098621026
0001e0 06 59 1d 3f 04 86 c9 3d e6 4c 9f bc 14 81 d1 3d
       0.61463964 0.098400146 -0.019445848 0.10229698
0001f0 be 02 4d be ac 1f 1d bf 47 fb 8c be 44 d6 14 3e
       -0.20020577 -0.6137645 -0.2753546 0.14534861

action_out.bias f4 [2]
000000 ac b5 d1 b9 0d b7 fc 3b
       -0.00039998943 0.007712251
